…
I0608 09:26:07.495254 32747 net.cpp:257] The NetState phase (0) differed from the phase (1) specified by a rule in layer data
I0608 09:26:07.495518 32747 net.cpp:42] Initializing net from parameters: 
name: "yq_fk14"
state {
  phase: TRAIN
}
layer {
  name: "data"
  type: "ImageDataMultLabel"
  top: "data"
  top: "label_pid"
  top: "label_neck"
  include {
    phase: TRAIN
  }
  transform_param {
    mirror: true
    crop_size: 227
    mean_value: 187
    mean_value: 176
    mean_value: 176
  }
  image_data_mult_label_param {
    source: "models/yq_fk14/neck_train.txt"
    batch_size: 50
    shuffle: true
    new_height: 256
    new_width: 256
  }
}
layer {
  name: "conv1"
  type: "Convolution"
  bottom: "data"
  top: "conv1"
  param {
    lr_mult: 1
    decay_mult: 1
  }
  param {
    lr_mult: 2
    decay_mult: 0
  }
  convolution_param {
    num_output: 96
    kernel_size: 11
    stride: 4
    weight_filler {
      type: "gaussian"
      std: 0.01
    }
    bias_filler {
      type: "constant"
      value: 0
    }
  }
}
layer {
  name: "relu1"
  type: "ReLU"
  bottom: "conv1"
  top: "conv1"
}
layer {
  name: "pool1"
  type: "Pooling"
  bottom: "conv1"
  top: "pool1"
  pooling_param {
    pool: MAX
    kernel_size: 3
    stride: 2
  }
}
layer {
  name: "norm1"
  type: "LRN"
  bottom: "pool1"
  top: "norm1"
  lrn_param {
    local_size: 5
    alpha: 0.0001
    beta: 0.75
  }
}
layer {
  name: "conv2"
  type: "Convolution"
  bottom: "norm1"
  top: "conv2"
  param {
    lr_mult: 1
    decay_mult: 1
  }
  param {
    lr_mult: 2
    decay_mult: 0
  }
  convolution_param {
    num_output: 256
    pad: 2
    kernel_size: 5
    group: 2
    weight_filler {
      type: "gaussian"
      std: 0.01
    }
    bias_filler {
      type: "constant"
      value: 1
    }
  }
}
layer {
  name: "relu2"
  type: "ReLU"
  bottom: "conv2"
  top: "conv2"
}
layer {
  name: "pool2"
  type: "Pooling"
  bottom: "conv2"
  top: "pool2"
  pooling_param {
    pool: MAX
    kernel_size: 3
    stride: 2
  }
}
layer {
  name: "norm2"
  type: "LRN"
  bottom: "pool2"
  top: "norm2"
  lrn_param {
    local_size: 5
    alpha: 0.0001
    beta: 0.75
  }
}
layer {
  name: "conv3"
  type: "Convolution"
  bottom: "norm2"
  top: "conv3"
  param {
    lr_mult: 1
    decay_mult: 1
  }
  param {
    lr_mult: 2
    decay_mult: 0
  }
  convolution_param {
    num_output: 384
    pad: 1
    kernel_size: 3
    weight_filler {
      type: "gaussian"
      std: 0.01
    }
    bias_filler {
      type: "constant"
      value: 0
    }
  }
}
layer {
  name: "relu3"
  type: "ReLU"
  bottom: "conv3"
  top: "conv3"
}
layer {
  name: "conv4"
  type: "Convolution"
  bottom: "conv3"
  top: "conv4"
  param {
    lr_mult: 1
    decay_mult: 1
  }
  param {
    lr_mult: 2
    decay_mult: 0
  }
  convolution_param {
    num_output: 384
    pad: 1
    kernel_size: 3
    group: 2
    weight_filler {
      type: "gaussian"
      std: 0.01
    }
    bias_filler {
      type: "constant"
      value: 1
    }
  }
}
layer {
  name: "relu4"
  type: "ReLU"
  bottom: "conv4"
  top: "conv4"
}
layer {
  name: "conv5"
  type: "Convolution"
  bottom: "conv4"
  top: "conv5"
  param {
    lr_mult: 1
    decay_mult: 1
  }
  param {
    lr_mult: 2
    decay_mult: 0
  }
  convolution_param {
    num_output: 256
    pad: 1
    kernel_size: 3
    group: 2
    weight_filler {
      type: "gaussian"
      std: 0.01
    }
    bias_filler {
      type: "constant"
      value: 1
    }
  }
}
layer {
  name: "relu5"
  type: "ReLU"
  bottom: "conv5"
  top: "conv5"
}
layer {
  name: "pool5"
  type: "Pooling"
  bottom: "conv5"
  top: "pool5"
  pooling_param {
    pool: MAX
    kernel_size: 3
    stride: 2
  }
}
layer {
  name: "fc6"
  type: "InnerProduct"
  bottom: "pool5"
  top: "fc6"
  param {
    lr_mult: 1
    decay_mult: 1
  }
  param {
    lr_mult: 2
    decay_mult: 0
  }
  inner_product_param {
    num_output: 4096
    weight_filler {
      type: "gaussian"
      std: 0.005
    }
    bias_filler {
      type: "constant"
      value: 1
    }
  }
}
layer {
  name: "relu6"
  type: "ReLU"
  bottom: "fc6"
  top: "fc6"
}
layer {
  name: "drop6"
  type: "Dropout"
  bottom: "fc6"
  top: "fc6"
  dropout_param {
    dropout_ratio: 0.5
  }
}
layer {
  name: "fc7"
  type: "InnerProduct"
  bottom: "fc6"
  top: "fc7"
  param {
    lr_mult: 1
    decay_mult: 1
  }
  param {
    lr_mult: 2
    decay_mult: 0
  }
  inner_product_param {
    num_output: 4096
    weight_filler {
      type: "gaussian"
      std: 0.005
    }
    bias_filler {
      type: "constant"
      value: 1
    }
  }
}
layer {
  name: "relu7"
  type: "ReLU"
  bottom: "fc7"
  top: "fc7"
}
layer {
  name: "drop7"
  type: "Dropout"
  bottom: "fc7"
  top: "fc7"
  dropout_param {
    dropout_ratio: 0.8
  }
}
layer {
  name: "FCend_neckhack"
  type: "InnerProduct"
  bottom: "fc7"
  top: "FCend_neckhack"
  param {
    lr_mult: 10
    decay_mult: 1
  }
  param {
    lr_mult: 20
    decay_mult: 0
  }
  inner_product_param {
    num_output: 6
    weight_filler {
      type: "gaussian"
      std: 0.01
    }
    bias_filler {
      type: "constant"
      value: 0
    }
  }
}
layer {
  name: "loss_neck"
  type: "SoftmaxWithPerClassLoss"
  bottom: "FCend_neckhack"
  bottom: "label_neck"
  top: "loss_neck"
  top: "prob_neck"
  loss_weight: 1
  loss_weight: 0
  loss_param {
    ignore_label: 0
    normalize: true
    classifier_info_file: "models/yq_fk14/info_neck.txt"
    class_specific_lr: false
  }
}
layer {
  name: "accuracy_neck"
  type: "PerClassAccuracy"
  bottom: "prob_neck"
  bottom: "label_neck"
  bottom: "label_pid"
  per_class_accuracy_param {
    ignore_label: 0
    classifier_info_file: "models/yq_fk14/info_neck.txt"
    confusion_matrix_file: "models/yq_fk14/conf_neck"
    confusion_id_file: "models/yq_fk14/conf_id_neck"
    use_hierarchy: true
    use_detailed_hier_accu: true
    hier_confusion_file: "models/yq_fk14/conf_hier_neck"
    num_grades: 20
  }
}
I0608 09:26:07.496865 32747 layer_factory.hpp:74] Creating layer data
…
I0608 09:26:07.498920 32747 image_data_multclass_layer.cpp:71] Label: 24518
I0608 09:26:07.498932 32747 image_data_multclass_layer.cpp:71] Label: 5
I0608 09:26:07.498941 32747 image_data_multclass_layer.cpp:83] ##############################################
I0608 09:26:07.498950 32747 image_data_multclass_layer.cpp:84] ##############################################
I0608 09:26:07.498958 32747 image_data_multclass_layer.cpp:85] size of top: 3
I0608 09:26:07.505017 32747 image_data_multclass_layer.cpp:103] output data size: 50,3,227,227
I0608 09:26:07.505045 32747 image_data_multclass_layer.cpp:107] number of labels: 2
I0608 09:26:07.513166 32747 net.cpp:120] Top shape: 50 3 227 227 (7729350)
I0608 09:26:07.513216 32747 net.cpp:120] Top shape: 50 (50)
I0608 09:26:07.513227 32747 net.cpp:120] Top shape: 50 (50)
I0608 09:26:07.513242 32747 layer_factory.hpp:74] Creating layer label_neck_data_2_split
I0608 09:26:07.513312 32747 net.cpp:84] Creating Layer label_neck_data_2_split
I0608 09:26:07.513331 32747 net.cpp:380] label_neck_data_2_split <- label_neck
I0608 09:26:07.513353 32747 net.cpp:338] label_neck_data_2_split -> label_neck_data_2_split_0
I0608 09:26:07.513373 32747 net.cpp:338] label_neck_data_2_split -> label_neck_data_2_split_1
I0608 09:26:07.513387 32747 net.cpp:113] Setting up label_neck_data_2_split
I0608 09:26:07.513404 32747 net.cpp:120] Top shape: 50 (50)
I0608 09:26:07.513424 32747 net.cpp:120] Top shape: 50 (50)
I0608 09:26:07.513434 32747 layer_factory.hpp:74] Creating layer conv1
I0608 09:26:07.513455 32747 net.cpp:84] Creating Layer conv1
I0608 09:26:07.513465 32747 net.cpp:380] conv1 <- data
I0608 09:26:07.513480 32747 net.cpp:338] conv1 -> conv1
I0608 09:26:07.513504 32747 net.cpp:113] Setting up conv1
I0608 09:26:07.514683 32747 net.cpp:120] Top shape: 50 96 55 55 (14520000)
I0608 09:26:07.514727 32747 layer_factory.hpp:74] Creating layer relu1
I0608 09:26:07.514750 32747 net.cpp:84] Creating Layer relu1
I0608 09:26:07.514760 32747 net.cpp:380] relu1 <- conv1
I0608 09:26:07.514773 32747 net.cpp:327] relu1 -> conv1 (in-place)
I0608 09:26:07.514785 32747 net.cpp:113] Setting up relu1
I0608 09:26:07.514798 32747 net.cpp:120] Top shape: 50 96 55 55 (14520000)
I0608 09:26:07.514808 32747 layer_factory.hpp:74] Creating layer pool1
I0608 09:26:07.514823 32747 net.cpp:84] Creating Layer pool1
I0608 09:26:07.514833 32747 net.cpp:380] pool1 <- conv1
I0608 09:26:07.514844 32747 net.cpp:338] pool1 -> pool1
I0608 09:26:07.514859 32747 net.cpp:113] Setting up pool1
I0608 09:26:07.514892 32747 net.cpp:120] Top shape: 50 96 27 27 (3499200)
I0608 09:26:07.514909 32747 layer_factory.hpp:74] Creating layer norm1
I0608 09:26:07.514926 32747 net.cpp:84] Creating Layer norm1
I0608 09:26:07.514936 32747 net.cpp:380] norm1 <- pool1
I0608 09:26:07.514948 32747 net.cpp:338] norm1 -> norm1
I0608 09:26:07.514962 32747 net.cpp:113] Setting up norm1
I0608 09:26:07.514992 32747 net.cpp:120] Top shape: 50 96 27 27 (3499200)
I0608 09:26:07.515003 32747 layer_factory.hpp:74] Creating layer conv2
I0608 09:26:07.515017 32747 net.cpp:84] Creating Layer conv2
I0608 09:26:07.515027 32747 net.cpp:380] conv2 <- norm1
I0608 09:26:07.515039 32747 net.cpp:338] conv2 -> conv2
I0608 09:26:07.515053 32747 net.cpp:113] Setting up conv2
I0608 09:26:07.524987 32747 net.cpp:120] Top shape: 50 256 27 27 (9331200)
I0608 09:26:07.525017 32747 layer_factory.hpp:74] Creating layer relu2
I0608 09:26:07.525030 32747 net.cpp:84] Creating Layer relu2
I0608 09:26:07.525040 32747 net.cpp:380] relu2 <- conv2
I0608 09:26:07.525053 32747 net.cpp:327] relu2 -> conv2 (in-place)
I0608 09:26:07.525064 32747 net.cpp:113] Setting up relu2
I0608 09:26:07.525075 32747 net.cpp:120] Top shape: 50 256 27 27 (9331200)
I0608 09:26:07.525085 32747 layer_factory.hpp:74] Creating layer pool2
I0608 09:26:07.525099 32747 net.cpp:84] Creating Layer pool2
I0608 09:26:07.525109 32747 net.cpp:380] pool2 <- conv2
I0608 09:26:07.525120 32747 net.cpp:338] pool2 -> pool2
I0608 09:26:07.525133 32747 net.cpp:113] Setting up pool2
I0608 09:26:07.525154 32747 net.cpp:120] Top shape: 50 256 13 13 (2163200)
I0608 09:26:07.525166 32747 layer_factory.hpp:74] Creating layer norm2
I0608 09:26:07.525177 32747 net.cpp:84] Creating Layer norm2
I0608 09:26:07.525187 32747 net.cpp:380] norm2 <- pool2
I0608 09:26:07.525199 32747 net.cpp:338] norm2 -> norm2
I0608 09:26:07.525210 32747 net.cpp:113] Setting up norm2
I0608 09:26:07.525223 32747 net.cpp:120] Top shape: 50 256 13 13 (2163200)
I0608 09:26:07.525233 32747 layer_factory.hpp:74] Creating layer conv3
I0608 09:26:07.525248 32747 net.cpp:84] Creating Layer conv3
I0608 09:26:07.525256 32747 net.cpp:380] conv3 <- norm2
I0608 09:26:07.525270 32747 net.cpp:338] conv3 -> conv3
I0608 09:26:07.525284 32747 net.cpp:113] Setting up conv3
I0608 09:26:07.554848 32747 net.cpp:120] Top shape: 50 384 13 13 (3244800)
I0608 09:26:07.554890 32747 layer_factory.hpp:74] Creating layer relu3
I0608 09:26:07.554906 32747 net.cpp:84] Creating Layer relu3
I0608 09:26:07.554950 32747 net.cpp:380] relu3 <- conv3
I0608 09:26:07.554966 32747 net.cpp:327] relu3 -> conv3 (in-place)
I0608 09:26:07.554980 32747 net.cpp:113] Setting up relu3
I0608 09:26:07.554992 32747 net.cpp:120] Top shape: 50 384 13 13 (3244800)
I0608 09:26:07.555001 32747 layer_factory.hpp:74] Creating layer conv4
I0608 09:26:07.555016 32747 net.cpp:84] Creating Layer conv4
I0608 09:26:07.555027 32747 net.cpp:380] conv4 <- conv3
I0608 09:26:07.555043 32747 net.cpp:338] conv4 -> conv4
I0608 09:26:07.555064 32747 net.cpp:113] Setting up conv4
I0608 09:26:07.576817 32747 net.cpp:120] Top shape: 50 384 13 13 (3244800)
I0608 09:26:07.576846 32747 layer_factory.hpp:74] Creating layer relu4
I0608 09:26:07.576860 32747 net.cpp:84] Creating Layer relu4
I0608 09:26:07.576870 32747 net.cpp:380] relu4 <- conv4
I0608 09:26:07.576884 32747 net.cpp:327] relu4 -> conv4 (in-place)
I0608 09:26:07.576895 32747 net.cpp:113] Setting up relu4
I0608 09:26:07.576907 32747 net.cpp:120] Top shape: 50 384 13 13 (3244800)
I0608 09:26:07.576916 32747 layer_factory.hpp:74] Creating layer conv5
I0608 09:26:07.576930 32747 net.cpp:84] Creating Layer conv5
I0608 09:26:07.576941 32747 net.cpp:380] conv5 <- conv4
I0608 09:26:07.576954 32747 net.cpp:338] conv5 -> conv5
I0608 09:26:07.576967 32747 net.cpp:113] Setting up conv5
I0608 09:26:07.591236 32747 net.cpp:120] Top shape: 50 256 13 13 (2163200)
I0608 09:26:07.591269 32747 layer_factory.hpp:74] Creating layer relu5
I0608 09:26:07.591284 32747 net.cpp:84] Creating Layer relu5
I0608 09:26:07.591295 32747 net.cpp:380] relu5 <- conv5
I0608 09:26:07.591306 32747 net.cpp:327] relu5 -> conv5 (in-place)
I0608 09:26:07.591318 32747 net.cpp:113] Setting up relu5
I0608 09:26:07.591332 32747 net.cpp:120] Top shape: 50 256 13 13 (2163200)
I0608 09:26:07.591349 32747 layer_factory.hpp:74] Creating layer pool5
I0608 09:26:07.591364 32747 net.cpp:84] Creating Layer pool5
I0608 09:26:07.591374 32747 net.cpp:380] pool5 <- conv5
I0608 09:26:07.591387 32747 net.cpp:338] pool5 -> pool5
I0608 09:26:07.591399 32747 net.cpp:113] Setting up pool5
I0608 09:26:07.591414 32747 net.cpp:120] Top shape: 50 256 6 6 (460800)
I0608 09:26:07.591423 32747 layer_factory.hpp:74] Creating layer fc6
I0608 09:26:07.591444 32747 net.cpp:84] Creating Layer fc6
I0608 09:26:07.591454 32747 net.cpp:380] fc6 <- pool5
I0608 09:26:07.591467 32747 net.cpp:338] fc6 -> fc6
I0608 09:26:07.591495 32747 net.cpp:113] Setting up fc6
I0608 09:26:08.813086 32747 net.cpp:120] Top shape: 50 4096 (204800)
I0608 09:26:08.813144 32747 layer_factory.hpp:74] Creating layer relu6
I0608 09:26:08.813163 32747 net.cpp:84] Creating Layer relu6
I0608 09:26:08.813175 32747 net.cpp:380] relu6 <- fc6
I0608 09:26:08.813190 32747 net.cpp:327] relu6 -> fc6 (in-place)
I0608 09:26:08.813205 32747 net.cpp:113] Setting up relu6
I0608 09:26:08.813216 32747 net.cpp:120] Top shape: 50 4096 (204800)
I0608 09:26:08.813226 32747 layer_factory.hpp:74] Creating layer drop6
I0608 09:26:08.813248 32747 net.cpp:84] Creating Layer drop6
I0608 09:26:08.813258 32747 net.cpp:380] drop6 <- fc6
I0608 09:26:08.813269 32747 net.cpp:327] drop6 -> fc6 (in-place)
I0608 09:26:08.813297 32747 net.cpp:113] Setting up drop6
I0608 09:26:08.813318 32747 net.cpp:120] Top shape: 50 4096 (204800)
I0608 09:26:08.813335 32747 layer_factory.hpp:74] Creating layer fc7
I0608 09:26:08.813350 32747 net.cpp:84] Creating Layer fc7
I0608 09:26:08.813359 32747 net.cpp:380] fc7 <- fc6
I0608 09:26:08.813372 32747 net.cpp:338] fc7 -> fc7
I0608 09:26:08.813390 32747 net.cpp:113] Setting up fc7
I0608 09:26:09.358321 32747 net.cpp:120] Top shape: 50 4096 (204800)
I0608 09:26:09.358391 32747 layer_factory.hpp:74] Creating layer relu7
I0608 09:26:09.358412 32747 net.cpp:84] Creating Layer relu7
I0608 09:26:09.358425 32747 net.cpp:380] relu7 <- fc7
I0608 09:26:09.358439 32747 net.cpp:327] relu7 -> fc7 (in-place)
I0608 09:26:09.358455 32747 net.cpp:113] Setting up relu7
I0608 09:26:09.358466 32747 net.cpp:120] Top shape: 50 4096 (204800)
I0608 09:26:09.358475 32747 layer_factory.hpp:74] Creating layer drop7
I0608 09:26:09.358530 32747 net.cpp:84] Creating Layer drop7
I0608 09:26:09.358541 32747 net.cpp:380] drop7 <- fc7
I0608 09:26:09.358553 32747 net.cpp:327] drop7 -> fc7 (in-place)
I0608 09:26:09.358566 32747 net.cpp:113] Setting up drop7
I0608 09:26:09.358579 32747 net.cpp:120] Top shape: 50 4096 (204800)
I0608 09:26:09.358589 32747 layer_factory.hpp:74] Creating layer FCend_neckhack
I0608 09:26:09.358603 32747 net.cpp:84] Creating Layer FCend_neckhack
I0608 09:26:09.358613 32747 net.cpp:380] FCend_neckhack <- fc7
I0608 09:26:09.358630 32747 net.cpp:338] FCend_neckhack -> FCend_neckhack
I0608 09:26:09.358654 32747 net.cpp:113] Setting up FCend_neckhack
I0608 09:26:09.359491 32747 net.cpp:120] Top shape: 50 6 (300)
I0608 09:26:09.359515 32747 layer_factory.hpp:74] Creating layer loss_neck
I0608 09:26:09.359537 32747 net.cpp:84] Creating Layer loss_neck
I0608 09:26:09.359547 32747 net.cpp:380] loss_neck <- FCend_neckhack
I0608 09:26:09.359560 32747 net.cpp:380] loss_neck <- label_neck_data_2_split_0
I0608 09:26:09.359571 32747 net.cpp:338] loss_neck -> loss_neck
I0608 09:26:09.359591 32747 net.cpp:338] loss_neck -> prob_neck
I0608 09:26:09.359611 32747 net.cpp:113] Setting up loss_neck
I0608 09:26:09.359629 32747 layer_factory.hpp:74] Creating layer loss_neck
I0608 09:26:09.359653 32747 softmax_perclass_loss.cpp:36] loss has ignore_label: 0
I0608 09:26:09.359665 32747 softmax_perclass_loss.cpp:46] Opening file models/yq_fk14/info_neck.txt
I0608 09:26:09.359810 32747 net.cpp:120] Top shape: (1)
I0608 09:26:09.359848 32747 net.cpp:122]     with loss weight 1
I0608 09:26:09.359890 32747 net.cpp:120] Top shape: 50 6 (300)
I0608 09:26:09.359902 32747 layer_factory.hpp:74] Creating layer accuracy_neck
I0608 09:26:09.359920 32747 net.cpp:84] Creating Layer accuracy_neck
I0608 09:26:09.359930 32747 net.cpp:380] accuracy_neck <- prob_neck
I0608 09:26:09.359942 32747 net.cpp:380] accuracy_neck <- label_neck_data_2_split_1
I0608 09:26:09.359952 32747 net.cpp:380] accuracy_neck <- label_pid
I0608 09:26:09.359962 32747 net.cpp:113] Setting up accuracy_neck
…
