…
I0519 12:16:21.306699 32158 net.cpp:257] The NetState phase (0) differed from the phase (1) specified by a rule in layer data
I0519 12:16:21.306953 32158 net.cpp:42] Initializing net from parameters: 
name: "test_hier"
state {
  phase: TRAIN
}
layer {
  name: "data"
  type: "ImageDataMultLabel"
  top: "data"
  top: "label_pid"
  top: "label_category"
  include {
    phase: TRAIN
  }
  transform_param {
    mirror: true
    crop_size: 227
    mean_value: 187
    mean_value: 176
    mean_value: 176
  }
  image_data_mult_label_param {
    source: "models/test_hier/train.txt"
    batch_size: 50
    shuffle: true
    new_height: 256
    new_width: 256
  }
}
layer {
  name: "conv1"
  type: "Convolution"
  bottom: "data"
  top: "conv1"
  param {
    lr_mult: 1
    decay_mult: 1
  }
  param {
    lr_mult: 2
    decay_mult: 0
  }
  convolution_param {
    num_output: 96
    kernel_size: 11
    stride: 4
    weight_filler {
      type: "gaussian"
      std: 0.01
    }
    bias_filler {
      type: "constant"
      value: 0
    }
  }
}
layer {
  name: "relu1"
  type: "ReLU"
  bottom: "conv1"
  top: "conv1"
}
layer {
  name: "pool1"
  type: "Pooling"
  bottom: "conv1"
  top: "pool1"
  pooling_param {
    pool: MAX
    kernel_size: 3
    stride: 2
  }
}
layer {
  name: "norm1"
  type: "LRN"
  bottom: "pool1"
  top: "norm1"
  lrn_param {
    local_size: 5
    alpha: 0.0001
    beta: 0.75
  }
}
layer {
  name: "conv2"
  type: "Convolution"
  bottom: "norm1"
  top: "conv2"
  param {
    lr_mult: 1
    decay_mult: 1
  }
  param {
    lr_mult: 2
    decay_mult: 0
  }
  convolution_param {
    num_output: 256
    pad: 2
    kernel_size: 5
    group: 2
    weight_filler {
      type: "gaussian"
      std: 0.01
    }
    bias_filler {
      type: "constant"
      value: 1
    }
  }
}
layer {
  name: "relu2"
  type: "ReLU"
  bottom: "conv2"
  top: "conv2"
}
layer {
  name: "pool2"
  type: "Pooling"
  bottom: "conv2"
  top: "pool2"
  pooling_param {
    pool: MAX
    kernel_size: 3
    stride: 2
  }
}
layer {
  name: "norm2"
  type: "LRN"
  bottom: "pool2"
  top: "norm2"
  lrn_param {
    local_size: 5
    alpha: 0.0001
    beta: 0.75
  }
}
layer {
  name: "conv3"
  type: "Convolution"
  bottom: "norm2"
  top: "conv3"
  param {
    lr_mult: 1
    decay_mult: 1
  }
  param {
    lr_mult: 2
    decay_mult: 0
  }
  convolution_param {
    num_output: 384
    pad: 1
    kernel_size: 3
    weight_filler {
      type: "gaussian"
      std: 0.01
    }
    bias_filler {
      type: "constant"
      value: 0
    }
  }
}
layer {
  name: "relu3"
  type: "ReLU"
  bottom: "conv3"
  top: "conv3"
}
layer {
  name: "conv4"
  type: "Convolution"
  bottom: "conv3"
  top: "conv4"
  param {
    lr_mult: 1
    decay_mult: 1
  }
  param {
    lr_mult: 2
    decay_mult: 0
  }
  convolution_param {
    num_output: 384
    pad: 1
    kernel_size: 3
    group: 2
    weight_filler {
      type: "gaussian"
      std: 0.01
    }
    bias_filler {
      type: "constant"
      value: 1
    }
  }
}
layer {
  name: "relu4"
  type: "ReLU"
  bottom: "conv4"
  top: "conv4"
}
layer {
  name: "conv5"
  type: "Convolution"
  bottom: "conv4"
  top: "conv5"
  param {
    lr_mult: 1
    decay_mult: 1
  }
  param {
    lr_mult: 2
    decay_mult: 0
  }
  convolution_param {
    num_output: 256
    pad: 1
    kernel_size: 3
    group: 2
    weight_filler {
      type: "gaussian"
      std: 0.01
    }
    bias_filler {
      type: "constant"
      value: 1
    }
  }
}
layer {
  name: "relu5"
  type: "ReLU"
  bottom: "conv5"
  top: "conv5"
}
layer {
  name: "pool5"
  type: "Pooling"
  bottom: "conv5"
  top: "pool5"
  pooling_param {
    pool: MAX
    kernel_size: 3
    stride: 2
  }
}
layer {
  name: "fc6"
  type: "InnerProduct"
  bottom: "pool5"
  top: "fc6"
  param {
    lr_mult: 1
    decay_mult: 1
  }
  param {
    lr_mult: 2
    decay_mult: 0
  }
  inner_product_param {
    num_output: 1024
    weight_filler {
      type: "gaussian"
      std: 0.005
    }
    bias_filler {
      type: "constant"
      value: 1
    }
  }
}
layer {
  name: "relu6"
  type: "ReLU"
  bottom: "fc6"
  top: "fc6"
}
layer {
  name: "drop6"
  type: "Dropout"
  bottom: "fc6"
  top: "fc6"
  dropout_param {
    dropout_ratio: 0.7
  }
}
layer {
  name: "fc8_category"
  type: "InnerProduct"
  bottom: "fc6"
  top: "fc8_category"
  param {
    lr_mult: 1
    decay_mult: 1
  }
  param {
    lr_mult: 2
    decay_mult: 0
  }
  inner_product_param {
    num_output: 28
    weight_filler {
      type: "gaussian"
      std: 0.01
    }
    bias_filler {
      type: "constant"
      value: 0
    }
  }
}
layer {
  name: "loss_category"
  type: "SoftmaxWithPerClassLoss"
  bottom: "fc8_category"
  bottom: "label_category"
  top: "loss_category"
  top: "prob_category"
  loss_weight: 1
  loss_weight: 0
  loss_param {
    ignore_label: 0
    normalize: true
    classifier_info_file: "models/test_hier/info_category.txt"
    class_specific_lr: false
  }
}
layer {
  name: "accuracy_category"
  type: "PerClassAccuracy"
  bottom: "prob_category"
  bottom: "label_category"
  bottom: "label_pid"
  per_class_accuracy_param {
    ignore_label: 0
    classifier_info_file: "models/test_hier/info_category.txt"
    confusion_matrix_file: "models/test_hier/conf_category"
    use_hierarchy: true
  }
}
I0519 12:16:21.308259 32158 layer_factory.hpp:74] Creating layer data
I0519 12:16:21.308303 32158 net.cpp:84] Creating Layer data
I0519 12:16:21.308331 32158 net.cpp:338] data -> data
I0519 12:16:21.308372 32158 net.cpp:338] data -> label_pid
…
I0519 12:16:21.617938 32158 image_data_multclass_layer.cpp:66] Label: 139973
I0519 12:16:21.617946 32158 image_data_multclass_layer.cpp:66] Label: 0
I0519 12:16:21.617956 32158 image_data_multclass_layer.cpp:78] ##############################################
I0519 12:16:21.617965 32158 image_data_multclass_layer.cpp:79] ##############################################
I0519 12:16:21.617974 32158 image_data_multclass_layer.cpp:80] size of top: 3
I0519 12:16:21.624629 32158 image_data_multclass_layer.cpp:98] output data size: 50,3,227,227
I0519 12:16:21.624681 32158 image_data_multclass_layer.cpp:102] number of labels: 2
I0519 12:16:21.633162 32158 net.cpp:120] Top shape: 50 3 227 227 (7729350)
I0519 12:16:21.633214 32158 net.cpp:120] Top shape: 50 (50)
I0519 12:16:21.633226 32158 net.cpp:120] Top shape: 50 (50)
I0519 12:16:21.633242 32158 layer_factory.hpp:74] Creating layer label_category_data_2_split
I0519 12:16:21.633285 32158 net.cpp:84] Creating Layer label_category_data_2_split
I0519 12:16:21.633301 32158 net.cpp:380] label_category_data_2_split <- label_category
I0519 12:16:21.633324 32158 net.cpp:338] label_category_data_2_split -> label_category_data_2_split_0
I0519 12:16:21.633345 32158 net.cpp:338] label_category_data_2_split -> label_category_data_2_split_1
I0519 12:16:21.633360 32158 net.cpp:113] Setting up label_category_data_2_split
I0519 12:16:21.633379 32158 net.cpp:120] Top shape: 50 (50)
I0519 12:16:21.633391 32158 net.cpp:120] Top shape: 50 (50)
I0519 12:16:21.633401 32158 layer_factory.hpp:74] Creating layer conv1
I0519 12:16:21.633460 32158 net.cpp:84] Creating Layer conv1
I0519 12:16:21.633471 32158 net.cpp:380] conv1 <- data
I0519 12:16:21.633486 32158 net.cpp:338] conv1 -> conv1
I0519 12:16:21.633503 32158 net.cpp:113] Setting up conv1
I0519 12:16:21.634721 32158 net.cpp:120] Top shape: 50 96 55 55 (14520000)
I0519 12:16:21.634757 32158 layer_factory.hpp:74] Creating layer relu1
I0519 12:16:21.634773 32158 net.cpp:84] Creating Layer relu1
I0519 12:16:21.634783 32158 net.cpp:380] relu1 <- conv1
I0519 12:16:21.634795 32158 net.cpp:327] relu1 -> conv1 (in-place)
I0519 12:16:21.634807 32158 net.cpp:113] Setting up relu1
I0519 12:16:21.634821 32158 net.cpp:120] Top shape: 50 96 55 55 (14520000)
I0519 12:16:21.634831 32158 layer_factory.hpp:74] Creating layer pool1
I0519 12:16:21.634845 32158 net.cpp:84] Creating Layer pool1
I0519 12:16:21.634855 32158 net.cpp:380] pool1 <- conv1
I0519 12:16:21.634867 32158 net.cpp:338] pool1 -> pool1
I0519 12:16:21.634882 32158 net.cpp:113] Setting up pool1
I0519 12:16:21.634908 32158 net.cpp:120] Top shape: 50 96 27 27 (3499200)
I0519 12:16:21.634923 32158 layer_factory.hpp:74] Creating layer norm1
I0519 12:16:21.634940 32158 net.cpp:84] Creating Layer norm1
I0519 12:16:21.634951 32158 net.cpp:380] norm1 <- pool1
I0519 12:16:21.634969 32158 net.cpp:338] norm1 -> norm1
I0519 12:16:21.634984 32158 net.cpp:113] Setting up norm1
I0519 12:16:21.635052 32158 net.cpp:120] Top shape: 50 96 27 27 (3499200)
I0519 12:16:21.635074 32158 layer_factory.hpp:74] Creating layer conv2
I0519 12:16:21.635098 32158 net.cpp:84] Creating Layer conv2
I0519 12:16:21.635109 32158 net.cpp:380] conv2 <- norm1
I0519 12:16:21.635124 32158 net.cpp:338] conv2 -> conv2
I0519 12:16:21.635139 32158 net.cpp:113] Setting up conv2
I0519 12:16:21.645100 32158 net.cpp:120] Top shape: 50 256 27 27 (9331200)
I0519 12:16:21.645156 32158 layer_factory.hpp:74] Creating layer relu2
I0519 12:16:21.645174 32158 net.cpp:84] Creating Layer relu2
I0519 12:16:21.645185 32158 net.cpp:380] relu2 <- conv2
I0519 12:16:21.645200 32158 net.cpp:327] relu2 -> conv2 (in-place)
I0519 12:16:21.645215 32158 net.cpp:113] Setting up relu2
I0519 12:16:21.645226 32158 net.cpp:120] Top shape: 50 256 27 27 (9331200)
I0519 12:16:21.645236 32158 layer_factory.hpp:74] Creating layer pool2
I0519 12:16:21.645251 32158 net.cpp:84] Creating Layer pool2
I0519 12:16:21.645259 32158 net.cpp:380] pool2 <- conv2
I0519 12:16:21.645272 32158 net.cpp:338] pool2 -> pool2
I0519 12:16:21.645303 32158 net.cpp:113] Setting up pool2
I0519 12:16:21.645333 32158 net.cpp:120] Top shape: 50 256 13 13 (2163200)
I0519 12:16:21.645342 32158 layer_factory.hpp:74] Creating layer norm2
I0519 12:16:21.645359 32158 net.cpp:84] Creating Layer norm2
I0519 12:16:21.645370 32158 net.cpp:380] norm2 <- pool2
I0519 12:16:21.645382 32158 net.cpp:338] norm2 -> norm2
I0519 12:16:21.645395 32158 net.cpp:113] Setting up norm2
I0519 12:16:21.645408 32158 net.cpp:120] Top shape: 50 256 13 13 (2163200)
I0519 12:16:21.645417 32158 layer_factory.hpp:74] Creating layer conv3
I0519 12:16:21.645432 32158 net.cpp:84] Creating Layer conv3
I0519 12:16:21.645442 32158 net.cpp:380] conv3 <- norm2
I0519 12:16:21.645454 32158 net.cpp:338] conv3 -> conv3
I0519 12:16:21.645468 32158 net.cpp:113] Setting up conv3
I0519 12:16:21.674626 32158 net.cpp:120] Top shape: 50 384 13 13 (3244800)
I0519 12:16:21.674686 32158 layer_factory.hpp:74] Creating layer relu3
I0519 12:16:21.674710 32158 net.cpp:84] Creating Layer relu3
I0519 12:16:21.674721 32158 net.cpp:380] relu3 <- conv3
I0519 12:16:21.674737 32158 net.cpp:327] relu3 -> conv3 (in-place)
I0519 12:16:21.674752 32158 net.cpp:113] Setting up relu3
I0519 12:16:21.674764 32158 net.cpp:120] Top shape: 50 384 13 13 (3244800)
I0519 12:16:21.674773 32158 layer_factory.hpp:74] Creating layer conv4
I0519 12:16:21.674789 32158 net.cpp:84] Creating Layer conv4
I0519 12:16:21.674798 32158 net.cpp:380] conv4 <- conv3
I0519 12:16:21.674815 32158 net.cpp:338] conv4 -> conv4
I0519 12:16:21.674831 32158 net.cpp:113] Setting up conv4
I0519 12:16:21.697506 32158 net.cpp:120] Top shape: 50 384 13 13 (3244800)
I0519 12:16:21.697592 32158 layer_factory.hpp:74] Creating layer relu4
I0519 12:16:21.697617 32158 net.cpp:84] Creating Layer relu4
I0519 12:16:21.697629 32158 net.cpp:380] relu4 <- conv4
I0519 12:16:21.697644 32158 net.cpp:327] relu4 -> conv4 (in-place)
I0519 12:16:21.697671 32158 net.cpp:113] Setting up relu4
I0519 12:16:21.697688 32158 net.cpp:120] Top shape: 50 384 13 13 (3244800)
I0519 12:16:21.697697 32158 layer_factory.hpp:74] Creating layer conv5
I0519 12:16:21.697718 32158 net.cpp:84] Creating Layer conv5
I0519 12:16:21.697728 32158 net.cpp:380] conv5 <- conv4
I0519 12:16:21.697743 32158 net.cpp:338] conv5 -> conv5
I0519 12:16:21.697762 32158 net.cpp:113] Setting up conv5
I0519 12:16:21.712661 32158 net.cpp:120] Top shape: 50 256 13 13 (2163200)
I0519 12:16:21.712723 32158 layer_factory.hpp:74] Creating layer relu5
I0519 12:16:21.712743 32158 net.cpp:84] Creating Layer relu5
I0519 12:16:21.712755 32158 net.cpp:380] relu5 <- conv5
I0519 12:16:21.712775 32158 net.cpp:327] relu5 -> conv5 (in-place)
I0519 12:16:21.712791 32158 net.cpp:113] Setting up relu5
I0519 12:16:21.712805 32158 net.cpp:120] Top shape: 50 256 13 13 (2163200)
I0519 12:16:21.712813 32158 layer_factory.hpp:74] Creating layer pool5
I0519 12:16:21.712831 32158 net.cpp:84] Creating Layer pool5
I0519 12:16:21.712841 32158 net.cpp:380] pool5 <- conv5
I0519 12:16:21.712854 32158 net.cpp:338] pool5 -> pool5
I0519 12:16:21.712868 32158 net.cpp:113] Setting up pool5
I0519 12:16:21.712884 32158 net.cpp:120] Top shape: 50 256 6 6 (460800)
I0519 12:16:21.712893 32158 layer_factory.hpp:74] Creating layer fc6
I0519 12:16:21.712908 32158 net.cpp:84] Creating Layer fc6
I0519 12:16:21.712918 32158 net.cpp:380] fc6 <- pool5
I0519 12:16:21.712935 32158 net.cpp:338] fc6 -> fc6
I0519 12:16:21.712955 32158 net.cpp:113] Setting up fc6
I0519 12:16:22.022086 32158 net.cpp:120] Top shape: 50 1024 (51200)
I0519 12:16:22.022160 32158 layer_factory.hpp:74] Creating layer relu6
I0519 12:16:22.022181 32158 net.cpp:84] Creating Layer relu6
I0519 12:16:22.022193 32158 net.cpp:380] relu6 <- fc6
I0519 12:16:22.022209 32158 net.cpp:327] relu6 -> fc6 (in-place)
I0519 12:16:22.022224 32158 net.cpp:113] Setting up relu6
I0519 12:16:22.022238 32158 net.cpp:120] Top shape: 50 1024 (51200)
I0519 12:16:22.022246 32158 layer_factory.hpp:74] Creating layer drop6
I0519 12:16:22.022269 32158 net.cpp:84] Creating Layer drop6
I0519 12:16:22.022281 32158 net.cpp:380] drop6 <- fc6
I0519 12:16:22.022295 32158 net.cpp:327] drop6 -> fc6 (in-place)
I0519 12:16:22.022315 32158 net.cpp:113] Setting up drop6
I0519 12:16:22.022346 32158 net.cpp:120] Top shape: 50 1024 (51200)
I0519 12:16:22.022357 32158 layer_factory.hpp:74] Creating layer fc8_category
I0519 12:16:22.022373 32158 net.cpp:84] Creating Layer fc8_category
I0519 12:16:22.022383 32158 net.cpp:380] fc8_category <- fc6
I0519 12:16:22.022397 32158 net.cpp:338] fc8_category -> fc8_category
I0519 12:16:22.022421 32158 net.cpp:113] Setting up fc8_category
I0519 12:16:22.023455 32158 net.cpp:120] Top shape: 50 28 (1400)
I0519 12:16:22.023489 32158 layer_factory.hpp:74] Creating layer loss_category
I0519 12:16:22.023511 32158 net.cpp:84] Creating Layer loss_category
I0519 12:16:22.023522 32158 net.cpp:380] loss_category <- fc8_category
I0519 12:16:22.023535 32158 net.cpp:380] loss_category <- label_category_data_2_split_0
I0519 12:16:22.023547 32158 net.cpp:338] loss_category -> loss_category
I0519 12:16:22.023568 32158 net.cpp:338] loss_category -> prob_category
I0519 12:16:22.023592 32158 net.cpp:113] Setting up loss_category
I0519 12:16:22.023607 32158 layer_factory.hpp:74] Creating layer loss_category
I0519 12:16:22.023646 32158 softmax_perclass_loss.cpp:36] loss has ignore_label: 0
I0519 12:16:22.023670 32158 softmax_perclass_loss.cpp:46] Opening file models/test_hier/info_category.txt
I0519 12:16:22.023833 32158 net.cpp:120] Top shape: (1)
I0519 12:16:22.023857 32158 net.cpp:122]     with loss weight 1
I0519 12:16:22.023896 32158 net.cpp:120] Top shape: 50 28 (1400)
I0519 12:16:22.023911 32158 layer_factory.hpp:74] Creating layer accuracy_category
I0519 12:16:22.023973 32158 net.cpp:84] Creating Layer accuracy_category
I0519 12:16:22.023986 32158 net.cpp:380] accuracy_category <- prob_category
I0519 12:16:22.023998 32158 net.cpp:380] accuracy_category <- label_category_data_2_split_1
I0519 12:16:22.024008 32158 net.cpp:380] accuracy_category <- label_pid
…
