…
I0521 07:07:08.660264 20582 net.cpp:257] The NetState phase (0) differed from the phase (1) specified by a rule in layer data
I0521 07:07:08.660531 20582 net.cpp:42] Initializing net from parameters: 
name: "yq_fk6"
state {
  phase: TRAIN
}
layer {
  name: "data"
  type: "ImageDataMultLabel"
  top: "data"
  top: "label_pid"
  top: "label_category"
  include {
    phase: TRAIN
  }
  transform_param {
    mirror: true
    crop_size: 227
    mean_file: "data/ilsvrc12/imagenet_mean.binaryproto"
  }
  image_data_mult_label_param {
    source: "models/yq_fk6/train.txt"
    batch_size: 50
    shuffle: true
    new_height: 256
    new_width: 256
  }
}
layer {
  name: "conv1"
  type: "Convolution"
  bottom: "data"
  top: "conv1"
  param {
    lr_mult: 1
    decay_mult: 1
  }
  param {
    lr_mult: 2
    decay_mult: 0
  }
  convolution_param {
    num_output: 96
    kernel_size: 11
    stride: 4
    weight_filler {
      type: "gaussian"
      std: 0.01
    }
    bias_filler {
      type: "constant"
      value: 0
    }
  }
}
layer {
  name: "relu1"
  type: "ReLU"
  bottom: "conv1"
  top: "conv1"
}
layer {
  name: "pool1"
  type: "Pooling"
  bottom: "conv1"
  top: "pool1"
  pooling_param {
    pool: MAX
    kernel_size: 3
    stride: 2
  }
}
layer {
  name: "norm1"
  type: "LRN"
  bottom: "pool1"
  top: "norm1"
  lrn_param {
    local_size: 5
    alpha: 0.0001
    beta: 0.75
  }
}
layer {
  name: "conv2"
  type: "Convolution"
  bottom: "norm1"
  top: "conv2"
  param {
    lr_mult: 1
    decay_mult: 1
  }
  param {
    lr_mult: 2
    decay_mult: 0
  }
  convolution_param {
    num_output: 256
    pad: 2
    kernel_size: 5
    group: 2
    weight_filler {
      type: "gaussian"
      std: 0.01
    }
    bias_filler {
      type: "constant"
      value: 1
    }
  }
}
layer {
  name: "relu2"
  type: "ReLU"
  bottom: "conv2"
  top: "conv2"
}
layer {
  name: "pool2"
  type: "Pooling"
  bottom: "conv2"
  top: "pool2"
  pooling_param {
    pool: MAX
    kernel_size: 3
    stride: 2
  }
}
layer {
  name: "norm2"
  type: "LRN"
  bottom: "pool2"
  top: "norm2"
  lrn_param {
    local_size: 5
    alpha: 0.0001
    beta: 0.75
  }
}
layer {
  name: "conv3"
  type: "Convolution"
  bottom: "norm2"
  top: "conv3"
  param {
    lr_mult: 1
    decay_mult: 1
  }
  param {
    lr_mult: 2
    decay_mult: 0
  }
  convolution_param {
    num_output: 384
    pad: 1
    kernel_size: 3
    weight_filler {
      type: "gaussian"
      std: 0.01
    }
    bias_filler {
      type: "constant"
      value: 0
    }
  }
}
layer {
  name: "relu3"
  type: "ReLU"
  bottom: "conv3"
  top: "conv3"
}
layer {
  name: "conv4"
  type: "Convolution"
  bottom: "conv3"
  top: "conv4"
  param {
    lr_mult: 1
    decay_mult: 1
  }
  param {
    lr_mult: 2
    decay_mult: 0
  }
  convolution_param {
    num_output: 384
    pad: 1
    kernel_size: 3
    group: 2
    weight_filler {
      type: "gaussian"
      std: 0.01
    }
    bias_filler {
      type: "constant"
      value: 1
    }
  }
}
layer {
  name: "relu4"
  type: "ReLU"
  bottom: "conv4"
  top: "conv4"
}
layer {
  name: "conv5"
  type: "Convolution"
  bottom: "conv4"
  top: "conv5"
  param {
    lr_mult: 1
    decay_mult: 1
  }
  param {
    lr_mult: 2
    decay_mult: 0
  }
  convolution_param {
    num_output: 256
    pad: 1
    kernel_size: 3
    group: 2
    weight_filler {
      type: "gaussian"
      std: 0.01
    }
    bias_filler {
      type: "constant"
      value: 1
    }
  }
}
layer {
  name: "relu5"
  type: "ReLU"
  bottom: "conv5"
  top: "conv5"
}
layer {
  name: "pool5"
  type: "Pooling"
  bottom: "conv5"
  top: "pool5"
  pooling_param {
    pool: MAX
    kernel_size: 3
    stride: 2
  }
}
layer {
  name: "fc6"
  type: "InnerProduct"
  bottom: "pool5"
  top: "fc6"
  param {
    lr_mult: 1
    decay_mult: 1
  }
  param {
    lr_mult: 2
    decay_mult: 0
  }
  inner_product_param {
    num_output: 4096
    weight_filler {
      type: "gaussian"
      std: 0.005
    }
    bias_filler {
      type: "constant"
      value: 1
    }
  }
}
layer {
  name: "relu6"
  type: "ReLU"
  bottom: "fc6"
  top: "fc6"
}
layer {
  name: "drop6"
  type: "Dropout"
  bottom: "fc6"
  top: "fc6"
  dropout_param {
    dropout_ratio: 0.5
  }
}
layer {
  name: "fc7"
  type: "InnerProduct"
  bottom: "fc6"
  top: "fc7"
  param {
    lr_mult: 1
    decay_mult: 1
  }
  param {
    lr_mult: 2
    decay_mult: 0
  }
  inner_product_param {
    num_output: 4096
    weight_filler {
      type: "gaussian"
      std: 0.005
    }
    bias_filler {
      type: "constant"
      value: 1
    }
  }
}
layer {
  name: "relu7"
  type: "ReLU"
  bottom: "fc7"
  top: "fc7"
}
layer {
  name: "drop7"
  type: "Dropout"
  bottom: "fc7"
  top: "fc7"
  dropout_param {
    dropout_ratio: 0.5
  }
}
layer {
  name: "fc8_category"
  type: "InnerProduct"
  bottom: "fc7"
  top: "fc8_category"
  param {
    lr_mult: 10
    decay_mult: 1
  }
  param {
    lr_mult: 20
    decay_mult: 0
  }
  inner_product_param {
    num_output: 28
    weight_filler {
      type: "gaussian"
      std: 0.01
    }
    bias_filler {
      type: "constant"
      value: 0
    }
  }
}
layer {
  name: "loss_category"
  type: "SoftmaxWithPerClassLoss"
  bottom: "fc8_category"
  bottom: "label_category"
  top: "loss_category"
  top: "prob_category"
  loss_weight: 1
  loss_weight: 0
  loss_param {
    ignore_label: 0
    normalize: true
    classifier_info_file: "models/yq_fk6/info_category.txt"
    class_specific_lr: false
  }
}
layer {
  name: "accuracy_category"
  type: "PerClassAccuracy"
  bottom: "prob_category"
  bottom: "label_category"
  bottom: "label_pid"
  per_class_accuracy_param {
    ignore_label: 0
    classifier_info_file: "models/yq_fk6/info_category.txt"
    confusion_matrix_file: "models/yq_fk6/conf_category"
    confusion_id_file: "models/yq_fk6/conf_id_category"
    use_hierarchy: true
    num_grades: 20
  }
}
I0521 07:07:08.661860 20582 layer_factory.hpp:74] Creating layer data
I0521 07:07:08.661902 20582 net.cpp:84] Creating Layer data
…
I0521 07:07:08.830715 20582 image_data_multclass_layer.cpp:78] ##############################################
I0521 07:07:08.830724 20582 image_data_multclass_layer.cpp:79] ##############################################
I0521 07:07:08.830732 20582 image_data_multclass_layer.cpp:80] size of top: 3
I0521 07:07:08.836694 20582 image_data_multclass_layer.cpp:98] output data size: 50,3,227,227
I0521 07:07:08.836733 20582 image_data_multclass_layer.cpp:102] number of labels: 2
I0521 07:07:08.836771 20582 data_transformer.cpp:22] Loading mean file from: data/ilsvrc12/imagenet_mean.binaryproto
I0521 07:07:08.846103 20582 net.cpp:120] Top shape: 50 3 227 227 (7729350)
I0521 07:07:08.846154 20582 net.cpp:120] Top shape: 50 (50)
I0521 07:07:08.846169 20582 net.cpp:120] Top shape: 50 (50)
I0521 07:07:08.846194 20582 layer_factory.hpp:74] Creating layer label_category_data_2_split
I0521 07:07:08.846273 20582 net.cpp:84] Creating Layer label_category_data_2_split
I0521 07:07:08.846310 20582 net.cpp:380] label_category_data_2_split <- label_category
I0521 07:07:08.846345 20582 net.cpp:338] label_category_data_2_split -> label_category_data_2_split_0
I0521 07:07:08.846370 20582 net.cpp:338] label_category_data_2_split -> label_category_data_2_split_1
I0521 07:07:08.846386 20582 net.cpp:113] Setting up label_category_data_2_split
I0521 07:07:08.846405 20582 net.cpp:120] Top shape: 50 (50)
I0521 07:07:08.846416 20582 net.cpp:120] Top shape: 50 (50)
I0521 07:07:08.846426 20582 layer_factory.hpp:74] Creating layer conv1
I0521 07:07:08.846446 20582 net.cpp:84] Creating Layer conv1
I0521 07:07:08.846456 20582 net.cpp:380] conv1 <- data
I0521 07:07:08.846469 20582 net.cpp:338] conv1 -> conv1
I0521 07:07:08.846487 20582 net.cpp:113] Setting up conv1
I0521 07:07:08.847710 20582 net.cpp:120] Top shape: 50 96 55 55 (14520000)
I0521 07:07:08.847753 20582 layer_factory.hpp:74] Creating layer relu1
I0521 07:07:08.847769 20582 net.cpp:84] Creating Layer relu1
I0521 07:07:08.847779 20582 net.cpp:380] relu1 <- conv1
I0521 07:07:08.847792 20582 net.cpp:327] relu1 -> conv1 (in-place)
I0521 07:07:08.847812 20582 net.cpp:113] Setting up relu1
I0521 07:07:08.847826 20582 net.cpp:120] Top shape: 50 96 55 55 (14520000)
I0521 07:07:08.847836 20582 layer_factory.hpp:74] Creating layer pool1
I0521 07:07:08.847851 20582 net.cpp:84] Creating Layer pool1
I0521 07:07:08.847859 20582 net.cpp:380] pool1 <- conv1
I0521 07:07:08.847874 20582 net.cpp:338] pool1 -> pool1
I0521 07:07:08.847888 20582 net.cpp:113] Setting up pool1
I0521 07:07:08.847921 20582 net.cpp:120] Top shape: 50 96 27 27 (3499200)
I0521 07:07:08.847954 20582 layer_factory.hpp:74] Creating layer norm1
I0521 07:07:08.847972 20582 net.cpp:84] Creating Layer norm1
I0521 07:07:08.847982 20582 net.cpp:380] norm1 <- pool1
I0521 07:07:08.847995 20582 net.cpp:338] norm1 -> norm1
I0521 07:07:08.848017 20582 net.cpp:113] Setting up norm1
I0521 07:07:08.848043 20582 net.cpp:120] Top shape: 50 96 27 27 (3499200)
I0521 07:07:08.848058 20582 layer_factory.hpp:74] Creating layer conv2
I0521 07:07:08.848073 20582 net.cpp:84] Creating Layer conv2
I0521 07:07:08.848083 20582 net.cpp:380] conv2 <- norm1
I0521 07:07:08.848096 20582 net.cpp:338] conv2 -> conv2
I0521 07:07:08.848111 20582 net.cpp:113] Setting up conv2
I0521 07:07:08.858640 20582 net.cpp:120] Top shape: 50 256 27 27 (9331200)
I0521 07:07:08.858701 20582 layer_factory.hpp:74] Creating layer relu2
I0521 07:07:08.858734 20582 net.cpp:84] Creating Layer relu2
I0521 07:07:08.858748 20582 net.cpp:380] relu2 <- conv2
I0521 07:07:08.858764 20582 net.cpp:327] relu2 -> conv2 (in-place)
I0521 07:07:08.858780 20582 net.cpp:113] Setting up relu2
I0521 07:07:08.858793 20582 net.cpp:120] Top shape: 50 256 27 27 (9331200)
I0521 07:07:08.858814 20582 layer_factory.hpp:74] Creating layer pool2
I0521 07:07:08.858829 20582 net.cpp:84] Creating Layer pool2
I0521 07:07:08.858839 20582 net.cpp:380] pool2 <- conv2
I0521 07:07:08.858851 20582 net.cpp:338] pool2 -> pool2
I0521 07:07:08.858876 20582 net.cpp:113] Setting up pool2
I0521 07:07:08.858906 20582 net.cpp:120] Top shape: 50 256 13 13 (2163200)
I0521 07:07:08.858917 20582 layer_factory.hpp:74] Creating layer norm2
I0521 07:07:08.858932 20582 net.cpp:84] Creating Layer norm2
I0521 07:07:08.858942 20582 net.cpp:380] norm2 <- pool2
I0521 07:07:08.858960 20582 net.cpp:338] norm2 -> norm2
I0521 07:07:08.858984 20582 net.cpp:113] Setting up norm2
I0521 07:07:08.858999 20582 net.cpp:120] Top shape: 50 256 13 13 (2163200)
I0521 07:07:08.859011 20582 layer_factory.hpp:74] Creating layer conv3
I0521 07:07:08.859035 20582 net.cpp:84] Creating Layer conv3
I0521 07:07:08.859053 20582 net.cpp:380] conv3 <- norm2
I0521 07:07:08.859077 20582 net.cpp:338] conv3 -> conv3
I0521 07:07:08.859108 20582 net.cpp:113] Setting up conv3
I0521 07:07:08.889689 20582 net.cpp:120] Top shape: 50 384 13 13 (3244800)
I0521 07:07:08.889750 20582 layer_factory.hpp:74] Creating layer relu3
I0521 07:07:08.889801 20582 net.cpp:84] Creating Layer relu3
I0521 07:07:08.889813 20582 net.cpp:380] relu3 <- conv3
I0521 07:07:08.889828 20582 net.cpp:327] relu3 -> conv3 (in-place)
I0521 07:07:08.889853 20582 net.cpp:113] Setting up relu3
I0521 07:07:08.889866 20582 net.cpp:120] Top shape: 50 384 13 13 (3244800)
I0521 07:07:08.889875 20582 layer_factory.hpp:74] Creating layer conv4
I0521 07:07:08.889894 20582 net.cpp:84] Creating Layer conv4
I0521 07:07:08.889904 20582 net.cpp:380] conv4 <- conv3
I0521 07:07:08.889924 20582 net.cpp:338] conv4 -> conv4
I0521 07:07:08.889940 20582 net.cpp:113] Setting up conv4
I0521 07:07:08.912732 20582 net.cpp:120] Top shape: 50 384 13 13 (3244800)
I0521 07:07:08.912789 20582 layer_factory.hpp:74] Creating layer relu4
I0521 07:07:08.912809 20582 net.cpp:84] Creating Layer relu4
I0521 07:07:08.912823 20582 net.cpp:380] relu4 <- conv4
I0521 07:07:08.912842 20582 net.cpp:327] relu4 -> conv4 (in-place)
I0521 07:07:08.912856 20582 net.cpp:113] Setting up relu4
I0521 07:07:08.912869 20582 net.cpp:120] Top shape: 50 384 13 13 (3244800)
I0521 07:07:08.912878 20582 layer_factory.hpp:74] Creating layer conv5
I0521 07:07:08.912891 20582 net.cpp:84] Creating Layer conv5
I0521 07:07:08.912902 20582 net.cpp:380] conv5 <- conv4
I0521 07:07:08.912917 20582 net.cpp:338] conv5 -> conv5
I0521 07:07:08.912932 20582 net.cpp:113] Setting up conv5
I0521 07:07:08.927920 20582 net.cpp:120] Top shape: 50 256 13 13 (2163200)
I0521 07:07:08.927976 20582 layer_factory.hpp:74] Creating layer relu5
I0521 07:07:08.927996 20582 net.cpp:84] Creating Layer relu5
I0521 07:07:08.928007 20582 net.cpp:380] relu5 <- conv5
I0521 07:07:08.928030 20582 net.cpp:327] relu5 -> conv5 (in-place)
I0521 07:07:08.928045 20582 net.cpp:113] Setting up relu5
I0521 07:07:08.928057 20582 net.cpp:120] Top shape: 50 256 13 13 (2163200)
I0521 07:07:08.928066 20582 layer_factory.hpp:74] Creating layer pool5
I0521 07:07:08.928082 20582 net.cpp:84] Creating Layer pool5
I0521 07:07:08.928108 20582 net.cpp:380] pool5 <- conv5
I0521 07:07:08.928122 20582 net.cpp:338] pool5 -> pool5
I0521 07:07:08.928136 20582 net.cpp:113] Setting up pool5
I0521 07:07:08.928153 20582 net.cpp:120] Top shape: 50 256 6 6 (460800)
I0521 07:07:08.928161 20582 layer_factory.hpp:74] Creating layer fc6
I0521 07:07:08.928177 20582 net.cpp:84] Creating Layer fc6
I0521 07:07:08.928186 20582 net.cpp:380] fc6 <- pool5
I0521 07:07:08.928203 20582 net.cpp:338] fc6 -> fc6
I0521 07:07:08.928230 20582 net.cpp:113] Setting up fc6
I0521 07:07:10.176028 20582 net.cpp:120] Top shape: 50 4096 (204800)
I0521 07:07:10.176097 20582 layer_factory.hpp:74] Creating layer relu6
I0521 07:07:10.176117 20582 net.cpp:84] Creating Layer relu6
I0521 07:07:10.176128 20582 net.cpp:380] relu6 <- fc6
I0521 07:07:10.176143 20582 net.cpp:327] relu6 -> fc6 (in-place)
I0521 07:07:10.176159 20582 net.cpp:113] Setting up relu6
I0521 07:07:10.176172 20582 net.cpp:120] Top shape: 50 4096 (204800)
I0521 07:07:10.176182 20582 layer_factory.hpp:74] Creating layer drop6
I0521 07:07:10.176201 20582 net.cpp:84] Creating Layer drop6
I0521 07:07:10.176210 20582 net.cpp:380] drop6 <- fc6
I0521 07:07:10.176223 20582 net.cpp:327] drop6 -> fc6 (in-place)
I0521 07:07:10.176239 20582 net.cpp:113] Setting up drop6
I0521 07:07:10.176265 20582 net.cpp:120] Top shape: 50 4096 (204800)
I0521 07:07:10.176276 20582 layer_factory.hpp:74] Creating layer fc7
I0521 07:07:10.176293 20582 net.cpp:84] Creating Layer fc7
I0521 07:07:10.176303 20582 net.cpp:380] fc7 <- fc6
I0521 07:07:10.176316 20582 net.cpp:338] fc7 -> fc7
I0521 07:07:10.176334 20582 net.cpp:113] Setting up fc7
I0521 07:07:10.732139 20582 net.cpp:120] Top shape: 50 4096 (204800)
I0521 07:07:10.732211 20582 layer_factory.hpp:74] Creating layer relu7
I0521 07:07:10.732231 20582 net.cpp:84] Creating Layer relu7
I0521 07:07:10.732244 20582 net.cpp:380] relu7 <- fc7
I0521 07:07:10.732264 20582 net.cpp:327] relu7 -> fc7 (in-place)
I0521 07:07:10.732280 20582 net.cpp:113] Setting up relu7
I0521 07:07:10.732292 20582 net.cpp:120] Top shape: 50 4096 (204800)
I0521 07:07:10.732301 20582 layer_factory.hpp:74] Creating layer drop7
I0521 07:07:10.732362 20582 net.cpp:84] Creating Layer drop7
I0521 07:07:10.732378 20582 net.cpp:380] drop7 <- fc7
I0521 07:07:10.732398 20582 net.cpp:327] drop7 -> fc7 (in-place)
I0521 07:07:10.732427 20582 net.cpp:113] Setting up drop7
I0521 07:07:10.732455 20582 net.cpp:120] Top shape: 50 4096 (204800)
I0521 07:07:10.732480 20582 layer_factory.hpp:74] Creating layer fc8_category
I0521 07:07:10.732497 20582 net.cpp:84] Creating Layer fc8_category
I0521 07:07:10.732507 20582 net.cpp:380] fc8_category <- fc7
I0521 07:07:10.732520 20582 net.cpp:338] fc8_category -> fc8_category
I0521 07:07:10.732535 20582 net.cpp:113] Setting up fc8_category
I0521 07:07:10.736420 20582 net.cpp:120] Top shape: 50 28 (1400)
I0521 07:07:10.736461 20582 layer_factory.hpp:74] Creating layer loss_category
I0521 07:07:10.736488 20582 net.cpp:84] Creating Layer loss_category
I0521 07:07:10.736507 20582 net.cpp:380] loss_category <- fc8_category
I0521 07:07:10.736521 20582 net.cpp:380] loss_category <- label_category_data_2_split_0
I0521 07:07:10.736533 20582 net.cpp:338] loss_category -> loss_category
I0521 07:07:10.736554 20582 net.cpp:338] loss_category -> prob_category
I0521 07:07:10.736568 20582 net.cpp:113] Setting up loss_category
I0521 07:07:10.736585 20582 layer_factory.hpp:74] Creating layer loss_category
I0521 07:07:10.736611 20582 softmax_perclass_loss.cpp:36] loss has ignore_label: 0
I0521 07:07:10.736621 20582 softmax_perclass_loss.cpp:46] Opening file models/yq_fk6/info_category.txt
I0521 07:07:10.736769 20582 net.cpp:120] Top shape: (1)
I0521 07:07:10.736788 20582 net.cpp:122]     with loss weight 1
I0521 07:07:10.736835 20582 net.cpp:120] Top shape: 50 28 (1400)
I0521 07:07:10.736846 20582 layer_factory.hpp:74] Creating layer accuracy_category
I0521 07:07:10.736863 20582 net.cpp:84] Creating Layer accuracy_category
I0521 07:07:10.736874 20582 net.cpp:380] accuracy_category <- prob_category
I0521 07:07:10.736886 20582 net.cpp:380] accuracy_category <- label_category_data_2_split_1
I0521 07:07:10.736896 20582 net.cpp:380] accuracy_category <- label_pid
…
