…
I0602 13:39:32.962154 32465 net.cpp:42] Initializing net from parameters: 
name: "yq_fk13"
state {
  phase: TRAIN
}
layer {
  name: "data"
  type: "ImageDataMultLabel"
  top: "data"
  top: "label_pid"
  top: "label_category"
  top: "label_pattern"
  top: "label_sleeve"
  top: "label_neck"
  include {
    phase: TRAIN
  }
  transform_param {
    mirror: true
    crop_size: 227
    mean_value: 187
    mean_value: 176
    mean_value: 176
  }
  image_data_mult_label_param {
    source: "models/yq_fk13/train.txt"
    batch_size: 50
    shuffle: true
    new_height: 256
    new_width: 256
  }
}
layer {
  name: "conv1"
  type: "Convolution"
  bottom: "data"
  top: "conv1"
  param {
    lr_mult: 1
    decay_mult: 1
  }
  param {
    lr_mult: 2
    decay_mult: 0
  }
  convolution_param {
    num_output: 96
    kernel_size: 11
    stride: 4
    weight_filler {
      type: "gaussian"
      std: 0.01
    }
    bias_filler {
      type: "constant"
      value: 0
    }
  }
}
layer {
  name: "relu1"
  type: "ReLU"
  bottom: "conv1"
  top: "conv1"
}
layer {
  name: "pool1"
  type: "Pooling"
  bottom: "conv1"
  top: "pool1"
  pooling_param {
    pool: MAX
    kernel_size: 3
    stride: 2
  }
}
layer {
  name: "norm1"
  type: "LRN"
  bottom: "pool1"
  top: "norm1"
  lrn_param {
    local_size: 5
    alpha: 0.0001
    beta: 0.75
  }
}
layer {
  name: "conv2"
  type: "Convolution"
  bottom: "norm1"
  top: "conv2"
  param {
    lr_mult: 1
    decay_mult: 1
  }
  param {
    lr_mult: 2
    decay_mult: 0
  }
  convolution_param {
    num_output: 256
    pad: 2
    kernel_size: 5
    group: 2
    weight_filler {
      type: "gaussian"
      std: 0.01
    }
    bias_filler {
      type: "constant"
      value: 1
    }
  }
}
layer {
  name: "relu2"
  type: "ReLU"
  bottom: "conv2"
  top: "conv2"
}
layer {
  name: "pool2"
  type: "Pooling"
  bottom: "conv2"
  top: "pool2"
  pooling_param {
    pool: MAX
    kernel_size: 3
    stride: 2
  }
}
layer {
  name: "norm2"
  type: "LRN"
  bottom: "pool2"
  top: "norm2"
  lrn_param {
    local_size: 5
    alpha: 0.0001
    beta: 0.75
  }
}
layer {
  name: "conv3"
  type: "Convolution"
  bottom: "norm2"
  top: "conv3"
  param {
    lr_mult: 1
    decay_mult: 1
  }
  param {
    lr_mult: 2
    decay_mult: 0
  }
  convolution_param {
    num_output: 384
    pad: 1
    kernel_size: 3
    weight_filler {
      type: "gaussian"
      std: 0.01
    }
    bias_filler {
      type: "constant"
      value: 0
    }
  }
}
layer {
  name: "relu3"
  type: "ReLU"
  bottom: "conv3"
  top: "conv3"
}
layer {
  name: "conv4"
  type: "Convolution"
  bottom: "conv3"
  top: "conv4"
  param {
    lr_mult: 1
    decay_mult: 1
  }
  param {
    lr_mult: 2
    decay_mult: 0
  }
  convolution_param {
    num_output: 384
    pad: 1
    kernel_size: 3
    group: 2
    weight_filler {
      type: "gaussian"
      std: 0.01
    }
    bias_filler {
      type: "constant"
      value: 1
    }
  }
}
layer {
  name: "relu4"
  type: "ReLU"
  bottom: "conv4"
  top: "conv4"
}
layer {
  name: "conv5"
  type: "Convolution"
  bottom: "conv4"
  top: "conv5"
  param {
    lr_mult: 1
    decay_mult: 1
  }
  param {
    lr_mult: 2
    decay_mult: 0
  }
  convolution_param {
    num_output: 256
    pad: 1
    kernel_size: 3
    group: 2
    weight_filler {
      type: "gaussian"
      std: 0.01
    }
    bias_filler {
      type: "constant"
      value: 1
    }
  }
}
layer {
  name: "relu5"
  type: "ReLU"
  bottom: "conv5"
  top: "conv5"
}
layer {
  name: "pool5"
  type: "Pooling"
  bottom: "conv5"
  top: "pool5"
  pooling_param {
    pool: MAX
    kernel_size: 3
    stride: 2
  }
}
layer {
  name: "fc6"
  type: "InnerProduct"
  bottom: "pool5"
  top: "fc6"
  param {
    lr_mult: 1
    decay_mult: 1
  }
  param {
    lr_mult: 2
    decay_mult: 0
  }
  inner_product_param {
    num_output: 4096
    weight_filler {
      type: "gaussian"
      std: 0.005
    }
    bias_filler {
      type: "constant"
      value: 1
    }
  }
}
layer {
  name: "relu6"
  type: "ReLU"
  bottom: "fc6"
  top: "fc6"
}
layer {
  name: "drop6"
  type: "Dropout"
  bottom: "fc6"
  top: "fc6"
  dropout_param {
    dropout_ratio: 0.5
  }
}
layer {
  name: "fc7"
  type: "InnerProduct"
  bottom: "fc6"
  top: "fc7"
  param {
    lr_mult: 1
    decay_mult: 1
  }
  param {
    lr_mult: 2
    decay_mult: 0
  }
  inner_product_param {
    num_output: 4096
    weight_filler {
      type: "gaussian"
      std: 0.005
    }
    bias_filler {
      type: "constant"
      value: 1
    }
  }
}
layer {
  name: "relu7"
  type: "ReLU"
  bottom: "fc7"
  top: "fc7"
}
layer {
  name: "drop7"
  type: "Dropout"
  bottom: "fc7"
  top: "fc7"
  dropout_param {
    dropout_ratio: 0.8
  }
}
layer {
  name: "FCend_category"
  type: "InnerProduct"
  bottom: "fc7"
  top: "FCend_category"
  param {
    lr_mult: 1
    decay_mult: 1
  }
  param {
    lr_mult: 2
    decay_mult: 0
  }
  inner_product_param {
    num_output: 28
    weight_filler {
      type: "gaussian"
      std: 0.01
    }
    bias_filler {
      type: "constant"
      value: 0
    }
  }
}
layer {
  name: "loss_category"
  type: "SoftmaxWithPerClassLoss"
  bottom: "FCend_category"
  bottom: "label_category"
  top: "loss_category"
  top: "prob_category"
  loss_weight: 1
  loss_weight: 0
  loss_param {
    ignore_label: 0
    normalize: true
    classifier_info_file: "models/yq_fk13/info_category.txt"
    class_specific_lr: false
  }
}
layer {
  name: "accuracy_category"
  type: "PerClassAccuracy"
  bottom: "prob_category"
  bottom: "label_category"
  bottom: "label_pid"
  per_class_accuracy_param {
    ignore_label: 0
    classifier_info_file: "models/yq_fk13/info_category.txt"
    confusion_matrix_file: "models/yq_fk13/conf_category"
    use_hierarchy: true
    num_grades: 20
  }
}
layer {
  name: "FCend_pattern"
  type: "InnerProduct"
  bottom: "fc7"
  top: "FCend_pattern"
  param {
    lr_mult: 1
    decay_mult: 1
  }
  param {
    lr_mult: 2
    decay_mult: 0
  }
  inner_product_param {
    num_output: 41
    weight_filler {
      type: "gaussian"
      std: 0.01
    }
    bias_filler {
      type: "constant"
      value: 0
    }
  }
}
layer {
  name: "loss_pattern"
  type: "SoftmaxWithPerClassLoss"
  bottom: "FCend_pattern"
  bottom: "label_pattern"
  top: "loss_pattern"
  top: "prob_pattern"
  loss_weight: 0.3
  loss_weight: 0
  loss_param {
    ignore_label: 0
    normalize: true
    classifier_info_file: "models/yq_fk13/info_pattern.txt"
    class_specific_lr: false
  }
}
layer {
  name: "accuracy_pattern"
  type: "PerClassAccuracy"
  bottom: "prob_pattern"
  bottom: "label_pattern"
  bottom: "label_pid"
  per_class_accuracy_param {
    ignore_label: 0
    classifier_info_file: "models/yq_fk13/info_pattern.txt"
    confusion_matrix_file: "models/yq_fk13/conf_pattern"
    use_hierarchy: true
    use_detailed_hier_accu: true
    num_grades: 20
  }
}
layer {
  name: "FCend_sleeve"
  type: "InnerProduct"
  bottom: "fc7"
  top: "FCend_sleeve"
  param {
    lr_mult: 1
    decay_mult: 1
  }
  param {
    lr_mult: 2
    decay_mult: 0
  }
  inner_product_param {
    num_output: 26
    weight_filler {
      type: "gaussian"
      std: 0.01
    }
    bias_filler {
      type: "constant"
      value: 0
    }
  }
}
layer {
  name: "loss_sleeve"
  type: "SoftmaxWithPerClassLoss"
  bottom: "FCend_sleeve"
  bottom: "label_sleeve"
  top: "loss_sleeve"
  top: "prob_sleeve"
  loss_weight: 0.3
  loss_weight: 0
  loss_param {
    ignore_label: 0
    normalize: true
    classifier_info_file: "models/yq_fk13/info_sleeve.txt"
    class_specific_lr: false
  }
}
layer {
  name: "accuracy_sleeve"
  type: "PerClassAccuracy"
  bottom: "prob_sleeve"
  bottom: "label_sleeve"
  bottom: "label_pid"
  per_class_accuracy_param {
    ignore_label: 0
    classifier_info_file: "models/yq_fk13/info_sleeve.txt"
    confusion_matrix_file: "models/yq_fk13/conf_sleeve"
    use_hierarchy: true
    use_detailed_hier_accu: true
    num_grades: 20
  }
}
layer {
  name: "FCend_neck"
  type: "InnerProduct"
  bottom: "fc7"
  top: "FCend_neck"
  param {
    lr_mult: 1
    decay_mult: 1
  }
  param {
    lr_mult: 2
    decay_mult: 0
  }
  inner_product_param {
    num_output: 13
    weight_filler {
      type: "gaussian"
      std: 0.01
    }
    bias_filler {
      type: "constant"
      value: 0
    }
  }
}
layer {
  name: "loss_neck"
  type: "SoftmaxWithPerClassLoss"
  bottom: "FCend_neck"
  bottom: "label_neck"
  top: "loss_neck"
  top: "prob_neck"
  loss_weight: 0.3
  loss_weight: 0
  loss_param {
    ignore_label: 0
    normalize: true
    classifier_info_file: "models/yq_fk13/info_neck.txt"
    class_specific_lr: false
  }
}
layer {
  name: "accuracy_neck"
  type: "PerClassAccuracy"
  bottom: "prob_neck"
  bottom: "label_neck"
  bottom: "label_pid"
  per_class_accuracy_param {
    ignore_label: 0
    classifier_info_file: "models/yq_fk13/info_neck.txt"
    confusion_matrix_file: "models/yq_fk13/conf_neck"
    use_hierarchy: true
    use_detailed_hier_accu: true
    num_grades: 20
  }
}
I0602 13:39:32.964066 32465 layer_factory.hpp:74] Creating layer data
I0602 13:39:32.964107 32465 net.cpp:84] Creating Layer data
I0602 13:39:32.964133 32465 net.cpp:338] data -> data
…
I0602 13:39:33.154726 32465 image_data_multclass_layer.cpp:71] Label: 7
I0602 13:39:33.154733 32465 image_data_multclass_layer.cpp:71] Label: 0
I0602 13:39:33.154742 32465 image_data_multclass_layer.cpp:83] ##############################################
I0602 13:39:33.154750 32465 image_data_multclass_layer.cpp:84] ##############################################
I0602 13:39:33.154758 32465 image_data_multclass_layer.cpp:85] size of top: 6
I0602 13:39:33.161793 32465 image_data_multclass_layer.cpp:103] output data size: 50,3,227,227
I0602 13:39:33.161835 32465 image_data_multclass_layer.cpp:107] number of labels: 5
I0602 13:39:33.169831 32465 net.cpp:120] Top shape: 50 3 227 227 (7729350)
I0602 13:39:33.169883 32465 net.cpp:120] Top shape: 50 (50)
I0602 13:39:33.169894 32465 net.cpp:120] Top shape: 50 (50)
I0602 13:39:33.169904 32465 net.cpp:120] Top shape: 50 (50)
I0602 13:39:33.169914 32465 net.cpp:120] Top shape: 50 (50)
I0602 13:39:33.169925 32465 net.cpp:120] Top shape: 50 (50)
I0602 13:39:33.169939 32465 layer_factory.hpp:74] Creating layer label_pid_data_1_split
I0602 13:39:33.169963 32465 net.cpp:84] Creating Layer label_pid_data_1_split
I0602 13:39:33.169977 32465 net.cpp:380] label_pid_data_1_split <- label_pid
I0602 13:39:33.169999 32465 net.cpp:338] label_pid_data_1_split -> label_pid_data_1_split_0
I0602 13:39:33.170019 32465 net.cpp:338] label_pid_data_1_split -> label_pid_data_1_split_1
I0602 13:39:33.170068 32465 net.cpp:338] label_pid_data_1_split -> label_pid_data_1_split_2
I0602 13:39:33.170083 32465 net.cpp:338] label_pid_data_1_split -> label_pid_data_1_split_3
I0602 13:39:33.170095 32465 net.cpp:113] Setting up label_pid_data_1_split
I0602 13:39:33.170114 32465 net.cpp:120] Top shape: 50 (50)
I0602 13:39:33.170125 32465 net.cpp:120] Top shape: 50 (50)
I0602 13:39:33.170135 32465 net.cpp:120] Top shape: 50 (50)
I0602 13:39:33.170145 32465 net.cpp:120] Top shape: 50 (50)
I0602 13:39:33.170153 32465 layer_factory.hpp:74] Creating layer label_category_data_2_split
I0602 13:39:33.170166 32465 net.cpp:84] Creating Layer label_category_data_2_split
I0602 13:39:33.170176 32465 net.cpp:380] label_category_data_2_split <- label_category
I0602 13:39:33.170186 32465 net.cpp:338] label_category_data_2_split -> label_category_data_2_split_0
I0602 13:39:33.170199 32465 net.cpp:338] label_category_data_2_split -> label_category_data_2_split_1
I0602 13:39:33.170212 32465 net.cpp:113] Setting up label_category_data_2_split
I0602 13:39:33.170224 32465 net.cpp:120] Top shape: 50 (50)
I0602 13:39:33.170233 32465 net.cpp:120] Top shape: 50 (50)
I0602 13:39:33.170243 32465 layer_factory.hpp:74] Creating layer label_pattern_data_3_split
I0602 13:39:33.170259 32465 net.cpp:84] Creating Layer label_pattern_data_3_split
I0602 13:39:33.170269 32465 net.cpp:380] label_pattern_data_3_split <- label_pattern
I0602 13:39:33.170281 32465 net.cpp:338] label_pattern_data_3_split -> label_pattern_data_3_split_0
I0602 13:39:33.170294 32465 net.cpp:338] label_pattern_data_3_split -> label_pattern_data_3_split_1
I0602 13:39:33.170305 32465 net.cpp:113] Setting up label_pattern_data_3_split
I0602 13:39:33.170317 32465 net.cpp:120] Top shape: 50 (50)
I0602 13:39:33.170326 32465 net.cpp:120] Top shape: 50 (50)
I0602 13:39:33.170336 32465 layer_factory.hpp:74] Creating layer label_sleeve_data_4_split
I0602 13:39:33.170346 32465 net.cpp:84] Creating Layer label_sleeve_data_4_split
I0602 13:39:33.170356 32465 net.cpp:380] label_sleeve_data_4_split <- label_sleeve
I0602 13:39:33.170367 32465 net.cpp:338] label_sleeve_data_4_split -> label_sleeve_data_4_split_0
I0602 13:39:33.170380 32465 net.cpp:338] label_sleeve_data_4_split -> label_sleeve_data_4_split_1
I0602 13:39:33.170392 32465 net.cpp:113] Setting up label_sleeve_data_4_split
I0602 13:39:33.170403 32465 net.cpp:120] Top shape: 50 (50)
I0602 13:39:33.170413 32465 net.cpp:120] Top shape: 50 (50)
I0602 13:39:33.170421 32465 layer_factory.hpp:74] Creating layer label_neck_data_5_split
I0602 13:39:33.170433 32465 net.cpp:84] Creating Layer label_neck_data_5_split
I0602 13:39:33.170441 32465 net.cpp:380] label_neck_data_5_split <- label_neck
I0602 13:39:33.170454 32465 net.cpp:338] label_neck_data_5_split -> label_neck_data_5_split_0
I0602 13:39:33.170466 32465 net.cpp:338] label_neck_data_5_split -> label_neck_data_5_split_1
I0602 13:39:33.170480 32465 net.cpp:113] Setting up label_neck_data_5_split
I0602 13:39:33.170490 32465 net.cpp:120] Top shape: 50 (50)
I0602 13:39:33.170500 32465 net.cpp:120] Top shape: 50 (50)
I0602 13:39:33.170510 32465 layer_factory.hpp:74] Creating layer conv1
I0602 13:39:33.170532 32465 net.cpp:84] Creating Layer conv1
I0602 13:39:33.170543 32465 net.cpp:380] conv1 <- data
I0602 13:39:33.170557 32465 net.cpp:338] conv1 -> conv1
I0602 13:39:33.170573 32465 net.cpp:113] Setting up conv1
I0602 13:39:33.171761 32465 net.cpp:120] Top shape: 50 96 55 55 (14520000)
I0602 13:39:33.171829 32465 layer_factory.hpp:74] Creating layer relu1
I0602 13:39:33.171854 32465 net.cpp:84] Creating Layer relu1
I0602 13:39:33.171864 32465 net.cpp:380] relu1 <- conv1
I0602 13:39:33.171876 32465 net.cpp:327] relu1 -> conv1 (in-place)
I0602 13:39:33.171888 32465 net.cpp:113] Setting up relu1
I0602 13:39:33.171902 32465 net.cpp:120] Top shape: 50 96 55 55 (14520000)
I0602 13:39:33.171912 32465 layer_factory.hpp:74] Creating layer pool1
I0602 13:39:33.171927 32465 net.cpp:84] Creating Layer pool1
I0602 13:39:33.171936 32465 net.cpp:380] pool1 <- conv1
I0602 13:39:33.171970 32465 net.cpp:338] pool1 -> pool1
I0602 13:39:33.171986 32465 net.cpp:113] Setting up pool1
I0602 13:39:33.172022 32465 net.cpp:120] Top shape: 50 96 27 27 (3499200)
I0602 13:39:33.172036 32465 layer_factory.hpp:74] Creating layer norm1
I0602 13:39:33.172054 32465 net.cpp:84] Creating Layer norm1
I0602 13:39:33.172072 32465 net.cpp:380] norm1 <- pool1
I0602 13:39:33.172086 32465 net.cpp:338] norm1 -> norm1
I0602 13:39:33.172101 32465 net.cpp:113] Setting up norm1
I0602 13:39:33.172116 32465 net.cpp:120] Top shape: 50 96 27 27 (3499200)
I0602 13:39:33.172125 32465 layer_factory.hpp:74] Creating layer conv2
I0602 13:39:33.172139 32465 net.cpp:84] Creating Layer conv2
I0602 13:39:33.172149 32465 net.cpp:380] conv2 <- norm1
I0602 13:39:33.172163 32465 net.cpp:338] conv2 -> conv2
I0602 13:39:33.172174 32465 net.cpp:113] Setting up conv2
I0602 13:39:33.182376 32465 net.cpp:120] Top shape: 50 256 27 27 (9331200)
I0602 13:39:33.182425 32465 layer_factory.hpp:74] Creating layer relu2
I0602 13:39:33.182443 32465 net.cpp:84] Creating Layer relu2
I0602 13:39:33.182453 32465 net.cpp:380] relu2 <- conv2
I0602 13:39:33.182467 32465 net.cpp:327] relu2 -> conv2 (in-place)
I0602 13:39:33.182482 32465 net.cpp:113] Setting up relu2
I0602 13:39:33.182492 32465 net.cpp:120] Top shape: 50 256 27 27 (9331200)
I0602 13:39:33.182502 32465 layer_factory.hpp:74] Creating layer pool2
I0602 13:39:33.182514 32465 net.cpp:84] Creating Layer pool2
I0602 13:39:33.182524 32465 net.cpp:380] pool2 <- conv2
I0602 13:39:33.182538 32465 net.cpp:338] pool2 -> pool2
I0602 13:39:33.182551 32465 net.cpp:113] Setting up pool2
I0602 13:39:33.182565 32465 net.cpp:120] Top shape: 50 256 13 13 (2163200)
I0602 13:39:33.182582 32465 layer_factory.hpp:74] Creating layer norm2
I0602 13:39:33.182596 32465 net.cpp:84] Creating Layer norm2
I0602 13:39:33.182606 32465 net.cpp:380] norm2 <- pool2
I0602 13:39:33.182618 32465 net.cpp:338] norm2 -> norm2
I0602 13:39:33.182631 32465 net.cpp:113] Setting up norm2
I0602 13:39:33.182643 32465 net.cpp:120] Top shape: 50 256 13 13 (2163200)
I0602 13:39:33.182652 32465 layer_factory.hpp:74] Creating layer conv3
I0602 13:39:33.182667 32465 net.cpp:84] Creating Layer conv3
I0602 13:39:33.182677 32465 net.cpp:380] conv3 <- norm2
I0602 13:39:33.182689 32465 net.cpp:338] conv3 -> conv3
I0602 13:39:33.182708 32465 net.cpp:113] Setting up conv3
I0602 13:39:33.213104 32465 net.cpp:120] Top shape: 50 384 13 13 (3244800)
I0602 13:39:33.213160 32465 layer_factory.hpp:74] Creating layer relu3
I0602 13:39:33.213181 32465 net.cpp:84] Creating Layer relu3
I0602 13:39:33.213192 32465 net.cpp:380] relu3 <- conv3
I0602 13:39:33.213207 32465 net.cpp:327] relu3 -> conv3 (in-place)
I0602 13:39:33.213220 32465 net.cpp:113] Setting up relu3
I0602 13:39:33.213237 32465 net.cpp:120] Top shape: 50 384 13 13 (3244800)
I0602 13:39:33.213246 32465 layer_factory.hpp:74] Creating layer conv4
I0602 13:39:33.213265 32465 net.cpp:84] Creating Layer conv4
I0602 13:39:33.213275 32465 net.cpp:380] conv4 <- conv3
I0602 13:39:33.213311 32465 net.cpp:338] conv4 -> conv4
I0602 13:39:33.213352 32465 net.cpp:113] Setting up conv4
I0602 13:39:33.236026 32465 net.cpp:120] Top shape: 50 384 13 13 (3244800)
I0602 13:39:33.236083 32465 layer_factory.hpp:74] Creating layer relu4
I0602 13:39:33.236101 32465 net.cpp:84] Creating Layer relu4
I0602 13:39:33.236114 32465 net.cpp:380] relu4 <- conv4
I0602 13:39:33.236130 32465 net.cpp:327] relu4 -> conv4 (in-place)
I0602 13:39:33.236153 32465 net.cpp:113] Setting up relu4
I0602 13:39:33.236171 32465 net.cpp:120] Top shape: 50 384 13 13 (3244800)
I0602 13:39:33.236183 32465 layer_factory.hpp:74] Creating layer conv5
I0602 13:39:33.236203 32465 net.cpp:84] Creating Layer conv5
I0602 13:39:33.236223 32465 net.cpp:380] conv5 <- conv4
I0602 13:39:33.236240 32465 net.cpp:338] conv5 -> conv5
I0602 13:39:33.236258 32465 net.cpp:113] Setting up conv5
I0602 13:39:33.251340 32465 net.cpp:120] Top shape: 50 256 13 13 (2163200)
I0602 13:39:33.251394 32465 layer_factory.hpp:74] Creating layer relu5
I0602 13:39:33.251415 32465 net.cpp:84] Creating Layer relu5
I0602 13:39:33.251461 32465 net.cpp:380] relu5 <- conv5
I0602 13:39:33.251477 32465 net.cpp:327] relu5 -> conv5 (in-place)
I0602 13:39:33.251502 32465 net.cpp:113] Setting up relu5
I0602 13:39:33.251515 32465 net.cpp:120] Top shape: 50 256 13 13 (2163200)
I0602 13:39:33.251524 32465 layer_factory.hpp:74] Creating layer pool5
I0602 13:39:33.251541 32465 net.cpp:84] Creating Layer pool5
I0602 13:39:33.251552 32465 net.cpp:380] pool5 <- conv5
I0602 13:39:33.251570 32465 net.cpp:338] pool5 -> pool5
I0602 13:39:33.251601 32465 net.cpp:113] Setting up pool5
I0602 13:39:33.251631 32465 net.cpp:120] Top shape: 50 256 6 6 (460800)
I0602 13:39:33.251644 32465 layer_factory.hpp:74] Creating layer fc6
I0602 13:39:33.251664 32465 net.cpp:84] Creating Layer fc6
I0602 13:39:33.251674 32465 net.cpp:380] fc6 <- pool5
I0602 13:39:33.251687 32465 net.cpp:338] fc6 -> fc6
I0602 13:39:33.251704 32465 net.cpp:113] Setting up fc6
I0602 13:39:34.496350 32465 net.cpp:120] Top shape: 50 4096 (204800)
I0602 13:39:34.496420 32465 layer_factory.hpp:74] Creating layer relu6
I0602 13:39:34.496441 32465 net.cpp:84] Creating Layer relu6
I0602 13:39:34.496459 32465 net.cpp:380] relu6 <- fc6
I0602 13:39:34.496476 32465 net.cpp:327] relu6 -> fc6 (in-place)
I0602 13:39:34.496492 32465 net.cpp:113] Setting up relu6
I0602 13:39:34.496505 32465 net.cpp:120] Top shape: 50 4096 (204800)
I0602 13:39:34.496515 32465 layer_factory.hpp:74] Creating layer drop6
I0602 13:39:34.496539 32465 net.cpp:84] Creating Layer drop6
I0602 13:39:34.496556 32465 net.cpp:380] drop6 <- fc6
I0602 13:39:34.496580 32465 net.cpp:327] drop6 -> fc6 (in-place)
I0602 13:39:34.496599 32465 net.cpp:113] Setting up drop6
I0602 13:39:34.496618 32465 net.cpp:120] Top shape: 50 4096 (204800)
I0602 13:39:34.496628 32465 layer_factory.hpp:74] Creating layer fc7
I0602 13:39:34.496646 32465 net.cpp:84] Creating Layer fc7
I0602 13:39:34.496657 32465 net.cpp:380] fc7 <- fc6
I0602 13:39:34.496670 32465 net.cpp:338] fc7 -> fc7
I0602 13:39:34.496685 32465 net.cpp:113] Setting up fc7
I0602 13:39:35.052536 32465 net.cpp:120] Top shape: 50 4096 (204800)
I0602 13:39:35.052605 32465 layer_factory.hpp:74] Creating layer relu7
I0602 13:39:35.052625 32465 net.cpp:84] Creating Layer relu7
I0602 13:39:35.052638 32465 net.cpp:380] relu7 <- fc7
I0602 13:39:35.052656 32465 net.cpp:327] relu7 -> fc7 (in-place)
I0602 13:39:35.052672 32465 net.cpp:113] Setting up relu7
I0602 13:39:35.052685 32465 net.cpp:120] Top shape: 50 4096 (204800)
I0602 13:39:35.052695 32465 layer_factory.hpp:74] Creating layer drop7
I0602 13:39:35.052708 32465 net.cpp:84] Creating Layer drop7
I0602 13:39:35.052717 32465 net.cpp:380] drop7 <- fc7
I0602 13:39:35.052732 32465 net.cpp:327] drop7 -> fc7 (in-place)
I0602 13:39:35.052744 32465 net.cpp:113] Setting up drop7
I0602 13:39:35.052757 32465 net.cpp:120] Top shape: 50 4096 (204800)
I0602 13:39:35.052767 32465 layer_factory.hpp:74] Creating layer fc7_drop7_0_split
I0602 13:39:35.052779 32465 net.cpp:84] Creating Layer fc7_drop7_0_split
I0602 13:39:35.052788 32465 net.cpp:380] fc7_drop7_0_split <- fc7
I0602 13:39:35.052803 32465 net.cpp:338] fc7_drop7_0_split -> fc7_drop7_0_split_0
I0602 13:39:35.052817 32465 net.cpp:338] fc7_drop7_0_split -> fc7_drop7_0_split_1
I0602 13:39:35.052831 32465 net.cpp:338] fc7_drop7_0_split -> fc7_drop7_0_split_2
I0602 13:39:35.052847 32465 net.cpp:338] fc7_drop7_0_split -> fc7_drop7_0_split_3
I0602 13:39:35.052860 32465 net.cpp:113] Setting up fc7_drop7_0_split
I0602 13:39:35.052873 32465 net.cpp:120] Top shape: 50 4096 (204800)
I0602 13:39:35.052883 32465 net.cpp:120] Top shape: 50 4096 (204800)
I0602 13:39:35.052893 32465 net.cpp:120] Top shape: 50 4096 (204800)
I0602 13:39:35.052903 32465 net.cpp:120] Top shape: 50 4096 (204800)
I0602 13:39:35.052912 32465 layer_factory.hpp:74] Creating layer FCend_category
I0602 13:39:35.052933 32465 net.cpp:84] Creating Layer FCend_category
I0602 13:39:35.052952 32465 net.cpp:380] FCend_category <- fc7_drop7_0_split_0
I0602 13:39:35.052971 32465 net.cpp:338] FCend_category -> FCend_category
I0602 13:39:35.052999 32465 net.cpp:113] Setting up FCend_category
I0602 13:39:35.056895 32465 net.cpp:120] Top shape: 50 28 (1400)
I0602 13:39:35.056924 32465 layer_factory.hpp:74] Creating layer loss_category
I0602 13:39:35.056948 32465 net.cpp:84] Creating Layer loss_category
I0602 13:39:35.056959 32465 net.cpp:380] loss_category <- FCend_category
I0602 13:39:35.056970 32465 net.cpp:380] loss_category <- label_category_data_2_split_0
I0602 13:39:35.056983 32465 net.cpp:338] loss_category -> loss_category
I0602 13:39:35.057003 32465 net.cpp:338] loss_category -> prob_category
I0602 13:39:35.057026 32465 net.cpp:113] Setting up loss_category
I0602 13:39:35.057044 32465 layer_factory.hpp:74] Creating layer loss_category
I0602 13:39:35.057067 32465 softmax_perclass_loss.cpp:36] loss has ignore_label: 0
I0602 13:39:35.057077 32465 softmax_perclass_loss.cpp:46] Opening file models/yq_fk13/info_category.txt
I0602 13:39:35.057224 32465 net.cpp:120] Top shape: (1)
I0602 13:39:35.057255 32465 net.cpp:122]     with loss weight 1
I0602 13:39:35.057308 32465 net.cpp:120] Top shape: 50 28 (1400)
I0602 13:39:35.057333 32465 layer_factory.hpp:74] Creating layer accuracy_category
I0602 13:39:35.057355 32465 net.cpp:84] Creating Layer accuracy_category
I0602 13:39:35.057371 32465 net.cpp:380] accuracy_category <- prob_category
I0602 13:39:35.057384 32465 net.cpp:380] accuracy_category <- label_category_data_2_split_1
I0602 13:39:35.057394 32465 net.cpp:380] accuracy_category <- label_pid_data_1_split_0
…
