…
I0603 02:13:55.773597 19268 net.cpp:42] Initializing net from parameters: 
name: "yq_fk13"
state {
  phase: TRAIN
}
layer {
  name: "data"
  type: "ImageDataMultLabel"
  top: "data"
  top: "label_pid"
  top: "label_category"
  top: "label_pattern"
  top: "label_sleeve"
  top: "label_neck"
  include {
    phase: TRAIN
  }
  transform_param {
    mirror: true
    crop_size: 227
    mean_value: 187
    mean_value: 176
    mean_value: 176
  }
  image_data_mult_label_param {
    source: "models/yq_fk13/train.txt"
    batch_size: 50
    shuffle: true
    new_height: 256
    new_width: 256
  }
}
layer {
  name: "conv1"
  type: "Convolution"
  bottom: "data"
  top: "conv1"
  param {
    lr_mult: 1
    decay_mult: 1
  }
  param {
    lr_mult: 2
    decay_mult: 0
  }
  convolution_param {
    num_output: 96
    kernel_size: 11
    stride: 4
    weight_filler {
      type: "gaussian"
      std: 0.01
    }
    bias_filler {
      type: "constant"
      value: 0
    }
  }
}
layer {
  name: "relu1"
  type: "ReLU"
  bottom: "conv1"
  top: "conv1"
}
layer {
  name: "pool1"
  type: "Pooling"
  bottom: "conv1"
  top: "pool1"
  pooling_param {
    pool: MAX
    kernel_size: 3
    stride: 2
  }
}
layer {
  name: "norm1"
  type: "LRN"
  bottom: "pool1"
  top: "norm1"
  lrn_param {
    local_size: 5
    alpha: 0.0001
    beta: 0.75
  }
}
layer {
  name: "conv2"
  type: "Convolution"
  bottom: "norm1"
  top: "conv2"
  param {
    lr_mult: 1
    decay_mult: 1
  }
  param {
    lr_mult: 2
    decay_mult: 0
  }
  convolution_param {
    num_output: 256
    pad: 2
    kernel_size: 5
    group: 2
    weight_filler {
      type: "gaussian"
      std: 0.01
    }
    bias_filler {
      type: "constant"
      value: 1
    }
  }
}
layer {
  name: "relu2"
  type: "ReLU"
  bottom: "conv2"
  top: "conv2"
}
layer {
  name: "pool2"
  type: "Pooling"
  bottom: "conv2"
  top: "pool2"
  pooling_param {
    pool: MAX
    kernel_size: 3
    stride: 2
  }
}
layer {
  name: "norm2"
  type: "LRN"
  bottom: "pool2"
  top: "norm2"
  lrn_param {
    local_size: 5
    alpha: 0.0001
    beta: 0.75
  }
}
layer {
  name: "conv3"
  type: "Convolution"
  bottom: "norm2"
  top: "conv3"
  param {
    lr_mult: 1
    decay_mult: 1
  }
  param {
    lr_mult: 2
    decay_mult: 0
  }
  convolution_param {
    num_output: 384
    pad: 1
    kernel_size: 3
    weight_filler {
      type: "gaussian"
      std: 0.01
    }
    bias_filler {
      type: "constant"
      value: 0
    }
  }
}
layer {
  name: "relu3"
  type: "ReLU"
  bottom: "conv3"
  top: "conv3"
}
layer {
  name: "conv4"
  type: "Convolution"
  bottom: "conv3"
  top: "conv4"
  param {
    lr_mult: 1
    decay_mult: 1
  }
  param {
    lr_mult: 2
    decay_mult: 0
  }
  convolution_param {
    num_output: 384
    pad: 1
    kernel_size: 3
    group: 2
    weight_filler {
      type: "gaussian"
      std: 0.01
    }
    bias_filler {
      type: "constant"
      value: 1
    }
  }
}
layer {
  name: "relu4"
  type: "ReLU"
  bottom: "conv4"
  top: "conv4"
}
layer {
  name: "conv5"
  type: "Convolution"
  bottom: "conv4"
  top: "conv5"
  param {
    lr_mult: 1
    decay_mult: 1
  }
  param {
    lr_mult: 2
    decay_mult: 0
  }
  convolution_param {
    num_output: 256
    pad: 1
    kernel_size: 3
    group: 2
    weight_filler {
      type: "gaussian"
      std: 0.01
    }
    bias_filler {
      type: "constant"
      value: 1
    }
  }
}
layer {
  name: "relu5"
  type: "ReLU"
  bottom: "conv5"
  top: "conv5"
}
layer {
  name: "pool5"
  type: "Pooling"
  bottom: "conv5"
  top: "pool5"
  pooling_param {
    pool: MAX
    kernel_size: 3
    stride: 2
  }
}
layer {
  name: "fc6"
  type: "InnerProduct"
  bottom: "pool5"
  top: "fc6"
  param {
    lr_mult: 1
    decay_mult: 1
  }
  param {
    lr_mult: 2
    decay_mult: 0
  }
  inner_product_param {
    num_output: 4096
    weight_filler {
      type: "gaussian"
      std: 0.005
    }
    bias_filler {
      type: "constant"
      value: 1
    }
  }
}
layer {
  name: "relu6"
  type: "ReLU"
  bottom: "fc6"
  top: "fc6"
}
layer {
  name: "drop6"
  type: "Dropout"
  bottom: "fc6"
  top: "fc6"
  dropout_param {
    dropout_ratio: 0.5
  }
}
layer {
  name: "fc7"
  type: "InnerProduct"
  bottom: "fc6"
  top: "fc7"
  param {
    lr_mult: 1
    decay_mult: 1
  }
  param {
    lr_mult: 2
    decay_mult: 0
  }
  inner_product_param {
    num_output: 4096
    weight_filler {
      type: "gaussian"
      std: 0.005
    }
    bias_filler {
      type: "constant"
      value: 1
    }
  }
}
layer {
  name: "relu7"
  type: "ReLU"
  bottom: "fc7"
  top: "fc7"
}
layer {
  name: "drop7"
  type: "Dropout"
  bottom: "fc7"
  top: "fc7"
  dropout_param {
    dropout_ratio: 0.8
  }
}
layer {
  name: "FCend_category"
  type: "InnerProduct"
  bottom: "fc7"
  top: "FCend_category"
  param {
    lr_mult: 1
    decay_mult: 1
  }
  param {
    lr_mult: 2
    decay_mult: 0
  }
  inner_product_param {
    num_output: 28
    weight_filler {
      type: "gaussian"
      std: 0.01
    }
    bias_filler {
      type: "constant"
      value: 0
    }
  }
}
layer {
  name: "loss_category"
  type: "SoftmaxWithPerClassLoss"
  bottom: "FCend_category"
  bottom: "label_category"
  top: "loss_category"
  top: "prob_category"
  loss_weight: 1
  loss_weight: 0
  loss_param {
    ignore_label: 0
    normalize: true
    classifier_info_file: "models/yq_fk13/info_category.txt"
    class_specific_lr: false
  }
}
layer {
  name: "accuracy_category"
  type: "PerClassAccuracy"
  bottom: "prob_category"
  bottom: "label_category"
  bottom: "label_pid"
  per_class_accuracy_param {
    ignore_label: 0
    classifier_info_file: "models/yq_fk13/info_category.txt"
    confusion_matrix_file: "models/yq_fk13/conf_category"
    use_hierarchy: true
    num_grades: 20
  }
}
layer {
  name: "FCend_pattern"
  type: "InnerProduct"
  bottom: "fc7"
  top: "FCend_pattern"
  param {
    lr_mult: 1
    decay_mult: 1
  }
  param {
    lr_mult: 2
    decay_mult: 0
  }
  inner_product_param {
    num_output: 41
    weight_filler {
      type: "gaussian"
      std: 0.01
    }
    bias_filler {
      type: "constant"
      value: 0
    }
  }
}
layer {
  name: "loss_pattern"
  type: "SoftmaxWithPerClassLoss"
  bottom: "FCend_pattern"
  bottom: "label_pattern"
  top: "loss_pattern"
  top: "prob_pattern"
  loss_weight: 0.3
  loss_weight: 0
  loss_param {
    ignore_label: 0
    normalize: true
    classifier_info_file: "models/yq_fk13/info_pattern.txt"
    class_specific_lr: false
  }
}
layer {
  name: "accuracy_pattern"
  type: "PerClassAccuracy"
  bottom: "prob_pattern"
  bottom: "label_pattern"
  bottom: "label_pid"
  per_class_accuracy_param {
    ignore_label: 0
    classifier_info_file: "models/yq_fk13/info_pattern.txt"
    confusion_matrix_file: "models/yq_fk13/conf_pattern"
    use_hierarchy: true
    use_detailed_hier_accu: true
    num_grades: 20
  }
}
layer {
  name: "FCend_sleeve"
  type: "InnerProduct"
  bottom: "fc7"
  top: "FCend_sleeve"
  param {
    lr_mult: 1
    decay_mult: 1
  }
  param {
    lr_mult: 2
    decay_mult: 0
  }
  inner_product_param {
    num_output: 26
    weight_filler {
      type: "gaussian"
      std: 0.01
    }
    bias_filler {
      type: "constant"
      value: 0
    }
  }
}
layer {
  name: "loss_sleeve"
  type: "SoftmaxWithPerClassLoss"
  bottom: "FCend_sleeve"
  bottom: "label_sleeve"
  top: "loss_sleeve"
  top: "prob_sleeve"
  loss_weight: 0.3
  loss_weight: 0
  loss_param {
    ignore_label: 0
    normalize: true
    classifier_info_file: "models/yq_fk13/info_sleeve.txt"
    class_specific_lr: false
  }
}
layer {
  name: "accuracy_sleeve"
  type: "PerClassAccuracy"
  bottom: "prob_sleeve"
  bottom: "label_sleeve"
  bottom: "label_pid"
  per_class_accuracy_param {
    ignore_label: 0
    classifier_info_file: "models/yq_fk13/info_sleeve.txt"
    confusion_matrix_file: "models/yq_fk13/conf_sleeve"
    use_hierarchy: true
    use_detailed_hier_accu: true
    num_grades: 20
  }
}
layer {
  name: "FCend_neck"
  type: "InnerProduct"
  bottom: "fc7"
  top: "FCend_neck"
  param {
    lr_mult: 1
    decay_mult: 1
  }
  param {
    lr_mult: 2
    decay_mult: 0
  }
  inner_product_param {
    num_output: 13
    weight_filler {
      type: "gaussian"
      std: 0.01
    }
    bias_filler {
      type: "constant"
      value: 0
    }
  }
}
layer {
  name: "loss_neck"
  type: "SoftmaxWithPerClassLoss"
  bottom: "FCend_neck"
  bottom: "label_neck"
  top: "loss_neck"
  top: "prob_neck"
  loss_weight: 0.3
  loss_weight: 0
  loss_param {
    ignore_label: 0
    normalize: true
    classifier_info_file: "models/yq_fk13/info_neck.txt"
    class_specific_lr: false
  }
}
layer {
  name: "accuracy_neck"
  type: "PerClassAccuracy"
  bottom: "prob_neck"
  bottom: "label_neck"
  bottom: "label_pid"
  per_class_accuracy_param {
    ignore_label: 0
    classifier_info_file: "models/yq_fk13/info_neck.txt"
    confusion_matrix_file: "models/yq_fk13/conf_neck"
    use_hierarchy: true
    use_detailed_hier_accu: true
    num_grades: 20
  }
}
I0603 02:13:55.775568 19268 layer_factory.hpp:74] Creating layer data
I0603 02:13:55.775615 19268 net.cpp:84] Creating Layer data
I0603 02:13:55.775635 19268 net.cpp:338] data -> data
…
I0603 02:13:55.966509 19268 image_data_multclass_layer.cpp:71] Label: 0
I0603 02:13:55.966517 19268 image_data_multclass_layer.cpp:71] Label: 0
I0603 02:13:55.966526 19268 image_data_multclass_layer.cpp:83] ##############################################
I0603 02:13:55.966534 19268 image_data_multclass_layer.cpp:84] ##############################################
I0603 02:13:55.966542 19268 image_data_multclass_layer.cpp:85] size of top: 6
I0603 02:13:55.974735 19268 image_data_multclass_layer.cpp:103] output data size: 50,3,227,227
I0603 02:13:55.974781 19268 image_data_multclass_layer.cpp:107] number of labels: 5
I0603 02:13:55.982848 19268 net.cpp:120] Top shape: 50 3 227 227 (7729350)
I0603 02:13:55.982900 19268 net.cpp:120] Top shape: 50 (50)
I0603 02:13:55.982913 19268 net.cpp:120] Top shape: 50 (50)
I0603 02:13:55.982923 19268 net.cpp:120] Top shape: 50 (50)
I0603 02:13:55.982934 19268 net.cpp:120] Top shape: 50 (50)
I0603 02:13:55.982944 19268 net.cpp:120] Top shape: 50 (50)
I0603 02:13:55.982959 19268 layer_factory.hpp:74] Creating layer label_pid_data_1_split
I0603 02:13:55.982981 19268 net.cpp:84] Creating Layer label_pid_data_1_split
I0603 02:13:55.982996 19268 net.cpp:380] label_pid_data_1_split <- label_pid
I0603 02:13:55.983017 19268 net.cpp:338] label_pid_data_1_split -> label_pid_data_1_split_0
I0603 02:13:55.983036 19268 net.cpp:338] label_pid_data_1_split -> label_pid_data_1_split_1
I0603 02:13:55.983085 19268 net.cpp:338] label_pid_data_1_split -> label_pid_data_1_split_2
I0603 02:13:55.983101 19268 net.cpp:338] label_pid_data_1_split -> label_pid_data_1_split_3
I0603 02:13:55.983114 19268 net.cpp:113] Setting up label_pid_data_1_split
I0603 02:13:55.983131 19268 net.cpp:120] Top shape: 50 (50)
I0603 02:13:55.983142 19268 net.cpp:120] Top shape: 50 (50)
I0603 02:13:55.983152 19268 net.cpp:120] Top shape: 50 (50)
I0603 02:13:55.983162 19268 net.cpp:120] Top shape: 50 (50)
I0603 02:13:55.983171 19268 layer_factory.hpp:74] Creating layer label_category_data_2_split
I0603 02:13:55.983183 19268 net.cpp:84] Creating Layer label_category_data_2_split
I0603 02:13:55.983193 19268 net.cpp:380] label_category_data_2_split <- label_category
I0603 02:13:55.983206 19268 net.cpp:338] label_category_data_2_split -> label_category_data_2_split_0
I0603 02:13:55.983217 19268 net.cpp:338] label_category_data_2_split -> label_category_data_2_split_1
I0603 02:13:55.983232 19268 net.cpp:113] Setting up label_category_data_2_split
I0603 02:13:55.983243 19268 net.cpp:120] Top shape: 50 (50)
I0603 02:13:55.983253 19268 net.cpp:120] Top shape: 50 (50)
I0603 02:13:55.983263 19268 layer_factory.hpp:74] Creating layer label_pattern_data_3_split
I0603 02:13:55.983276 19268 net.cpp:84] Creating Layer label_pattern_data_3_split
I0603 02:13:55.983286 19268 net.cpp:380] label_pattern_data_3_split <- label_pattern
I0603 02:13:55.983299 19268 net.cpp:338] label_pattern_data_3_split -> label_pattern_data_3_split_0
I0603 02:13:55.983311 19268 net.cpp:338] label_pattern_data_3_split -> label_pattern_data_3_split_1
I0603 02:13:55.983326 19268 net.cpp:113] Setting up label_pattern_data_3_split
I0603 02:13:55.983338 19268 net.cpp:120] Top shape: 50 (50)
I0603 02:13:55.983348 19268 net.cpp:120] Top shape: 50 (50)
I0603 02:13:55.983357 19268 layer_factory.hpp:74] Creating layer label_sleeve_data_4_split
I0603 02:13:55.983368 19268 net.cpp:84] Creating Layer label_sleeve_data_4_split
I0603 02:13:55.983378 19268 net.cpp:380] label_sleeve_data_4_split <- label_sleeve
I0603 02:13:55.983389 19268 net.cpp:338] label_sleeve_data_4_split -> label_sleeve_data_4_split_0
I0603 02:13:55.983402 19268 net.cpp:338] label_sleeve_data_4_split -> label_sleeve_data_4_split_1
I0603 02:13:55.983417 19268 net.cpp:113] Setting up label_sleeve_data_4_split
I0603 02:13:55.983430 19268 net.cpp:120] Top shape: 50 (50)
I0603 02:13:55.983439 19268 net.cpp:120] Top shape: 50 (50)
I0603 02:13:55.983448 19268 layer_factory.hpp:74] Creating layer label_neck_data_5_split
I0603 02:13:55.983459 19268 net.cpp:84] Creating Layer label_neck_data_5_split
I0603 02:13:55.983469 19268 net.cpp:380] label_neck_data_5_split <- label_neck
I0603 02:13:55.983479 19268 net.cpp:338] label_neck_data_5_split -> label_neck_data_5_split_0
I0603 02:13:55.983492 19268 net.cpp:338] label_neck_data_5_split -> label_neck_data_5_split_1
I0603 02:13:55.983505 19268 net.cpp:113] Setting up label_neck_data_5_split
I0603 02:13:55.983517 19268 net.cpp:120] Top shape: 50 (50)
I0603 02:13:55.983526 19268 net.cpp:120] Top shape: 50 (50)
I0603 02:13:55.983536 19268 layer_factory.hpp:74] Creating layer conv1
I0603 02:13:55.983556 19268 net.cpp:84] Creating Layer conv1
I0603 02:13:55.983566 19268 net.cpp:380] conv1 <- data
I0603 02:13:55.983579 19268 net.cpp:338] conv1 -> conv1
I0603 02:13:55.983595 19268 net.cpp:113] Setting up conv1
I0603 02:13:55.984783 19268 net.cpp:120] Top shape: 50 96 55 55 (14520000)
I0603 02:13:55.984824 19268 layer_factory.hpp:74] Creating layer relu1
I0603 02:13:55.984840 19268 net.cpp:84] Creating Layer relu1
I0603 02:13:55.984851 19268 net.cpp:380] relu1 <- conv1
I0603 02:13:55.984863 19268 net.cpp:327] relu1 -> conv1 (in-place)
I0603 02:13:55.984875 19268 net.cpp:113] Setting up relu1
I0603 02:13:55.984889 19268 net.cpp:120] Top shape: 50 96 55 55 (14520000)
I0603 02:13:55.984899 19268 layer_factory.hpp:74] Creating layer pool1
I0603 02:13:55.984913 19268 net.cpp:84] Creating Layer pool1
I0603 02:13:55.984922 19268 net.cpp:380] pool1 <- conv1
I0603 02:13:55.984956 19268 net.cpp:338] pool1 -> pool1
I0603 02:13:55.984972 19268 net.cpp:113] Setting up pool1
I0603 02:13:55.984999 19268 net.cpp:120] Top shape: 50 96 27 27 (3499200)
I0603 02:13:55.985009 19268 layer_factory.hpp:74] Creating layer norm1
I0603 02:13:55.985025 19268 net.cpp:84] Creating Layer norm1
I0603 02:13:55.985035 19268 net.cpp:380] norm1 <- pool1
I0603 02:13:55.985047 19268 net.cpp:338] norm1 -> norm1
I0603 02:13:55.985060 19268 net.cpp:113] Setting up norm1
I0603 02:13:55.985075 19268 net.cpp:120] Top shape: 50 96 27 27 (3499200)
I0603 02:13:55.985085 19268 layer_factory.hpp:74] Creating layer conv2
I0603 02:13:55.985098 19268 net.cpp:84] Creating Layer conv2
I0603 02:13:55.985107 19268 net.cpp:380] conv2 <- norm1
I0603 02:13:55.985121 19268 net.cpp:338] conv2 -> conv2
I0603 02:13:55.985132 19268 net.cpp:113] Setting up conv2
I0603 02:13:55.995144 19268 net.cpp:120] Top shape: 50 256 27 27 (9331200)
I0603 02:13:55.995199 19268 layer_factory.hpp:74] Creating layer relu2
I0603 02:13:55.995218 19268 net.cpp:84] Creating Layer relu2
I0603 02:13:55.995229 19268 net.cpp:380] relu2 <- conv2
I0603 02:13:55.995242 19268 net.cpp:327] relu2 -> conv2 (in-place)
I0603 02:13:55.995257 19268 net.cpp:113] Setting up relu2
I0603 02:13:55.995268 19268 net.cpp:120] Top shape: 50 256 27 27 (9331200)
I0603 02:13:55.995278 19268 layer_factory.hpp:74] Creating layer pool2
I0603 02:13:55.995291 19268 net.cpp:84] Creating Layer pool2
I0603 02:13:55.995301 19268 net.cpp:380] pool2 <- conv2
I0603 02:13:55.995312 19268 net.cpp:338] pool2 -> pool2
I0603 02:13:55.995326 19268 net.cpp:113] Setting up pool2
I0603 02:13:55.995342 19268 net.cpp:120] Top shape: 50 256 13 13 (2163200)
I0603 02:13:55.995350 19268 layer_factory.hpp:74] Creating layer norm2
I0603 02:13:55.995363 19268 net.cpp:84] Creating Layer norm2
I0603 02:13:55.995373 19268 net.cpp:380] norm2 <- pool2
I0603 02:13:55.995383 19268 net.cpp:338] norm2 -> norm2
I0603 02:13:55.995395 19268 net.cpp:113] Setting up norm2
I0603 02:13:55.995409 19268 net.cpp:120] Top shape: 50 256 13 13 (2163200)
I0603 02:13:55.995419 19268 layer_factory.hpp:74] Creating layer conv3
I0603 02:13:55.995434 19268 net.cpp:84] Creating Layer conv3
I0603 02:13:55.995443 19268 net.cpp:380] conv3 <- norm2
I0603 02:13:55.995455 19268 net.cpp:338] conv3 -> conv3
I0603 02:13:55.995468 19268 net.cpp:113] Setting up conv3
I0603 02:13:56.025019 19268 net.cpp:120] Top shape: 50 384 13 13 (3244800)
I0603 02:13:56.025079 19268 layer_factory.hpp:74] Creating layer relu3
I0603 02:13:56.025099 19268 net.cpp:84] Creating Layer relu3
I0603 02:13:56.025110 19268 net.cpp:380] relu3 <- conv3
I0603 02:13:56.025125 19268 net.cpp:327] relu3 -> conv3 (in-place)
I0603 02:13:56.025138 19268 net.cpp:113] Setting up relu3
I0603 02:13:56.025151 19268 net.cpp:120] Top shape: 50 384 13 13 (3244800)
I0603 02:13:56.025161 19268 layer_factory.hpp:74] Creating layer conv4
I0603 02:13:56.025179 19268 net.cpp:84] Creating Layer conv4
I0603 02:13:56.025189 19268 net.cpp:380] conv4 <- conv3
I0603 02:13:56.025202 19268 net.cpp:338] conv4 -> conv4
I0603 02:13:56.025215 19268 net.cpp:113] Setting up conv4
I0603 02:13:56.048478 19268 net.cpp:120] Top shape: 50 384 13 13 (3244800)
I0603 02:13:56.048544 19268 layer_factory.hpp:74] Creating layer relu4
I0603 02:13:56.048563 19268 net.cpp:84] Creating Layer relu4
I0603 02:13:56.048576 19268 net.cpp:380] relu4 <- conv4
I0603 02:13:56.048596 19268 net.cpp:327] relu4 -> conv4 (in-place)
I0603 02:13:56.048612 19268 net.cpp:113] Setting up relu4
I0603 02:13:56.048627 19268 net.cpp:120] Top shape: 50 384 13 13 (3244800)
I0603 02:13:56.048643 19268 layer_factory.hpp:74] Creating layer conv5
I0603 02:13:56.048661 19268 net.cpp:84] Creating Layer conv5
I0603 02:13:56.048674 19268 net.cpp:380] conv5 <- conv4
I0603 02:13:56.048693 19268 net.cpp:338] conv5 -> conv5
I0603 02:13:56.048709 19268 net.cpp:113] Setting up conv5
I0603 02:13:56.064591 19268 net.cpp:120] Top shape: 50 256 13 13 (2163200)
I0603 02:13:56.064651 19268 layer_factory.hpp:74] Creating layer relu5
I0603 02:13:56.064676 19268 net.cpp:84] Creating Layer relu5
I0603 02:13:56.064714 19268 net.cpp:380] relu5 <- conv5
I0603 02:13:56.064738 19268 net.cpp:327] relu5 -> conv5 (in-place)
I0603 02:13:56.064754 19268 net.cpp:113] Setting up relu5
I0603 02:13:56.064774 19268 net.cpp:120] Top shape: 50 256 13 13 (2163200)
I0603 02:13:56.064785 19268 layer_factory.hpp:74] Creating layer pool5
I0603 02:13:56.064800 19268 net.cpp:84] Creating Layer pool5
I0603 02:13:56.064810 19268 net.cpp:380] pool5 <- conv5
I0603 02:13:56.064827 19268 net.cpp:338] pool5 -> pool5
I0603 02:13:56.064841 19268 net.cpp:113] Setting up pool5
I0603 02:13:56.064860 19268 net.cpp:120] Top shape: 50 256 6 6 (460800)
I0603 02:13:56.064870 19268 layer_factory.hpp:74] Creating layer fc6
I0603 02:13:56.064889 19268 net.cpp:84] Creating Layer fc6
I0603 02:13:56.064899 19268 net.cpp:380] fc6 <- pool5
I0603 02:13:56.064910 19268 net.cpp:338] fc6 -> fc6
I0603 02:13:56.064929 19268 net.cpp:113] Setting up fc6
I0603 02:13:57.309432 19268 net.cpp:120] Top shape: 50 4096 (204800)
I0603 02:13:57.309506 19268 layer_factory.hpp:74] Creating layer relu6
I0603 02:13:57.309526 19268 net.cpp:84] Creating Layer relu6
I0603 02:13:57.309540 19268 net.cpp:380] relu6 <- fc6
I0603 02:13:57.309558 19268 net.cpp:327] relu6 -> fc6 (in-place)
I0603 02:13:57.309574 19268 net.cpp:113] Setting up relu6
I0603 02:13:57.309587 19268 net.cpp:120] Top shape: 50 4096 (204800)
I0603 02:13:57.309597 19268 layer_factory.hpp:74] Creating layer drop6
I0603 02:13:57.309615 19268 net.cpp:84] Creating Layer drop6
I0603 02:13:57.309624 19268 net.cpp:380] drop6 <- fc6
I0603 02:13:57.309635 19268 net.cpp:327] drop6 -> fc6 (in-place)
I0603 02:13:57.309651 19268 net.cpp:113] Setting up drop6
I0603 02:13:57.309669 19268 net.cpp:120] Top shape: 50 4096 (204800)
I0603 02:13:57.309679 19268 layer_factory.hpp:74] Creating layer fc7
I0603 02:13:57.309692 19268 net.cpp:84] Creating Layer fc7
I0603 02:13:57.309701 19268 net.cpp:380] fc7 <- fc6
I0603 02:13:57.309717 19268 net.cpp:338] fc7 -> fc7
I0603 02:13:57.309732 19268 net.cpp:113] Setting up fc7
I0603 02:13:57.860836 19268 net.cpp:120] Top shape: 50 4096 (204800)
I0603 02:13:57.860906 19268 layer_factory.hpp:74] Creating layer relu7
I0603 02:13:57.860925 19268 net.cpp:84] Creating Layer relu7
I0603 02:13:57.860937 19268 net.cpp:380] relu7 <- fc7
I0603 02:13:57.860951 19268 net.cpp:327] relu7 -> fc7 (in-place)
I0603 02:13:57.860966 19268 net.cpp:113] Setting up relu7
I0603 02:13:57.860978 19268 net.cpp:120] Top shape: 50 4096 (204800)
I0603 02:13:57.860987 19268 layer_factory.hpp:74] Creating layer drop7
I0603 02:13:57.861001 19268 net.cpp:84] Creating Layer drop7
I0603 02:13:57.861011 19268 net.cpp:380] drop7 <- fc7
I0603 02:13:57.861024 19268 net.cpp:327] drop7 -> fc7 (in-place)
I0603 02:13:57.861037 19268 net.cpp:113] Setting up drop7
I0603 02:13:57.861050 19268 net.cpp:120] Top shape: 50 4096 (204800)
I0603 02:13:57.861059 19268 layer_factory.hpp:74] Creating layer fc7_drop7_0_split
I0603 02:13:57.861073 19268 net.cpp:84] Creating Layer fc7_drop7_0_split
I0603 02:13:57.861081 19268 net.cpp:380] fc7_drop7_0_split <- fc7
I0603 02:13:57.861110 19268 net.cpp:338] fc7_drop7_0_split -> fc7_drop7_0_split_0
I0603 02:13:57.861142 19268 net.cpp:338] fc7_drop7_0_split -> fc7_drop7_0_split_1
I0603 02:13:57.861158 19268 net.cpp:338] fc7_drop7_0_split -> fc7_drop7_0_split_2
I0603 02:13:57.861173 19268 net.cpp:338] fc7_drop7_0_split -> fc7_drop7_0_split_3
I0603 02:13:57.861186 19268 net.cpp:113] Setting up fc7_drop7_0_split
I0603 02:13:57.861199 19268 net.cpp:120] Top shape: 50 4096 (204800)
I0603 02:13:57.861209 19268 net.cpp:120] Top shape: 50 4096 (204800)
I0603 02:13:57.861220 19268 net.cpp:120] Top shape: 50 4096 (204800)
I0603 02:13:57.861229 19268 net.cpp:120] Top shape: 50 4096 (204800)
I0603 02:13:57.861239 19268 layer_factory.hpp:74] Creating layer FCend_category
I0603 02:13:57.861258 19268 net.cpp:84] Creating Layer FCend_category
I0603 02:13:57.861268 19268 net.cpp:380] FCend_category <- fc7_drop7_0_split_0
I0603 02:13:57.861281 19268 net.cpp:338] FCend_category -> FCend_category
I0603 02:13:57.861315 19268 net.cpp:113] Setting up FCend_category
I0603 02:13:57.865231 19268 net.cpp:120] Top shape: 50 28 (1400)
I0603 02:13:57.865265 19268 layer_factory.hpp:74] Creating layer loss_category
I0603 02:13:57.865300 19268 net.cpp:84] Creating Layer loss_category
I0603 02:13:57.865321 19268 net.cpp:380] loss_category <- FCend_category
I0603 02:13:57.865334 19268 net.cpp:380] loss_category <- label_category_data_2_split_0
I0603 02:13:57.865349 19268 net.cpp:338] loss_category -> loss_category
I0603 02:13:57.865370 19268 net.cpp:338] loss_category -> prob_category
I0603 02:13:57.865391 19268 net.cpp:113] Setting up loss_category
I0603 02:13:57.865409 19268 layer_factory.hpp:74] Creating layer loss_category
I0603 02:13:57.865434 19268 softmax_perclass_loss.cpp:36] loss has ignore_label: 0
I0603 02:13:57.865453 19268 softmax_perclass_loss.cpp:46] Opening file models/yq_fk13/info_category.txt
I0603 02:13:57.865602 19268 net.cpp:120] Top shape: (1)
I0603 02:13:57.865630 19268 net.cpp:122]     with loss weight 1
I0603 02:13:57.865694 19268 net.cpp:120] Top shape: 50 28 (1400)
I0603 02:13:57.865706 19268 layer_factory.hpp:74] Creating layer accuracy_category
I0603 02:13:57.865732 19268 net.cpp:84] Creating Layer accuracy_category
I0603 02:13:57.865748 19268 net.cpp:380] accuracy_category <- prob_category
I0603 02:13:57.865761 19268 net.cpp:380] accuracy_category <- label_category_data_2_split_1
I0603 02:13:57.865772 19268 net.cpp:380] accuracy_category <- label_pid_data_1_split_0
…
