…
I0603 03:40:02.350710 31471 net.cpp:42] Initializing net from parameters: 
name: "yq_fk13"
state {
  phase: TRAIN
}
layer {
  name: "data"
  type: "ImageDataMultLabel"
  top: "data"
  top: "label_pid"
  top: "label_category"
  top: "label_pattern"
  top: "label_sleeve"
  top: "label_neck"
  include {
    phase: TRAIN
  }
  transform_param {
    mirror: true
    crop_size: 227
    mean_value: 187
    mean_value: 176
    mean_value: 176
  }
  image_data_mult_label_param {
    source: "models/yq_fk13/train.txt"
    batch_size: 50
    shuffle: true
    new_height: 256
    new_width: 256
  }
}
layer {
  name: "conv1"
  type: "Convolution"
  bottom: "data"
  top: "conv1"
  param {
    lr_mult: 1
    decay_mult: 1
  }
  param {
    lr_mult: 2
    decay_mult: 0
  }
  convolution_param {
    num_output: 96
    kernel_size: 11
    stride: 4
    weight_filler {
      type: "gaussian"
      std: 0.01
    }
    bias_filler {
      type: "constant"
      value: 0
    }
  }
}
layer {
  name: "relu1"
  type: "ReLU"
  bottom: "conv1"
  top: "conv1"
}
layer {
  name: "pool1"
  type: "Pooling"
  bottom: "conv1"
  top: "pool1"
  pooling_param {
    pool: MAX
    kernel_size: 3
    stride: 2
  }
}
layer {
  name: "norm1"
  type: "LRN"
  bottom: "pool1"
  top: "norm1"
  lrn_param {
    local_size: 5
    alpha: 0.0001
    beta: 0.75
  }
}
layer {
  name: "conv2"
  type: "Convolution"
  bottom: "norm1"
  top: "conv2"
  param {
    lr_mult: 1
    decay_mult: 1
  }
  param {
    lr_mult: 2
    decay_mult: 0
  }
  convolution_param {
    num_output: 256
    pad: 2
    kernel_size: 5
    group: 2
    weight_filler {
      type: "gaussian"
      std: 0.01
    }
    bias_filler {
      type: "constant"
      value: 1
    }
  }
}
layer {
  name: "relu2"
  type: "ReLU"
  bottom: "conv2"
  top: "conv2"
}
layer {
  name: "pool2"
  type: "Pooling"
  bottom: "conv2"
  top: "pool2"
  pooling_param {
    pool: MAX
    kernel_size: 3
    stride: 2
  }
}
layer {
  name: "norm2"
  type: "LRN"
  bottom: "pool2"
  top: "norm2"
  lrn_param {
    local_size: 5
    alpha: 0.0001
    beta: 0.75
  }
}
layer {
  name: "conv3"
  type: "Convolution"
  bottom: "norm2"
  top: "conv3"
  param {
    lr_mult: 1
    decay_mult: 1
  }
  param {
    lr_mult: 2
    decay_mult: 0
  }
  convolution_param {
    num_output: 384
    pad: 1
    kernel_size: 3
    weight_filler {
      type: "gaussian"
      std: 0.01
    }
    bias_filler {
      type: "constant"
      value: 0
    }
  }
}
layer {
  name: "relu3"
  type: "ReLU"
  bottom: "conv3"
  top: "conv3"
}
layer {
  name: "conv4"
  type: "Convolution"
  bottom: "conv3"
  top: "conv4"
  param {
    lr_mult: 1
    decay_mult: 1
  }
  param {
    lr_mult: 2
    decay_mult: 0
  }
  convolution_param {
    num_output: 384
    pad: 1
    kernel_size: 3
    group: 2
    weight_filler {
      type: "gaussian"
      std: 0.01
    }
    bias_filler {
      type: "constant"
      value: 1
    }
  }
}
layer {
  name: "relu4"
  type: "ReLU"
  bottom: "conv4"
  top: "conv4"
}
layer {
  name: "conv5"
  type: "Convolution"
  bottom: "conv4"
  top: "conv5"
  param {
    lr_mult: 1
    decay_mult: 1
  }
  param {
    lr_mult: 2
    decay_mult: 0
  }
  convolution_param {
    num_output: 256
    pad: 1
    kernel_size: 3
    group: 2
    weight_filler {
      type: "gaussian"
      std: 0.01
    }
    bias_filler {
      type: "constant"
      value: 1
    }
  }
}
layer {
  name: "relu5"
  type: "ReLU"
  bottom: "conv5"
  top: "conv5"
}
layer {
  name: "pool5"
  type: "Pooling"
  bottom: "conv5"
  top: "pool5"
  pooling_param {
    pool: MAX
    kernel_size: 3
    stride: 2
  }
}
layer {
  name: "fc6"
  type: "InnerProduct"
  bottom: "pool5"
  top: "fc6"
  param {
    lr_mult: 1
    decay_mult: 1
  }
  param {
    lr_mult: 2
    decay_mult: 0
  }
  inner_product_param {
    num_output: 4096
    weight_filler {
      type: "gaussian"
      std: 0.005
    }
    bias_filler {
      type: "constant"
      value: 1
    }
  }
}
layer {
  name: "relu6"
  type: "ReLU"
  bottom: "fc6"
  top: "fc6"
}
layer {
  name: "drop6"
  type: "Dropout"
  bottom: "fc6"
  top: "fc6"
  dropout_param {
    dropout_ratio: 0.5
  }
}
layer {
  name: "fc7"
  type: "InnerProduct"
  bottom: "fc6"
  top: "fc7"
  param {
    lr_mult: 1
    decay_mult: 1
  }
  param {
    lr_mult: 2
    decay_mult: 0
  }
  inner_product_param {
    num_output: 4096
    weight_filler {
      type: "gaussian"
      std: 0.005
    }
    bias_filler {
      type: "constant"
      value: 1
    }
  }
}
layer {
  name: "relu7"
  type: "ReLU"
  bottom: "fc7"
  top: "fc7"
}
layer {
  name: "drop7"
  type: "Dropout"
  bottom: "fc7"
  top: "fc7"
  dropout_param {
    dropout_ratio: 0.8
  }
}
layer {
  name: "FCend_category"
  type: "InnerProduct"
  bottom: "fc7"
  top: "FCend_category"
  param {
    lr_mult: 1
    decay_mult: 1
  }
  param {
    lr_mult: 2
    decay_mult: 0
  }
  inner_product_param {
    num_output: 28
    weight_filler {
      type: "gaussian"
      std: 0.01
    }
    bias_filler {
      type: "constant"
      value: 0
    }
  }
}
layer {
  name: "loss_category"
  type: "SoftmaxWithPerClassLoss"
  bottom: "FCend_category"
  bottom: "label_category"
  top: "loss_category"
  top: "prob_category"
  loss_weight: 1
  loss_weight: 0
  loss_param {
    ignore_label: 0
    normalize: true
    classifier_info_file: "models/yq_fk13/info_category.txt"
    class_specific_lr: false
  }
}
layer {
  name: "accuracy_category"
  type: "PerClassAccuracy"
  bottom: "prob_category"
  bottom: "label_category"
  bottom: "label_pid"
  per_class_accuracy_param {
    ignore_label: 0
    classifier_info_file: "models/yq_fk13/info_category.txt"
    confusion_matrix_file: "models/yq_fk13/conf_category"
    use_hierarchy: true
    num_grades: 20
  }
}
layer {
  name: "FCend_pattern"
  type: "InnerProduct"
  bottom: "fc7"
  top: "FCend_pattern"
  param {
    lr_mult: 1
    decay_mult: 1
  }
  param {
    lr_mult: 2
    decay_mult: 0
  }
  inner_product_param {
    num_output: 41
    weight_filler {
      type: "gaussian"
      std: 0.01
    }
    bias_filler {
      type: "constant"
      value: 0
    }
  }
}
layer {
  name: "loss_pattern"
  type: "SoftmaxWithPerClassLoss"
  bottom: "FCend_pattern"
  bottom: "label_pattern"
  top: "loss_pattern"
  top: "prob_pattern"
  loss_weight: 0.2
  loss_weight: 0
  loss_param {
    ignore_label: 0
    normalize: true
    classifier_info_file: "models/yq_fk13/info_pattern.txt"
    class_specific_lr: false
  }
}
layer {
  name: "accuracy_pattern"
  type: "PerClassAccuracy"
  bottom: "prob_pattern"
  bottom: "label_pattern"
  bottom: "label_pid"
  per_class_accuracy_param {
    ignore_label: 0
    classifier_info_file: "models/yq_fk13/info_pattern.txt"
    confusion_matrix_file: "models/yq_fk13/conf_pattern"
    use_hierarchy: true
    use_detailed_hier_accu: true
    num_grades: 20
  }
}
layer {
  name: "FCend_sleeve"
  type: "InnerProduct"
  bottom: "fc7"
  top: "FCend_sleeve"
  param {
    lr_mult: 1
    decay_mult: 1
  }
  param {
    lr_mult: 2
    decay_mult: 0
  }
  inner_product_param {
    num_output: 26
    weight_filler {
      type: "gaussian"
      std: 0.01
    }
    bias_filler {
      type: "constant"
      value: 0
    }
  }
}
layer {
  name: "loss_sleeve"
  type: "SoftmaxWithPerClassLoss"
  bottom: "FCend_sleeve"
  bottom: "label_sleeve"
  top: "loss_sleeve"
  top: "prob_sleeve"
  loss_weight: 0.2
  loss_weight: 0
  loss_param {
    ignore_label: 0
    normalize: true
    classifier_info_file: "models/yq_fk13/info_sleeve.txt"
    class_specific_lr: false
  }
}
layer {
  name: "accuracy_sleeve"
  type: "PerClassAccuracy"
  bottom: "prob_sleeve"
  bottom: "label_sleeve"
  bottom: "label_pid"
  per_class_accuracy_param {
    ignore_label: 0
    classifier_info_file: "models/yq_fk13/info_sleeve.txt"
    confusion_matrix_file: "models/yq_fk13/conf_sleeve"
    use_hierarchy: true
    use_detailed_hier_accu: true
    num_grades: 20
  }
}
layer {
  name: "FCend_neck"
  type: "InnerProduct"
  bottom: "fc7"
  top: "FCend_neck"
  param {
    lr_mult: 1
    decay_mult: 1
  }
  param {
    lr_mult: 2
    decay_mult: 0
  }
  inner_product_param {
    num_output: 13
    weight_filler {
      type: "gaussian"
      std: 0.01
    }
    bias_filler {
      type: "constant"
      value: 0
    }
  }
}
layer {
  name: "loss_neck"
  type: "SoftmaxWithPerClassLoss"
  bottom: "FCend_neck"
  bottom: "label_neck"
  top: "loss_neck"
  top: "prob_neck"
  loss_weight: 0.2
  loss_weight: 0
  loss_param {
    ignore_label: 0
    normalize: true
    classifier_info_file: "models/yq_fk13/info_neck.txt"
    class_specific_lr: false
  }
}
layer {
  name: "accuracy_neck"
  type: "PerClassAccuracy"
  bottom: "prob_neck"
  bottom: "label_neck"
  bottom: "label_pid"
  per_class_accuracy_param {
    ignore_label: 0
    classifier_info_file: "models/yq_fk13/info_neck.txt"
    confusion_matrix_file: "models/yq_fk13/conf_neck"
    use_hierarchy: true
    use_detailed_hier_accu: true
    num_grades: 20
  }
}
I0603 03:40:02.352571 31471 layer_factory.hpp:74] Creating layer data
I0603 03:40:02.352613 31471 net.cpp:84] Creating Layer data
I0603 03:40:02.352638 31471 net.cpp:338] data -> data
…
I0603 03:40:02.529718 31471 image_data_multclass_layer.cpp:71] Label: 0
I0603 03:40:02.529726 31471 image_data_multclass_layer.cpp:71] Label: 0
I0603 03:40:02.529734 31471 image_data_multclass_layer.cpp:83] ##############################################
I0603 03:40:02.529743 31471 image_data_multclass_layer.cpp:84] ##############################################
I0603 03:40:02.529752 31471 image_data_multclass_layer.cpp:85] size of top: 6
I0603 03:40:02.535392 31471 image_data_multclass_layer.cpp:103] output data size: 50,3,227,227
I0603 03:40:02.535423 31471 image_data_multclass_layer.cpp:107] number of labels: 5
I0603 03:40:02.543624 31471 net.cpp:120] Top shape: 50 3 227 227 (7729350)
I0603 03:40:02.543673 31471 net.cpp:120] Top shape: 50 (50)
I0603 03:40:02.543685 31471 net.cpp:120] Top shape: 50 (50)
I0603 03:40:02.543695 31471 net.cpp:120] Top shape: 50 (50)
I0603 03:40:02.543705 31471 net.cpp:120] Top shape: 50 (50)
I0603 03:40:02.543715 31471 net.cpp:120] Top shape: 50 (50)
I0603 03:40:02.543730 31471 layer_factory.hpp:74] Creating layer label_pid_data_1_split
I0603 03:40:02.543754 31471 net.cpp:84] Creating Layer label_pid_data_1_split
I0603 03:40:02.543769 31471 net.cpp:380] label_pid_data_1_split <- label_pid
I0603 03:40:02.543792 31471 net.cpp:338] label_pid_data_1_split -> label_pid_data_1_split_0
I0603 03:40:02.543810 31471 net.cpp:338] label_pid_data_1_split -> label_pid_data_1_split_1
I0603 03:40:02.543858 31471 net.cpp:338] label_pid_data_1_split -> label_pid_data_1_split_2
I0603 03:40:02.543874 31471 net.cpp:338] label_pid_data_1_split -> label_pid_data_1_split_3
I0603 03:40:02.543889 31471 net.cpp:113] Setting up label_pid_data_1_split
I0603 03:40:02.543906 31471 net.cpp:120] Top shape: 50 (50)
I0603 03:40:02.543920 31471 net.cpp:120] Top shape: 50 (50)
I0603 03:40:02.543931 31471 net.cpp:120] Top shape: 50 (50)
I0603 03:40:02.543941 31471 net.cpp:120] Top shape: 50 (50)
I0603 03:40:02.543949 31471 layer_factory.hpp:74] Creating layer label_category_data_2_split
I0603 03:40:02.543962 31471 net.cpp:84] Creating Layer label_category_data_2_split
I0603 03:40:02.543972 31471 net.cpp:380] label_category_data_2_split <- label_category
I0603 03:40:02.543984 31471 net.cpp:338] label_category_data_2_split -> label_category_data_2_split_0
I0603 03:40:02.543998 31471 net.cpp:338] label_category_data_2_split -> label_category_data_2_split_1
I0603 03:40:02.544009 31471 net.cpp:113] Setting up label_category_data_2_split
I0603 03:40:02.544021 31471 net.cpp:120] Top shape: 50 (50)
I0603 03:40:02.544031 31471 net.cpp:120] Top shape: 50 (50)
I0603 03:40:02.544040 31471 layer_factory.hpp:74] Creating layer label_pattern_data_3_split
I0603 03:40:02.544051 31471 net.cpp:84] Creating Layer label_pattern_data_3_split
I0603 03:40:02.544061 31471 net.cpp:380] label_pattern_data_3_split <- label_pattern
I0603 03:40:02.544073 31471 net.cpp:338] label_pattern_data_3_split -> label_pattern_data_3_split_0
I0603 03:40:02.544086 31471 net.cpp:338] label_pattern_data_3_split -> label_pattern_data_3_split_1
I0603 03:40:02.544098 31471 net.cpp:113] Setting up label_pattern_data_3_split
I0603 03:40:02.544111 31471 net.cpp:120] Top shape: 50 (50)
I0603 03:40:02.544121 31471 net.cpp:120] Top shape: 50 (50)
I0603 03:40:02.544129 31471 layer_factory.hpp:74] Creating layer label_sleeve_data_4_split
I0603 03:40:02.544142 31471 net.cpp:84] Creating Layer label_sleeve_data_4_split
I0603 03:40:02.544150 31471 net.cpp:380] label_sleeve_data_4_split <- label_sleeve
I0603 03:40:02.544162 31471 net.cpp:338] label_sleeve_data_4_split -> label_sleeve_data_4_split_0
I0603 03:40:02.544175 31471 net.cpp:338] label_sleeve_data_4_split -> label_sleeve_data_4_split_1
I0603 03:40:02.544186 31471 net.cpp:113] Setting up label_sleeve_data_4_split
I0603 03:40:02.544198 31471 net.cpp:120] Top shape: 50 (50)
I0603 03:40:02.544208 31471 net.cpp:120] Top shape: 50 (50)
I0603 03:40:02.544216 31471 layer_factory.hpp:74] Creating layer label_neck_data_5_split
I0603 03:40:02.544226 31471 net.cpp:84] Creating Layer label_neck_data_5_split
I0603 03:40:02.544236 31471 net.cpp:380] label_neck_data_5_split <- label_neck
I0603 03:40:02.544247 31471 net.cpp:338] label_neck_data_5_split -> label_neck_data_5_split_0
I0603 03:40:02.544260 31471 net.cpp:338] label_neck_data_5_split -> label_neck_data_5_split_1
I0603 03:40:02.544272 31471 net.cpp:113] Setting up label_neck_data_5_split
I0603 03:40:02.544284 31471 net.cpp:120] Top shape: 50 (50)
I0603 03:40:02.544294 31471 net.cpp:120] Top shape: 50 (50)
I0603 03:40:02.544303 31471 layer_factory.hpp:74] Creating layer conv1
I0603 03:40:02.544323 31471 net.cpp:84] Creating Layer conv1
I0603 03:40:02.544334 31471 net.cpp:380] conv1 <- data
I0603 03:40:02.544348 31471 net.cpp:338] conv1 -> conv1
I0603 03:40:02.544366 31471 net.cpp:113] Setting up conv1
I0603 03:40:02.545557 31471 net.cpp:120] Top shape: 50 96 55 55 (14520000)
I0603 03:40:02.545596 31471 layer_factory.hpp:74] Creating layer relu1
I0603 03:40:02.545611 31471 net.cpp:84] Creating Layer relu1
I0603 03:40:02.545621 31471 net.cpp:380] relu1 <- conv1
I0603 03:40:02.545634 31471 net.cpp:327] relu1 -> conv1 (in-place)
I0603 03:40:02.545645 31471 net.cpp:113] Setting up relu1
I0603 03:40:02.545658 31471 net.cpp:120] Top shape: 50 96 55 55 (14520000)
I0603 03:40:02.545668 31471 layer_factory.hpp:74] Creating layer pool1
I0603 03:40:02.545687 31471 net.cpp:84] Creating Layer pool1
I0603 03:40:02.545698 31471 net.cpp:380] pool1 <- conv1
I0603 03:40:02.545723 31471 net.cpp:338] pool1 -> pool1
I0603 03:40:02.545739 31471 net.cpp:113] Setting up pool1
I0603 03:40:02.545765 31471 net.cpp:120] Top shape: 50 96 27 27 (3499200)
I0603 03:40:02.545776 31471 layer_factory.hpp:74] Creating layer norm1
I0603 03:40:02.545792 31471 net.cpp:84] Creating Layer norm1
I0603 03:40:02.545802 31471 net.cpp:380] norm1 <- pool1
I0603 03:40:02.545815 31471 net.cpp:338] norm1 -> norm1
I0603 03:40:02.545828 31471 net.cpp:113] Setting up norm1
I0603 03:40:02.545843 31471 net.cpp:120] Top shape: 50 96 27 27 (3499200)
I0603 03:40:02.545852 31471 layer_factory.hpp:74] Creating layer conv2
I0603 03:40:02.545867 31471 net.cpp:84] Creating Layer conv2
I0603 03:40:02.545876 31471 net.cpp:380] conv2 <- norm1
I0603 03:40:02.545888 31471 net.cpp:338] conv2 -> conv2
I0603 03:40:02.545902 31471 net.cpp:113] Setting up conv2
I0603 03:40:02.555825 31471 net.cpp:120] Top shape: 50 256 27 27 (9331200)
I0603 03:40:02.555855 31471 layer_factory.hpp:74] Creating layer relu2
I0603 03:40:02.555868 31471 net.cpp:84] Creating Layer relu2
I0603 03:40:02.555878 31471 net.cpp:380] relu2 <- conv2
I0603 03:40:02.555891 31471 net.cpp:327] relu2 -> conv2 (in-place)
I0603 03:40:02.555902 31471 net.cpp:113] Setting up relu2
I0603 03:40:02.555913 31471 net.cpp:120] Top shape: 50 256 27 27 (9331200)
I0603 03:40:02.555922 31471 layer_factory.hpp:74] Creating layer pool2
I0603 03:40:02.555937 31471 net.cpp:84] Creating Layer pool2
I0603 03:40:02.555945 31471 net.cpp:380] pool2 <- conv2
I0603 03:40:02.555958 31471 net.cpp:338] pool2 -> pool2
I0603 03:40:02.555969 31471 net.cpp:113] Setting up pool2
I0603 03:40:02.555982 31471 net.cpp:120] Top shape: 50 256 13 13 (2163200)
I0603 03:40:02.555991 31471 layer_factory.hpp:74] Creating layer norm2
I0603 03:40:02.556004 31471 net.cpp:84] Creating Layer norm2
I0603 03:40:02.556013 31471 net.cpp:380] norm2 <- pool2
I0603 03:40:02.556025 31471 net.cpp:338] norm2 -> norm2
I0603 03:40:02.556036 31471 net.cpp:113] Setting up norm2
I0603 03:40:02.556048 31471 net.cpp:120] Top shape: 50 256 13 13 (2163200)
I0603 03:40:02.556057 31471 layer_factory.hpp:74] Creating layer conv3
I0603 03:40:02.556071 31471 net.cpp:84] Creating Layer conv3
I0603 03:40:02.556079 31471 net.cpp:380] conv3 <- norm2
I0603 03:40:02.556092 31471 net.cpp:338] conv3 -> conv3
I0603 03:40:02.556103 31471 net.cpp:113] Setting up conv3
I0603 03:40:02.585300 31471 net.cpp:120] Top shape: 50 384 13 13 (3244800)
I0603 03:40:02.585341 31471 layer_factory.hpp:74] Creating layer relu3
I0603 03:40:02.585360 31471 net.cpp:84] Creating Layer relu3
I0603 03:40:02.585371 31471 net.cpp:380] relu3 <- conv3
I0603 03:40:02.585383 31471 net.cpp:327] relu3 -> conv3 (in-place)
I0603 03:40:02.585396 31471 net.cpp:113] Setting up relu3
I0603 03:40:02.585407 31471 net.cpp:120] Top shape: 50 384 13 13 (3244800)
I0603 03:40:02.585417 31471 layer_factory.hpp:74] Creating layer conv4
I0603 03:40:02.585435 31471 net.cpp:84] Creating Layer conv4
I0603 03:40:02.585445 31471 net.cpp:380] conv4 <- conv3
I0603 03:40:02.585460 31471 net.cpp:338] conv4 -> conv4
I0603 03:40:02.585474 31471 net.cpp:113] Setting up conv4
I0603 03:40:02.607918 31471 net.cpp:120] Top shape: 50 384 13 13 (3244800)
I0603 03:40:02.607954 31471 layer_factory.hpp:74] Creating layer relu4
I0603 03:40:02.607970 31471 net.cpp:84] Creating Layer relu4
I0603 03:40:02.607981 31471 net.cpp:380] relu4 <- conv4
I0603 03:40:02.607998 31471 net.cpp:327] relu4 -> conv4 (in-place)
I0603 03:40:02.608011 31471 net.cpp:113] Setting up relu4
I0603 03:40:02.608023 31471 net.cpp:120] Top shape: 50 384 13 13 (3244800)
I0603 03:40:02.608032 31471 layer_factory.hpp:74] Creating layer conv5
I0603 03:40:02.608047 31471 net.cpp:84] Creating Layer conv5
I0603 03:40:02.608055 31471 net.cpp:380] conv5 <- conv4
I0603 03:40:02.608070 31471 net.cpp:338] conv5 -> conv5
I0603 03:40:02.608084 31471 net.cpp:113] Setting up conv5
I0603 03:40:02.622992 31471 net.cpp:120] Top shape: 50 256 13 13 (2163200)
I0603 03:40:02.623026 31471 layer_factory.hpp:74] Creating layer relu5
I0603 03:40:02.623070 31471 net.cpp:84] Creating Layer relu5
I0603 03:40:02.623081 31471 net.cpp:380] relu5 <- conv5
I0603 03:40:02.623096 31471 net.cpp:327] relu5 -> conv5 (in-place)
I0603 03:40:02.623108 31471 net.cpp:113] Setting up relu5
I0603 03:40:02.623121 31471 net.cpp:120] Top shape: 50 256 13 13 (2163200)
I0603 03:40:02.623129 31471 layer_factory.hpp:74] Creating layer pool5
I0603 03:40:02.623142 31471 net.cpp:84] Creating Layer pool5
I0603 03:40:02.623154 31471 net.cpp:380] pool5 <- conv5
I0603 03:40:02.623169 31471 net.cpp:338] pool5 -> pool5
I0603 03:40:02.623183 31471 net.cpp:113] Setting up pool5
I0603 03:40:02.623200 31471 net.cpp:120] Top shape: 50 256 6 6 (460800)
I0603 03:40:02.623210 31471 layer_factory.hpp:74] Creating layer fc6
I0603 03:40:02.623227 31471 net.cpp:84] Creating Layer fc6
I0603 03:40:02.623237 31471 net.cpp:380] fc6 <- pool5
I0603 03:40:02.623251 31471 net.cpp:338] fc6 -> fc6
I0603 03:40:02.623270 31471 net.cpp:113] Setting up fc6
I0603 03:40:03.848902 31471 net.cpp:120] Top shape: 50 4096 (204800)
I0603 03:40:03.848968 31471 layer_factory.hpp:74] Creating layer relu6
I0603 03:40:03.848987 31471 net.cpp:84] Creating Layer relu6
I0603 03:40:03.848999 31471 net.cpp:380] relu6 <- fc6
I0603 03:40:03.849017 31471 net.cpp:327] relu6 -> fc6 (in-place)
I0603 03:40:03.849033 31471 net.cpp:113] Setting up relu6
I0603 03:40:03.849046 31471 net.cpp:120] Top shape: 50 4096 (204800)
I0603 03:40:03.849056 31471 layer_factory.hpp:74] Creating layer drop6
I0603 03:40:03.849074 31471 net.cpp:84] Creating Layer drop6
I0603 03:40:03.849083 31471 net.cpp:380] drop6 <- fc6
I0603 03:40:03.849094 31471 net.cpp:327] drop6 -> fc6 (in-place)
I0603 03:40:03.849113 31471 net.cpp:113] Setting up drop6
I0603 03:40:03.849143 31471 net.cpp:120] Top shape: 50 4096 (204800)
I0603 03:40:03.849156 31471 layer_factory.hpp:74] Creating layer fc7
I0603 03:40:03.849174 31471 net.cpp:84] Creating Layer fc7
I0603 03:40:03.849184 31471 net.cpp:380] fc7 <- fc6
I0603 03:40:03.849198 31471 net.cpp:338] fc7 -> fc7
I0603 03:40:03.849215 31471 net.cpp:113] Setting up fc7
I0603 03:40:04.397907 31471 net.cpp:120] Top shape: 50 4096 (204800)
I0603 03:40:04.397968 31471 layer_factory.hpp:74] Creating layer relu7
I0603 03:40:04.397986 31471 net.cpp:84] Creating Layer relu7
I0603 03:40:04.397999 31471 net.cpp:380] relu7 <- fc7
I0603 03:40:04.398013 31471 net.cpp:327] relu7 -> fc7 (in-place)
I0603 03:40:04.398028 31471 net.cpp:113] Setting up relu7
I0603 03:40:04.398041 31471 net.cpp:120] Top shape: 50 4096 (204800)
I0603 03:40:04.398049 31471 layer_factory.hpp:74] Creating layer drop7
I0603 03:40:04.398063 31471 net.cpp:84] Creating Layer drop7
I0603 03:40:04.398072 31471 net.cpp:380] drop7 <- fc7
I0603 03:40:04.398087 31471 net.cpp:327] drop7 -> fc7 (in-place)
I0603 03:40:04.398098 31471 net.cpp:113] Setting up drop7
I0603 03:40:04.398111 31471 net.cpp:120] Top shape: 50 4096 (204800)
I0603 03:40:04.398129 31471 layer_factory.hpp:74] Creating layer fc7_drop7_0_split
I0603 03:40:04.398144 31471 net.cpp:84] Creating Layer fc7_drop7_0_split
I0603 03:40:04.398152 31471 net.cpp:380] fc7_drop7_0_split <- fc7
I0603 03:40:04.398167 31471 net.cpp:338] fc7_drop7_0_split -> fc7_drop7_0_split_0
I0603 03:40:04.398182 31471 net.cpp:338] fc7_drop7_0_split -> fc7_drop7_0_split_1
I0603 03:40:04.398196 31471 net.cpp:338] fc7_drop7_0_split -> fc7_drop7_0_split_2
I0603 03:40:04.398212 31471 net.cpp:338] fc7_drop7_0_split -> fc7_drop7_0_split_3
I0603 03:40:04.398224 31471 net.cpp:113] Setting up fc7_drop7_0_split
I0603 03:40:04.398238 31471 net.cpp:120] Top shape: 50 4096 (204800)
I0603 03:40:04.398248 31471 net.cpp:120] Top shape: 50 4096 (204800)
I0603 03:40:04.398262 31471 net.cpp:120] Top shape: 50 4096 (204800)
I0603 03:40:04.398272 31471 net.cpp:120] Top shape: 50 4096 (204800)
I0603 03:40:04.398282 31471 layer_factory.hpp:74] Creating layer FCend_category
I0603 03:40:04.398295 31471 net.cpp:84] Creating Layer FCend_category
I0603 03:40:04.398305 31471 net.cpp:380] FCend_category <- fc7_drop7_0_split_0
I0603 03:40:04.398319 31471 net.cpp:338] FCend_category -> FCend_category
I0603 03:40:04.398388 31471 net.cpp:113] Setting up FCend_category
I0603 03:40:04.402271 31471 net.cpp:120] Top shape: 50 28 (1400)
I0603 03:40:04.402298 31471 layer_factory.hpp:74] Creating layer loss_category
I0603 03:40:04.402322 31471 net.cpp:84] Creating Layer loss_category
I0603 03:40:04.402340 31471 net.cpp:380] loss_category <- FCend_category
I0603 03:40:04.402353 31471 net.cpp:380] loss_category <- label_category_data_2_split_0
I0603 03:40:04.402365 31471 net.cpp:338] loss_category -> loss_category
I0603 03:40:04.402386 31471 net.cpp:338] loss_category -> prob_category
I0603 03:40:04.402400 31471 net.cpp:113] Setting up loss_category
I0603 03:40:04.402420 31471 layer_factory.hpp:74] Creating layer loss_category
I0603 03:40:04.402449 31471 softmax_perclass_loss.cpp:36] loss has ignore_label: 0
I0603 03:40:04.402459 31471 softmax_perclass_loss.cpp:46] Opening file models/yq_fk13/info_category.txt
I0603 03:40:04.402597 31471 net.cpp:120] Top shape: (1)
I0603 03:40:04.402616 31471 net.cpp:122]     with loss weight 1
I0603 03:40:04.402663 31471 net.cpp:120] Top shape: 50 28 (1400)
I0603 03:40:04.402673 31471 layer_factory.hpp:74] Creating layer accuracy_category
I0603 03:40:04.402691 31471 net.cpp:84] Creating Layer accuracy_category
I0603 03:40:04.402701 31471 net.cpp:380] accuracy_category <- prob_category
I0603 03:40:04.402712 31471 net.cpp:380] accuracy_category <- label_category_data_2_split_1
I0603 03:40:04.402724 31471 net.cpp:380] accuracy_category <- label_pid_data_1_split_0
…
