…
state {
  phase: TRAIN
}
layer {
  name: "data"
  type: "ImageDataMultLabel"
  top: "data"
  top: "label_category"
  top: "label_pattern"
  top: "label_neck"
  top: "label_sleeve"
  top: "label_fit"
  top: "label_ideal_for"
  top: "label_occasion"
  include {
    phase: TRAIN
  }
  transform_param {
    mirror: true
    crop_size: 224
    mean_file: "data/ilsvrc12/imagenet_mean.binaryproto"
  }
  image_data_mult_label_param {
    source: "/mnt/images/training/flipkart_yq2set/train.txt"
    batch_size: 64
    new_height: 256
    new_width: 256
  }
}
layer {
  name: "conv1"
  type: "Convolution"
  bottom: "data"
  top: "conv1"
  param {
    lr_mult: 1
    decay_mult: 1
  }
  param {
    lr_mult: 2
    decay_mult: 0
  }
  convolution_param {
    num_output: 96
    kernel_size: 11
    stride: 4
    weight_filler {
      type: "gaussian"
      mean: 0
      std: 0.01
    }
    bias_filler {
      type: "constant"
      value: 0
    }
  }
}
layer {
  name: "relu0"
  type: "ReLU"
  bottom: "conv1"
  top: "conv1"
}
layer {
  name: "cccp1"
  type: "Convolution"
  bottom: "conv1"
  top: "cccp1"
  param {
    lr_mult: 1
    decay_mult: 1
  }
  param {
    lr_mult: 2
    decay_mult: 0
  }
  convolution_param {
    num_output: 96
    kernel_size: 1
    stride: 1
    weight_filler {
      type: "gaussian"
      mean: 0
      std: 0.05
    }
    bias_filler {
      type: "constant"
      value: 0
    }
  }
}
layer {
  name: "relu1"
  type: "ReLU"
  bottom: "cccp1"
  top: "cccp1"
}
layer {
  name: "cccp2"
  type: "Convolution"
  bottom: "cccp1"
  top: "cccp2"
  param {
    lr_mult: 1
    decay_mult: 1
  }
  param {
    lr_mult: 2
    decay_mult: 0
  }
  convolution_param {
    num_output: 96
    kernel_size: 1
    stride: 1
    weight_filler {
      type: "gaussian"
      mean: 0
      std: 0.05
    }
    bias_filler {
      type: "constant"
      value: 0
    }
  }
}
layer {
  name: "relu2"
  type: "ReLU"
  bottom: "cccp2"
  top: "cccp2"
}
layer {
  name: "pool0"
  type: "Pooling"
  bottom: "cccp2"
  top: "pool0"
  pooling_param {
    pool: MAX
    kernel_size: 3
    stride: 2
  }
}
layer {
  name: "conv2"
  type: "Convolution"
  bottom: "pool0"
  top: "conv2"
  param {
    lr_mult: 1
    decay_mult: 1
  }
  param {
    lr_mult: 2
    decay_mult: 0
  }
  convolution_param {
    num_output: 256
    pad: 2
    kernel_size: 5
    stride: 1
    weight_filler {
      type: "gaussian"
      mean: 0
      std: 0.05
    }
    bias_filler {
      type: "constant"
      value: 0
    }
  }
}
layer {
  name: "relu3"
  type: "ReLU"
  bottom: "conv2"
  top: "conv2"
}
layer {
  name: "cccp3"
  type: "Convolution"
  bottom: "conv2"
  top: "cccp3"
  param {
    lr_mult: 1
    decay_mult: 1
  }
  param {
    lr_mult: 2
    decay_mult: 0
  }
  convolution_param {
    num_output: 256
    kernel_size: 1
    stride: 1
    weight_filler {
      type: "gaussian"
      mean: 0
      std: 0.05
    }
    bias_filler {
      type: "constant"
      value: 0
    }
  }
}
layer {
  name: "relu5"
  type: "ReLU"
  bottom: "cccp3"
  top: "cccp3"
}
layer {
  name: "cccp4"
  type: "Convolution"
  bottom: "cccp3"
  top: "cccp4"
  param {
    lr_mult: 1
    decay_mult: 1
  }
  param {
    lr_mult: 2
    decay_mult: 0
  }
  convolution_param {
    num_output: 256
    kernel_size: 1
    stride: 1
    weight_filler {
      type: "gaussian"
      mean: 0
      std: 0.05
    }
    bias_filler {
      type: "constant"
      value: 0
    }
  }
}
layer {
  name: "relu6"
  type: "ReLU"
  bottom: "cccp4"
  top: "cccp4"
}
layer {
  name: "pool2"
  type: "Pooling"
  bottom: "cccp4"
  top: "pool2"
  pooling_param {
    pool: MAX
    kernel_size: 3
    stride: 2
  }
}
layer {
  name: "conv3"
  type: "Convolution"
  bottom: "pool2"
  top: "conv3"
  param {
    lr_mult: 1
    decay_mult: 1
  }
  param {
    lr_mult: 2
    decay_mult: 0
  }
  convolution_param {
    num_output: 384
    pad: 1
    kernel_size: 3
    stride: 1
    weight_filler {
      type: "gaussian"
      mean: 0
      std: 0.01
    }
    bias_filler {
      type: "constant"
      value: 0
    }
  }
}
layer {
  name: "relu7"
  type: "ReLU"
  bottom: "conv3"
  top: "conv3"
}
layer {
  name: "cccp5"
  type: "Convolution"
  bottom: "conv3"
  top: "cccp5"
  param {
    lr_mult: 1
    decay_mult: 1
  }
  param {
    lr_mult: 2
    decay_mult: 0
  }
  convolution_param {
    num_output: 384
    kernel_size: 1
    stride: 1
    weight_filler {
      type: "gaussian"
      mean: 0
      std: 0.05
    }
    bias_filler {
      type: "constant"
      value: 0
    }
  }
}
layer {
  name: "relu8"
  type: "ReLU"
  bottom: "cccp5"
  top: "cccp5"
}
layer {
  name: "cccp6"
  type: "Convolution"
  bottom: "cccp5"
  top: "cccp6"
  param {
    lr_mult: 1
    decay_mult: 1
  }
  param {
    lr_mult: 2
    decay_mult: 0
  }
  convolution_param {
    num_output: 384
    kernel_size: 1
    stride: 1
    weight_filler {
      type: "gaussian"
      mean: 0
      std: 0.05
    }
    bias_filler {
      type: "constant"
      value: 0
    }
  }
}
layer {
  name: "relu9"
  type: "ReLU"
  bottom: "cccp6"
  top: "cccp6"
}
layer {
  name: "pool3"
  type: "Pooling"
  bottom: "cccp6"
  top: "pool3"
  pooling_param {
    pool: MAX
    kernel_size: 3
    stride: 2
  }
}
layer {
  name: "fc5_category"
  type: "InnerProduct"
  bottom: "pool3"
  top: "fc5_category"
  param {
    lr_mult: 10
    decay_mult: 1
  }
  param {
    lr_mult: 20
    decay_mult: 0
  }
  inner_product_param {
    num_output: 26
    weight_filler {
      type: "gaussian"
      std: 0.01
    }
    bias_filler {
      type: "constant"
      value: 0
    }
  }
}
layer {
  name: "loss_category"
  type: "SoftmaxWithLoss"
  bottom: "fc5_category"
  bottom: "label_category"
}
layer {
  name: "fc5_pattern"
  type: "InnerProduct"
  bottom: "pool3"
  top: "fc5_pattern"
  param {
    lr_mult: 10
    decay_mult: 1
  }
  param {
    lr_mult: 20
    decay_mult: 0
  }
  inner_product_param {
    num_output: 20
    weight_filler {
      type: "gaussian"
      std: 0.01
    }
    bias_filler {
      type: "constant"
      value: 0
    }
  }
}
layer {
  name: "loss_pattern"
  type: "SoftmaxWithLoss"
  bottom: "fc5_pattern"
  bottom: "label_pattern"
  loss_param {
    ignore_label: 0
  }
}
layer {
  name: "fc5_neck"
  type: "InnerProduct"
  bottom: "pool3"
  top: "fc5_neck"
  param {
    lr_mult: 10
    decay_mult: 1
  }
  param {
    lr_mult: 20
    decay_mult: 0
  }
  inner_product_param {
    num_output: 23
    weight_filler {
      type: "gaussian"
      std: 0.01
    }
    bias_filler {
      type: "constant"
      value: 0
    }
  }
}
layer {
  name: "loss_neck"
  type: "SoftmaxWithLoss"
  bottom: "fc5_neck"
  bottom: "label_neck"
  loss_param {
    ignore_label: 0
  }
}
layer {
  name: "fc5_sleeve"
  type: "InnerProduct"
  bottom: "pool3"
  top: "fc5_sleeve"
  param {
    lr_mult: 10
    decay_mult: 1
  }
  param {
    lr_mult: 20
    decay_mult: 0
  }
  inner_product_param {
    num_output: 9
    weight_filler {
      type: "gaussian"
      std: 0.01
    }
    bias_filler {
      type: "constant"
      value: 0
    }
  }
}
layer {
  name: "loss_sleeve"
  type: "SoftmaxWithLoss"
  bottom: "fc5_sleeve"
  bottom: "label_sleeve"
  loss_param {
    ignore_label: 0
  }
}
layer {
  name: "fc5_fit"
  type: "InnerProduct"
  bottom: "pool3"
  top: "fc5_fit"
  param {
    lr_mult: 10
    decay_mult: 1
  }
  param {
    lr_mult: 20
    decay_mult: 0
  }
  inner_product_param {
    num_output: 26
    weight_filler {
      type: "gaussian"
      std: 0.01
    }
    bias_filler {
      type: "constant"
      value: 0
    }
  }
}
layer {
  name: "loss_fit"
  type: "SoftmaxWithLoss"
  bottom: "fc5_fit"
  bottom: "label_fit"
  loss_param {
    ignore_label: 0
  }
}
layer {
  name: "fc5_ideal_for"
  type: "InnerProduct"
  bottom: "pool3"
  top: "fc5_ideal_for"
  param {
    lr_mult: 10
    decay_mult: 1
  }
  param {
    lr_mult: 20
    decay_mult: 0
  }
  inner_product_param {
    num_output: 7
    weight_filler {
      type: "gaussian"
      std: 0.01
    }
    bias_filler {
      type: "constant"
      value: 0
    }
  }
}
layer {
  name: "loss_ideal_for"
  type: "SoftmaxWithLoss"
  bottom: "fc5_ideal_for"
  bottom: "label_ideal_for"
  loss_param {
    ignore_label: 0
  }
}
layer {
  name: "fc5_occasion"
  type: "InnerProduct"
  bottom: "pool3"
  top: "fc5_occasion"
  param {
    lr_mult: 10
    decay_mult: 1
  }
  param {
    lr_mult: 20
    decay_mult: 0
  }
  inner_product_param {
    num_output: 38
    weight_filler {
      type: "gaussian"
      std: 0.01
    }
    bias_filler {
      type: "constant"
      value: 0
    }
  }
}
layer {
  name: "loss_occasion"
  type: "SoftmaxWithLoss"
  bottom: "fc5_occasion"
  bottom: "label_occasion"
  loss_param {
    ignore_label: 0
  }
}
I0503 09:03:45.715631 18296 layer_factory.hpp:74] Creating layer data
I0503 09:03:45.715683 18296 net.cpp:84] Creating Layer data
I0503 09:03:45.715716 18296 net.cpp:338] data -> data
I0503 09:03:45.715775 18296 net.cpp:338] data -> label_category
I0503 09:03:45.715808 18296 net.cpp:338] data -> label_pattern
I0503 09:03:45.715836 18296 net.cpp:338] data -> label_neck
…
I0503 09:03:45.995236 18296 image_data_multclass_layer.cpp:75] ##############################################
I0503 09:03:45.995246 18296 image_data_multclass_layer.cpp:76] ##############################################
I0503 09:03:45.995256 18296 image_data_multclass_layer.cpp:77] size of top: 8
I0503 09:03:46.002148 18296 image_data_multclass_layer.cpp:95] output data size: 64,3,224,224
I0503 09:03:46.002182 18296 image_data_multclass_layer.cpp:99] number of labels: 7
I0503 09:03:46.002233 18296 data_transformer.cpp:22] Loading mean file from: data/ilsvrc12/imagenet_mean.binaryproto
I0503 09:03:46.015049 18296 net.cpp:120] Top shape: 64 3 224 224 (9633792)
I0503 09:03:46.015101 18296 net.cpp:120] Top shape: 64 (64)
I0503 09:03:46.015115 18296 net.cpp:120] Top shape: 64 (64)
I0503 09:03:46.015128 18296 net.cpp:120] Top shape: 64 (64)
I0503 09:03:46.015139 18296 net.cpp:120] Top shape: 64 (64)
I0503 09:03:46.015151 18296 net.cpp:120] Top shape: 64 (64)
I0503 09:03:46.015163 18296 net.cpp:120] Top shape: 64 (64)
I0503 09:03:46.015177 18296 net.cpp:120] Top shape: 64 (64)
I0503 09:03:46.015195 18296 layer_factory.hpp:74] Creating layer conv1
I0503 09:03:46.015233 18296 net.cpp:84] Creating Layer conv1
I0503 09:03:46.015256 18296 net.cpp:380] conv1 <- data
I0503 09:03:46.015283 18296 net.cpp:338] conv1 -> conv1
I0503 09:03:46.015317 18296 net.cpp:113] Setting up conv1
I0503 09:03:46.016695 18296 net.cpp:120] Top shape: 64 96 54 54 (17915904)
I0503 09:03:46.016736 18296 layer_factory.hpp:74] Creating layer relu0
I0503 09:03:46.016762 18296 net.cpp:84] Creating Layer relu0
I0503 09:03:46.016774 18296 net.cpp:380] relu0 <- conv1
I0503 09:03:46.016789 18296 net.cpp:327] relu0 -> conv1 (in-place)
I0503 09:03:46.016804 18296 net.cpp:113] Setting up relu0
I0503 09:03:46.016821 18296 net.cpp:120] Top shape: 64 96 54 54 (17915904)
I0503 09:03:46.016842 18296 layer_factory.hpp:74] Creating layer cccp1
I0503 09:03:46.016860 18296 net.cpp:84] Creating Layer cccp1
I0503 09:03:46.016871 18296 net.cpp:380] cccp1 <- conv1
I0503 09:03:46.016888 18296 net.cpp:338] cccp1 -> cccp1
I0503 09:03:46.016906 18296 net.cpp:113] Setting up cccp1
I0503 09:03:46.017280 18296 net.cpp:120] Top shape: 64 96 54 54 (17915904)
I0503 09:03:46.017310 18296 layer_factory.hpp:74] Creating layer relu1
I0503 09:03:46.017326 18296 net.cpp:84] Creating Layer relu1
I0503 09:03:46.017344 18296 net.cpp:380] relu1 <- cccp1
I0503 09:03:46.017367 18296 net.cpp:327] relu1 -> cccp1 (in-place)
I0503 09:03:46.017382 18296 net.cpp:113] Setting up relu1
I0503 09:03:46.017396 18296 net.cpp:120] Top shape: 64 96 54 54 (17915904)
I0503 09:03:46.017407 18296 layer_factory.hpp:74] Creating layer cccp2
I0503 09:03:46.017422 18296 net.cpp:84] Creating Layer cccp2
I0503 09:03:46.017433 18296 net.cpp:380] cccp2 <- cccp1
I0503 09:03:46.017448 18296 net.cpp:338] cccp2 -> cccp2
I0503 09:03:46.017464 18296 net.cpp:113] Setting up cccp2
I0503 09:03:46.017835 18296 net.cpp:120] Top shape: 64 96 54 54 (17915904)
I0503 09:03:46.017863 18296 layer_factory.hpp:74] Creating layer relu2
I0503 09:03:46.017879 18296 net.cpp:84] Creating Layer relu2
I0503 09:03:46.017890 18296 net.cpp:380] relu2 <- cccp2
I0503 09:03:46.017905 18296 net.cpp:327] relu2 -> cccp2 (in-place)
I0503 09:03:46.017920 18296 net.cpp:113] Setting up relu2
I0503 09:03:46.017932 18296 net.cpp:120] Top shape: 64 96 54 54 (17915904)
I0503 09:03:46.017943 18296 layer_factory.hpp:74] Creating layer pool0
I0503 09:03:46.017961 18296 net.cpp:84] Creating Layer pool0
I0503 09:03:46.017982 18296 net.cpp:380] pool0 <- cccp2
I0503 09:03:46.017999 18296 net.cpp:338] pool0 -> pool0
I0503 09:03:46.018018 18296 net.cpp:113] Setting up pool0
I0503 09:03:46.018049 18296 net.cpp:120] Top shape: 64 96 27 27 (4478976)
I0503 09:03:46.018070 18296 layer_factory.hpp:74] Creating layer conv2
I0503 09:03:46.018090 18296 net.cpp:84] Creating Layer conv2
I0503 09:03:46.018100 18296 net.cpp:380] conv2 <- pool0
I0503 09:03:46.018117 18296 net.cpp:338] conv2 -> conv2
I0503 09:03:46.018134 18296 net.cpp:113] Setting up conv2
I0503 09:03:46.041301 18296 net.cpp:120] Top shape: 64 256 27 27 (11943936)
I0503 09:03:46.041352 18296 layer_factory.hpp:74] Creating layer relu3
I0503 09:03:46.041373 18296 net.cpp:84] Creating Layer relu3
I0503 09:03:46.041386 18296 net.cpp:380] relu3 <- conv2
I0503 09:03:46.041402 18296 net.cpp:327] relu3 -> conv2 (in-place)
I0503 09:03:46.041463 18296 net.cpp:113] Setting up relu3
I0503 09:03:46.041481 18296 net.cpp:120] Top shape: 64 256 27 27 (11943936)
I0503 09:03:46.041491 18296 layer_factory.hpp:74] Creating layer cccp3
I0503 09:03:46.041512 18296 net.cpp:84] Creating Layer cccp3
I0503 09:03:46.041522 18296 net.cpp:380] cccp3 <- conv2
I0503 09:03:46.041539 18296 net.cpp:338] cccp3 -> cccp3
I0503 09:03:46.041566 18296 net.cpp:113] Setting up cccp3
I0503 09:03:46.044143 18296 net.cpp:120] Top shape: 64 256 27 27 (11943936)
I0503 09:03:46.044178 18296 layer_factory.hpp:74] Creating layer relu5
I0503 09:03:46.044195 18296 net.cpp:84] Creating Layer relu5
I0503 09:03:46.044206 18296 net.cpp:380] relu5 <- cccp3
I0503 09:03:46.044220 18296 net.cpp:327] relu5 -> cccp3 (in-place)
I0503 09:03:46.044234 18296 net.cpp:113] Setting up relu5
I0503 09:03:46.044251 18296 net.cpp:120] Top shape: 64 256 27 27 (11943936)
I0503 09:03:46.044271 18296 layer_factory.hpp:74] Creating layer cccp4
I0503 09:03:46.044289 18296 net.cpp:84] Creating Layer cccp4
I0503 09:03:46.044301 18296 net.cpp:380] cccp4 <- cccp3
I0503 09:03:46.044317 18296 net.cpp:338] cccp4 -> cccp4
I0503 09:03:46.044334 18296 net.cpp:113] Setting up cccp4
I0503 09:03:46.046911 18296 net.cpp:120] Top shape: 64 256 27 27 (11943936)
I0503 09:03:46.046941 18296 layer_factory.hpp:74] Creating layer relu6
I0503 09:03:46.046957 18296 net.cpp:84] Creating Layer relu6
I0503 09:03:46.046969 18296 net.cpp:380] relu6 <- cccp4
I0503 09:03:46.046983 18296 net.cpp:327] relu6 -> cccp4 (in-place)
I0503 09:03:46.046996 18296 net.cpp:113] Setting up relu6
I0503 09:03:46.047009 18296 net.cpp:120] Top shape: 64 256 27 27 (11943936)
I0503 09:03:46.047020 18296 layer_factory.hpp:74] Creating layer pool2
I0503 09:03:46.047035 18296 net.cpp:84] Creating Layer pool2
I0503 09:03:46.047046 18296 net.cpp:380] pool2 <- cccp4
I0503 09:03:46.047061 18296 net.cpp:338] pool2 -> pool2
I0503 09:03:46.047077 18296 net.cpp:113] Setting up pool2
I0503 09:03:46.047104 18296 net.cpp:120] Top shape: 64 256 13 13 (2768896)
I0503 09:03:46.047116 18296 layer_factory.hpp:74] Creating layer conv3
I0503 09:03:46.047133 18296 net.cpp:84] Creating Layer conv3
I0503 09:03:46.047145 18296 net.cpp:380] conv3 <- pool2
I0503 09:03:46.047161 18296 net.cpp:338] conv3 -> conv3
I0503 09:03:46.047180 18296 net.cpp:113] Setting up conv3
I0503 09:03:46.081168 18296 net.cpp:120] Top shape: 64 384 13 13 (4153344)
I0503 09:03:46.081209 18296 layer_factory.hpp:74] Creating layer relu7
I0503 09:03:46.081233 18296 net.cpp:84] Creating Layer relu7
I0503 09:03:46.081248 18296 net.cpp:380] relu7 <- conv3
I0503 09:03:46.081267 18296 net.cpp:327] relu7 -> conv3 (in-place)
I0503 09:03:46.081282 18296 net.cpp:113] Setting up relu7
I0503 09:03:46.081296 18296 net.cpp:120] Top shape: 64 384 13 13 (4153344)
I0503 09:03:46.081307 18296 layer_factory.hpp:74] Creating layer cccp5
I0503 09:03:46.081325 18296 net.cpp:84] Creating Layer cccp5
I0503 09:03:46.081344 18296 net.cpp:380] cccp5 <- conv3
I0503 09:03:46.081363 18296 net.cpp:338] cccp5 -> cccp5
I0503 09:03:46.081380 18296 net.cpp:113] Setting up cccp5
I0503 09:03:46.087082 18296 net.cpp:120] Top shape: 64 384 13 13 (4153344)
I0503 09:03:46.087112 18296 layer_factory.hpp:74] Creating layer relu8
I0503 09:03:46.087129 18296 net.cpp:84] Creating Layer relu8
I0503 09:03:46.087141 18296 net.cpp:380] relu8 <- cccp5
I0503 09:03:46.087155 18296 net.cpp:327] relu8 -> cccp5 (in-place)
I0503 09:03:46.087168 18296 net.cpp:113] Setting up relu8
I0503 09:03:46.087182 18296 net.cpp:120] Top shape: 64 384 13 13 (4153344)
I0503 09:03:46.087193 18296 layer_factory.hpp:74] Creating layer cccp6
I0503 09:03:46.087208 18296 net.cpp:84] Creating Layer cccp6
I0503 09:03:46.087219 18296 net.cpp:380] cccp6 <- cccp5
I0503 09:03:46.087234 18296 net.cpp:338] cccp6 -> cccp6
I0503 09:03:46.087250 18296 net.cpp:113] Setting up cccp6
I0503 09:03:46.092946 18296 net.cpp:120] Top shape: 64 384 13 13 (4153344)
I0503 09:03:46.092982 18296 layer_factory.hpp:74] Creating layer relu9
I0503 09:03:46.092998 18296 net.cpp:84] Creating Layer relu9
I0503 09:03:46.093049 18296 net.cpp:380] relu9 <- cccp6
I0503 09:03:46.093065 18296 net.cpp:327] relu9 -> cccp6 (in-place)
I0503 09:03:46.093080 18296 net.cpp:113] Setting up relu9
I0503 09:03:46.093093 18296 net.cpp:120] Top shape: 64 384 13 13 (4153344)
I0503 09:03:46.093104 18296 layer_factory.hpp:74] Creating layer pool3
I0503 09:03:46.093124 18296 net.cpp:84] Creating Layer pool3
I0503 09:03:46.093137 18296 net.cpp:380] pool3 <- cccp6
I0503 09:03:46.093152 18296 net.cpp:338] pool3 -> pool3
I0503 09:03:46.093168 18296 net.cpp:113] Setting up pool3
I0503 09:03:46.093196 18296 net.cpp:120] Top shape: 64 384 6 6 (884736)
I0503 09:03:46.093209 18296 layer_factory.hpp:74] Creating layer pool3_pool3_0_split
I0503 09:03:46.093232 18296 net.cpp:84] Creating Layer pool3_pool3_0_split
I0503 09:03:46.093245 18296 net.cpp:380] pool3_pool3_0_split <- pool3
I0503 09:03:46.093261 18296 net.cpp:338] pool3_pool3_0_split -> pool3_pool3_0_split_0
I0503 09:03:46.093278 18296 net.cpp:338] pool3_pool3_0_split -> pool3_pool3_0_split_1
I0503 09:03:46.093307 18296 net.cpp:338] pool3_pool3_0_split -> pool3_pool3_0_split_2
I0503 09:03:46.093327 18296 net.cpp:338] pool3_pool3_0_split -> pool3_pool3_0_split_3
I0503 09:03:46.093343 18296 net.cpp:338] pool3_pool3_0_split -> pool3_pool3_0_split_4
I0503 09:03:46.093359 18296 net.cpp:338] pool3_pool3_0_split -> pool3_pool3_0_split_5
I0503 09:03:46.093376 18296 net.cpp:338] pool3_pool3_0_split -> pool3_pool3_0_split_6
I0503 09:03:46.093390 18296 net.cpp:113] Setting up pool3_pool3_0_split
I0503 09:03:46.093415 18296 net.cpp:120] Top shape: 64 384 6 6 (884736)
I0503 09:03:46.093437 18296 net.cpp:120] Top shape: 64 384 6 6 (884736)
I0503 09:03:46.093449 18296 net.cpp:120] Top shape: 64 384 6 6 (884736)
I0503 09:03:46.093462 18296 net.cpp:120] Top shape: 64 384 6 6 (884736)
I0503 09:03:46.093474 18296 net.cpp:120] Top shape: 64 384 6 6 (884736)
I0503 09:03:46.093485 18296 net.cpp:120] Top shape: 64 384 6 6 (884736)
I0503 09:03:46.093497 18296 net.cpp:120] Top shape: 64 384 6 6 (884736)
I0503 09:03:46.093509 18296 layer_factory.hpp:74] Creating layer fc5_category
I0503 09:03:46.093528 18296 net.cpp:84] Creating Layer fc5_category
I0503 09:03:46.093539 18296 net.cpp:380] fc5_category <- pool3_pool3_0_split_0
I0503 09:03:46.093557 18296 net.cpp:338] fc5_category -> fc5_category
I0503 09:03:46.093580 18296 net.cpp:113] Setting up fc5_category
I0503 09:03:46.107463 18296 net.cpp:120] Top shape: 64 26 (1664)
I0503 09:03:46.107496 18296 layer_factory.hpp:74] Creating layer loss_category
I0503 09:03:46.107516 18296 net.cpp:84] Creating Layer loss_category
I0503 09:03:46.107527 18296 net.cpp:380] loss_category <- fc5_category
I0503 09:03:46.107540 18296 net.cpp:380] loss_category <- label_category
I0503 09:03:46.107558 18296 net.cpp:338] loss_category -> (automatic)
I0503 09:03:46.107573 18296 net.cpp:113] Setting up loss_category
I0503 09:03:46.107594 18296 layer_factory.hpp:74] Creating layer loss_category
I0503 09:03:46.107658 18296 net.cpp:120] Top shape: (1)
I0503 09:03:46.107681 18296 net.cpp:122]     with loss weight 1
I0503 09:03:46.107727 18296 layer_factory.hpp:74] Creating layer fc5_pattern
I0503 09:03:46.107746 18296 net.cpp:84] Creating Layer fc5_pattern
I0503 09:03:46.107758 18296 net.cpp:380] fc5_pattern <- pool3_pool3_0_split_1
I0503 09:03:46.107775 18296 net.cpp:338] fc5_pattern -> fc5_pattern
I0503 09:03:46.107800 18296 net.cpp:113] Setting up fc5_pattern
I0503 09:03:46.118434 18296 net.cpp:120] Top shape: 64 20 (1280)
I0503 09:03:46.118468 18296 layer_factory.hpp:74] Creating layer loss_pattern
I0503 09:03:46.118485 18296 net.cpp:84] Creating Layer loss_pattern
I0503 09:03:46.118496 18296 net.cpp:380] loss_pattern <- fc5_pattern
I0503 09:03:46.118510 18296 net.cpp:380] loss_pattern <- label_pattern
I0503 09:03:46.118536 18296 net.cpp:338] loss_pattern -> (automatic)
I0503 09:03:46.118578 18296 net.cpp:113] Setting up loss_pattern
I0503 09:03:46.118605 18296 layer_factory.hpp:74] Creating layer loss_pattern
I0503 09:03:46.118643 18296 softmax_loss_layer.cpp:29] loss has ignore_label: 0
I0503 09:03:46.118693 18296 net.cpp:120] Top shape: (1)
I0503 09:03:46.118706 18296 net.cpp:122]     with loss weight 1
I0503 09:03:46.118723 18296 layer_factory.hpp:74] Creating layer fc5_neck
I0503 09:03:46.118741 18296 net.cpp:84] Creating Layer fc5_neck
I0503 09:03:46.118762 18296 net.cpp:380] fc5_neck <- pool3_pool3_0_split_2
I0503 09:03:46.118780 18296 net.cpp:338] fc5_neck -> fc5_neck
I0503 09:03:46.118798 18296 net.cpp:113] Setting up fc5_neck
I0503 09:03:46.131045 18296 net.cpp:120] Top shape: 64 23 (1472)
I0503 09:03:46.131077 18296 layer_factory.hpp:74] Creating layer loss_neck
I0503 09:03:46.131093 18296 net.cpp:84] Creating Layer loss_neck
I0503 09:03:46.131105 18296 net.cpp:380] loss_neck <- fc5_neck
I0503 09:03:46.131119 18296 net.cpp:380] loss_neck <- label_neck
I0503 09:03:46.131134 18296 net.cpp:338] loss_neck -> (automatic)
I0503 09:03:46.131157 18296 net.cpp:113] Setting up loss_neck
I0503 09:03:46.131181 18296 layer_factory.hpp:74] Creating layer loss_neck
I0503 09:03:46.131208 18296 softmax_loss_layer.cpp:29] loss has ignore_label: 0
I0503 09:03:46.131227 18296 net.cpp:120] Top shape: (1)
I0503 09:03:46.131247 18296 net.cpp:122]     with loss weight 1
I0503 09:03:46.131264 18296 layer_factory.hpp:74] Creating layer fc5_sleeve
I0503 09:03:46.131281 18296 net.cpp:84] Creating Layer fc5_sleeve
I0503 09:03:46.131294 18296 net.cpp:380] fc5_sleeve <- pool3_pool3_0_split_3
I0503 09:03:46.131309 18296 net.cpp:338] fc5_sleeve -> fc5_sleeve
I0503 09:03:46.131325 18296 net.cpp:113] Setting up fc5_sleeve
I0503 09:03:46.136171 18296 net.cpp:120] Top shape: 64 9 (576)
I0503 09:03:46.136204 18296 layer_factory.hpp:74] Creating layer loss_sleeve
I0503 09:03:46.136224 18296 net.cpp:84] Creating Layer loss_sleeve
I0503 09:03:46.136237 18296 net.cpp:380] loss_sleeve <- fc5_sleeve
I0503 09:03:46.136250 18296 net.cpp:380] loss_sleeve <- label_sleeve
I0503 09:03:46.136265 18296 net.cpp:338] loss_sleeve -> (automatic)
I0503 09:03:46.136279 18296 net.cpp:113] Setting up loss_sleeve
I0503 09:03:46.136293 18296 layer_factory.hpp:74] Creating layer loss_sleeve
I0503 09:03:46.136327 18296 softmax_loss_layer.cpp:29] loss has ignore_label: 0
I0503 09:03:46.136346 18296 net.cpp:120] Top shape: (1)
I0503 09:03:46.136358 18296 net.cpp:122]     with loss weight 1
I0503 09:03:46.136374 18296 layer_factory.hpp:74] Creating layer fc5_fit
I0503 09:03:46.136391 18296 net.cpp:84] Creating Layer fc5_fit
I0503 09:03:46.136412 18296 net.cpp:380] fc5_fit <- pool3_pool3_0_split_4
I0503 09:03:46.136435 18296 net.cpp:338] fc5_fit -> fc5_fit
I0503 09:03:46.136454 18296 net.cpp:113] Setting up fc5_fit
I0503 09:03:46.150257 18296 net.cpp:120] Top shape: 64 26 (1664)
I0503 09:03:46.150288 18296 layer_factory.hpp:74] Creating layer loss_fit
I0503 09:03:46.150315 18296 net.cpp:84] Creating Layer loss_fit
I0503 09:03:46.150328 18296 net.cpp:380] loss_fit <- fc5_fit
I0503 09:03:46.150341 18296 net.cpp:380] loss_fit <- label_fit
I0503 09:03:46.150358 18296 net.cpp:338] loss_fit -> (automatic)
I0503 09:03:46.150380 18296 net.cpp:113] Setting up loss_fit
I0503 09:03:46.150395 18296 layer_factory.hpp:74] Creating layer loss_fit
I0503 09:03:46.150424 18296 softmax_loss_layer.cpp:29] loss has ignore_label: 0
I0503 09:03:46.150457 18296 net.cpp:120] Top shape: (1)
I0503 09:03:46.150470 18296 net.cpp:122]     with loss weight 1
I0503 09:03:46.150488 18296 layer_factory.hpp:74] Creating layer fc5_ideal_for
I0503 09:03:46.150506 18296 net.cpp:84] Creating Layer fc5_ideal_for
I0503 09:03:46.150518 18296 net.cpp:380] fc5_ideal_for <- pool3_pool3_0_split_5
I0503 09:03:46.150537 18296 net.cpp:338] fc5_ideal_for -> fc5_ideal_for
I0503 09:03:46.150554 18296 net.cpp:113] Setting up fc5_ideal_for
I0503 09:03:46.154304 18296 net.cpp:120] Top shape: 64 7 (448)
I0503 09:03:46.154335 18296 layer_factory.hpp:74] Creating layer loss_ideal_for
I0503 09:03:46.154356 18296 net.cpp:84] Creating Layer loss_ideal_for
I0503 09:03:46.154369 18296 net.cpp:380] loss_ideal_for <- fc5_ideal_for
I0503 09:03:46.154383 18296 net.cpp:380] loss_ideal_for <- label_ideal_for
I0503 09:03:46.154427 18296 net.cpp:338] loss_ideal_for -> (automatic)
I0503 09:03:46.154443 18296 net.cpp:113] Setting up loss_ideal_for
I0503 09:03:46.154461 18296 layer_factory.hpp:74] Creating layer loss_ideal_for
I0503 09:03:46.154484 18296 softmax_loss_layer.cpp:29] loss has ignore_label: 0
I0503 09:03:46.154503 18296 net.cpp:120] Top shape: (1)
I0503 09:03:46.154525 18296 net.cpp:122]     with loss weight 1
I0503 09:03:46.154543 18296 layer_factory.hpp:74] Creating layer fc5_occasion
I0503 09:03:46.154563 18296 net.cpp:84] Creating Layer fc5_occasion
I0503 09:03:46.154575 18296 net.cpp:380] fc5_occasion <- pool3_pool3_0_split_6
I0503 09:03:46.154597 18296 net.cpp:338] fc5_occasion -> fc5_occasion
I0503 09:03:46.154624 18296 net.cpp:113] Setting up fc5_occasion
I0503 09:03:46.174446 18296 net.cpp:120] Top shape: 64 38 (2432)
I0503 09:03:46.174479 18296 layer_factory.hpp:74] Creating layer loss_occasion
I0503 09:03:46.174496 18296 net.cpp:84] Creating Layer loss_occasion
I0503 09:03:46.174510 18296 net.cpp:380] loss_occasion <- fc5_occasion
I0503 09:03:46.174522 18296 net.cpp:380] loss_occasion <- label_occasion
I0503 09:03:46.174540 18296 net.cpp:338] loss_occasion -> (automatic)
I0503 09:03:46.174554 18296 net.cpp:113] Setting up loss_occasion
…
name: "nin_imagenet"
state {
  phase: TEST
}
layer {
  name: "data"
  type: "ImageDataMultLabel"
  top: "data"
  top: "label_category"
  top: "label_pattern"
  top: "label_neck"
  top: "label_sleeve"
  top: "label_fit"
  top: "label_ideal_for"
  top: "label_occasion"
  include {
    phase: TEST
  }
  transform_param {
    mirror: false
    crop_size: 224
    mean_file: "data/ilsvrc12/imagenet_mean.binaryproto"
  }
  image_data_mult_label_param {
    source: "/mnt/images/training/flipkart_yq2set/test.txt"
    batch_size: 64
    new_height: 256
    new_width: 256
  }
}
layer {
  name: "conv1"
  type: "Convolution"
  bottom: "data"
  top: "conv1"
  param {
    lr_mult: 1
    decay_mult: 1
  }
  param {
    lr_mult: 2
    decay_mult: 0
  }
  convolution_param {
    num_output: 96
    kernel_size: 11
    stride: 4
    weight_filler {
      type: "gaussian"
      mean: 0
      std: 0.01
    }
    bias_filler {
      type: "constant"
      value: 0
    }
  }
}
layer {
  name: "relu0"
  type: "ReLU"
  bottom: "conv1"
  top: "conv1"
}
layer {
  name: "cccp1"
  type: "Convolution"
  bottom: "conv1"
  top: "cccp1"
  param {
    lr_mult: 1
    decay_mult: 1
  }
  param {
    lr_mult: 2
    decay_mult: 0
  }
  convolution_param {
    num_output: 96
    kernel_size: 1
    stride: 1
    weight_filler {
      type: "gaussian"
      mean: 0
      std: 0.05
    }
    bias_filler {
      type: "constant"
      value: 0
    }
  }
}
layer {
  name: "relu1"
  type: "ReLU"
  bottom: "cccp1"
  top: "cccp1"
}
layer {
  name: "cccp2"
  type: "Convolution"
  bottom: "cccp1"
  top: "cccp2"
  param {
    lr_mult: 1
    decay_mult: 1
  }
  param {
    lr_mult: 2
    decay_mult: 0
  }
  convolution_param {
    num_output: 96
    kernel_size: 1
    stride: 1
    weight_filler {
      type: "gaussian"
      mean: 0
      std: 0.05
    }
    bias_filler {
      type: "constant"
      value: 0
    }
  }
}
layer {
  name: "relu2"
  type: "ReLU"
  bottom: "cccp2"
  top: "cccp2"
}
layer {
  name: "pool0"
  type: "Pooling"
  bottom: "cccp2"
  top: "pool0"
  pooling_param {
    pool: MAX
    kernel_size: 3
    stride: 2
  }
}
layer {
  name: "conv2"
  type: "Convolution"
  bottom: "pool0"
  top: "conv2"
  param {
    lr_mult: 1
    decay_mult: 1
  }
  param {
    lr_mult: 2
    decay_mult: 0
  }
  convolution_param {
    num_output: 256
    pad: 2
    kernel_size: 5
    stride: 1
    weight_filler {
      type: "gaussian"
      mean: 0
      std: 0.05
    }
    bias_filler {
      type: "constant"
      value: 0
    }
  }
}
layer {
  name: "relu3"
  type: "ReLU"
  bottom: "conv2"
  top: "conv2"
}
layer {
  name: "cccp3"
  type: "Convolution"
  bottom: "conv2"
  top: "cccp3"
  param {
    lr_mult: 1
    decay_mult: 1
  }
  param {
    lr_mult: 2
    decay_mult: 0
  }
  convolution_param {
    num_output: 256
    kernel_size: 1
    stride: 1
    weight_filler {
      type: "gaussian"
      mean: 0
      std: 0.05
    }
    bias_filler {
      type: "constant"
      value: 0
    }
  }
}
layer {
  name: "relu5"
  type: "ReLU"
  bottom: "cccp3"
  top: "cccp3"
}
layer {
  name: "cccp4"
  type: "Convolution"
  bottom: "cccp3"
  top: "cccp4"
  param {
    lr_mult: 1
    decay_mult: 1
  }
  param {
    lr_mult: 2
    decay_mult: 0
  }
  convolution_param {
    num_output: 256
    kernel_size: 1
    stride: 1
    weight_filler {
      type: "gaussian"
      mean: 0
      std: 0.05
    }
    bias_filler {
      type: "constant"
      value: 0
    }
  }
}
layer {
  name: "relu6"
  type: "ReLU"
  bottom: "cccp4"
  top: "cccp4"
}
layer {
  name: "pool2"
  type: "Pooling"
  bottom: "cccp4"
  top: "pool2"
  pooling_param {
    pool: MAX
    kernel_size: 3
    stride: 2
  }
}
layer {
  name: "conv3"
  type: "Convolution"
  bottom: "pool2"
  top: "conv3"
  param {
    lr_mult: 1
    decay_mult: 1
  }
  param {
    lr_mult: 2
    decay_mult: 0
  }
  convolution_param {
    num_output: 384
    pad: 1
    kernel_size: 3
    stride: 1
    weight_filler {
      type: "gaussian"
      mean: 0
      std: 0.01
    }
    bias_filler {
      type: "constant"
      value: 0
    }
  }
}
layer {
  name: "relu7"
  type: "ReLU"
  bottom: "conv3"
  top: "conv3"
}
layer {
  name: "cccp5"
  type: "Convolution"
  bottom: "conv3"
  top: "cccp5"
  param {
    lr_mult: 1
    decay_mult: 1
  }
  param {
    lr_mult: 2
    decay_mult: 0
  }
  convolution_param {
    num_output: 384
    kernel_size: 1
    stride: 1
    weight_filler {
      type: "gaussian"
      mean: 0
      std: 0.05
    }
    bias_filler {
      type: "constant"
      value: 0
    }
  }
}
layer {
  name: "relu8"
  type: "ReLU"
  bottom: "cccp5"
  top: "cccp5"
}
layer {
  name: "cccp6"
  type: "Convolution"
  bottom: "cccp5"
  top: "cccp6"
  param {
    lr_mult: 1
    decay_mult: 1
  }
  param {
    lr_mult: 2
    decay_mult: 0
  }
  convolution_param {
    num_output: 384
    kernel_size: 1
    stride: 1
    weight_filler {
      type: "gaussian"
      mean: 0
      std: 0.05
    }
    bias_filler {
      type: "constant"
      value: 0
    }
  }
}
layer {
  name: "relu9"
  type: "ReLU"
  bottom: "cccp6"
  top: "cccp6"
}
layer {
  name: "pool3"
  type: "Pooling"
  bottom: "cccp6"
  top: "pool3"
  pooling_param {
    pool: MAX
    kernel_size: 3
    stride: 2
  }
}
layer {
  name: "fc5_category"
  type: "InnerProduct"
  bottom: "pool3"
  top: "fc5_category"
  param {
    lr_mult: 10
    decay_mult: 1
  }
  param {
    lr_mult: 20
    decay_mult: 0
  }
  inner_product_param {
    num_output: 26
    weight_filler {
      type: "gaussian"
      std: 0.01
    }
    bias_filler {
      type: "constant"
      value: 0
    }
  }
}
layer {
  name: "loss_category"
  type: "SoftmaxWithLoss"
  bottom: "fc5_category"
  bottom: "label_category"
}
layer {
  name: "accuracy_category"
  type: "Accuracy"
  bottom: "fc5_category"
  bottom: "label_category"
  top: "accuracy_category"
  include {
    phase: TEST
  }
}
layer {
  name: "fc5_pattern"
  type: "InnerProduct"
  bottom: "pool3"
  top: "fc5_pattern"
  param {
    lr_mult: 10
    decay_mult: 1
  }
  param {
    lr_mult: 20
    decay_mult: 0
  }
  inner_product_param {
    num_output: 20
    weight_filler {
      type: "gaussian"
      std: 0.01
    }
    bias_filler {
      type: "constant"
      value: 0
    }
  }
}
layer {
  name: "loss_pattern"
  type: "SoftmaxWithLoss"
  bottom: "fc5_pattern"
  bottom: "label_pattern"
  loss_param {
    ignore_label: 0
  }
}
layer {
  name: "accuracy_pattern"
  type: "Accuracy"
  bottom: "fc5_pattern"
  bottom: "label_pattern"
  top: "accuracy_pattern"
  include {
    phase: TEST
  }
  accuracy_param {
    ignore_label: 0
  }
}
layer {
  name: "fc5_neck"
  type: "InnerProduct"
  bottom: "pool3"
  top: "fc5_neck"
  param {
    lr_mult: 10
    decay_mult: 1
  }
  param {
    lr_mult: 20
    decay_mult: 0
  }
  inner_product_param {
    num_output: 23
    weight_filler {
      type: "gaussian"
      std: 0.01
    }
    bias_filler {
      type: "constant"
      value: 0
    }
  }
}
layer {
  name: "loss_neck"
  type: "SoftmaxWithLoss"
  bottom: "fc5_neck"
  bottom: "label_neck"
  loss_param {
    ignore_label: 0
  }
}
layer {
  name: "accuracy_neck"
  type: "Accuracy"
  bottom: "fc5_neck"
  bottom: "label_neck"
  top: "accuracy_neck"
  include {
    phase: TEST
  }
  accuracy_param {
    ignore_label: 0
  }
}
layer {
  name: "fc5_sleeve"
  type: "InnerProduct"
  bottom: "pool3"
  top: "fc5_sleeve"
  param {
    lr_mult: 10
    decay_mult: 1
  }
  param {
    lr_mult: 20
    decay_mult: 0
  }
  inner_product_param {
    num_output: 9
    weight_filler {
      type: "gaussian"
      std: 0.01
    }
    bias_filler {
      type: "constant"
      value: 0
    }
  }
}
layer {
  name: "loss_sleeve"
  type: "SoftmaxWithLoss"
  bottom: "fc5_sleeve"
  bottom: "label_sleeve"
  loss_param {
    ignore_label: 0
  }
}
layer {
  name: "accuracy_sleeve"
  type: "Accuracy"
  bottom: "fc5_sleeve"
  bottom: "label_sleeve"
  top: "accuracy_sleeve"
  include {
    phase: TEST
  }
  accuracy_param {
    ignore_label: 0
  }
}
layer {
  name: "fc5_fit"
  type: "InnerProduct"
  bottom: "pool3"
  top: "fc5_fit"
  param {
    lr_mult: 10
    decay_mult: 1
  }
  param {
    lr_mult: 20
    decay_mult: 0
  }
  inner_product_param {
    num_output: 26
    weight_filler {
      type: "gaussian"
      std: 0.01
    }
    bias_filler {
      type: "constant"
      value: 0
    }
  }
}
layer {
  name: "loss_fit"
  type: "SoftmaxWithLoss"
  bottom: "fc5_fit"
  bottom: "label_fit"
  loss_param {
    ignore_label: 0
  }
}
layer {
  name: "accuracy_fit"
  type: "Accuracy"
  bottom: "fc5_fit"
  bottom: "label_fit"
  top: "accuracy_fit"
  include {
    phase: TEST
  }
  accuracy_param {
    ignore_label: 0
  }
}
layer {
  name: "fc5_ideal_for"
  type: "InnerProduct"
  bottom: "pool3"
  top: "fc5_ideal_for"
  param {
    lr_mult: 10
    decay_mult: 1
  }
  param {
    lr_mult: 20
    decay_mult: 0
  }
  inner_product_param {
    num_output: 7
    weight_filler {
      type: "gaussian"
      std: 0.01
    }
    bias_filler {
      type: "constant"
      value: 0
    }
  }
}
layer {
  name: "loss_ideal_for"
  type: "SoftmaxWithLoss"
  bottom: "fc5_ideal_for"
  bottom: "label_ideal_for"
  loss_param {
    ignore_label: 0
  }
}
layer {
  name: "accuracy_ideal_for"
  type: "Accuracy"
  bottom: "fc5_ideal_for"
  bottom: "label_ideal_for"
  top: "accuracy_ideal_for"
  include {
    phase: TEST
  }
  accuracy_param {
    ignore_label: 0
  }
}
layer {
  name: "fc5_occasion"
  type: "InnerProduct"
  bottom: "pool3"
  top: "fc5_occasion"
  param {
    lr_mult: 10
    decay_mult: 1
  }
  param {
    lr_mult: 20
    decay_mult: 0
  }
  inner_product_param {
    num_output: 38
    weight_filler {
      type: "gaussian"
      std: 0.01
    }
    bias_filler {
      type: "constant"
      value: 0
    }
  }
}
layer {
  name: "loss_occasion"
  type: "SoftmaxWithLoss"
  bottom: "fc5_occasion"
  bottom: "label_occasion"
  loss_param {
    ignore_label: 0
  }
}
layer {
  name: "accuracy_occasion"
  type: "Accuracy"
  bottom: "fc5_occasion"
  bottom: "label_occasion"
  top: "accuracy_occasion"
  include {
    phase: TEST
  }
  accuracy_param {
    ignore_label: 0
  }
}
I0503 09:03:46.180037 18296 layer_factory.hpp:74] Creating layer data
I0503 09:03:46.180073 18296 net.cpp:84] Creating Layer data
I0503 09:03:46.180089 18296 net.cpp:338] data -> data
I0503 09:03:46.180110 18296 net.cpp:338] data -> label_category
I0503 09:03:46.180138 18296 net.cpp:338] data -> label_pattern
…
I0503 09:03:46.212455 18296 image_data_multclass_layer.cpp:75] ##############################################
I0503 09:03:46.212466 18296 image_data_multclass_layer.cpp:76] ##############################################
I0503 09:03:46.212476 18296 image_data_multclass_layer.cpp:77] size of top: 8
I0503 09:03:46.214833 18296 image_data_multclass_layer.cpp:95] output data size: 64,3,224,224
I0503 09:03:46.214859 18296 image_data_multclass_layer.cpp:99] number of labels: 7
I0503 09:03:46.214886 18296 data_transformer.cpp:22] Loading mean file from: data/ilsvrc12/imagenet_mean.binaryproto
I0503 09:03:46.227886 18296 net.cpp:120] Top shape: 64 3 224 224 (9633792)
I0503 09:03:46.227936 18296 net.cpp:120] Top shape: 64 (64)
I0503 09:03:46.227952 18296 net.cpp:120] Top shape: 64 (64)
I0503 09:03:46.227964 18296 net.cpp:120] Top shape: 64 (64)
I0503 09:03:46.227977 18296 net.cpp:120] Top shape: 64 (64)
I0503 09:03:46.227989 18296 net.cpp:120] Top shape: 64 (64)
I0503 09:03:46.228008 18296 net.cpp:120] Top shape: 64 (64)
I0503 09:03:46.228020 18296 net.cpp:120] Top shape: 64 (64)
I0503 09:03:46.228044 18296 layer_factory.hpp:74] Creating layer label_category_data_1_split
I0503 09:03:46.228070 18296 net.cpp:84] Creating Layer label_category_data_1_split
I0503 09:03:46.228091 18296 net.cpp:380] label_category_data_1_split <- label_category
I0503 09:03:46.228112 18296 net.cpp:338] label_category_data_1_split -> label_category_data_1_split_0
I0503 09:03:46.228137 18296 net.cpp:338] label_category_data_1_split -> label_category_data_1_split_1
I0503 09:03:46.228153 18296 net.cpp:113] Setting up label_category_data_1_split
I0503 09:03:46.228173 18296 net.cpp:120] Top shape: 64 (64)
I0503 09:03:46.228185 18296 net.cpp:120] Top shape: 64 (64)
I0503 09:03:46.228199 18296 layer_factory.hpp:74] Creating layer label_pattern_data_2_split
I0503 09:03:46.228216 18296 net.cpp:84] Creating Layer label_pattern_data_2_split
I0503 09:03:46.228229 18296 net.cpp:380] label_pattern_data_2_split <- label_pattern
I0503 09:03:46.228243 18296 net.cpp:338] label_pattern_data_2_split -> label_pattern_data_2_split_0
I0503 09:03:46.228260 18296 net.cpp:338] label_pattern_data_2_split -> label_pattern_data_2_split_1
I0503 09:03:46.228281 18296 net.cpp:113] Setting up label_pattern_data_2_split
I0503 09:03:46.228296 18296 net.cpp:120] Top shape: 64 (64)
I0503 09:03:46.228309 18296 net.cpp:120] Top shape: 64 (64)
I0503 09:03:46.228319 18296 layer_factory.hpp:74] Creating layer label_neck_data_3_split
I0503 09:03:46.228332 18296 net.cpp:84] Creating Layer label_neck_data_3_split
I0503 09:03:46.228344 18296 net.cpp:380] label_neck_data_3_split <- label_neck
I0503 09:03:46.228358 18296 net.cpp:338] label_neck_data_3_split -> label_neck_data_3_split_0
I0503 09:03:46.228374 18296 net.cpp:338] label_neck_data_3_split -> label_neck_data_3_split_1
I0503 09:03:46.228389 18296 net.cpp:113] Setting up label_neck_data_3_split
I0503 09:03:46.228402 18296 net.cpp:120] Top shape: 64 (64)
I0503 09:03:46.228416 18296 net.cpp:120] Top shape: 64 (64)
I0503 09:03:46.228426 18296 layer_factory.hpp:74] Creating layer label_sleeve_data_4_split
I0503 09:03:46.228442 18296 net.cpp:84] Creating Layer label_sleeve_data_4_split
I0503 09:03:46.228454 18296 net.cpp:380] label_sleeve_data_4_split <- label_sleeve
I0503 09:03:46.228468 18296 net.cpp:338] label_sleeve_data_4_split -> label_sleeve_data_4_split_0
I0503 09:03:46.228498 18296 net.cpp:338] label_sleeve_data_4_split -> label_sleeve_data_4_split_1
I0503 09:03:46.228514 18296 net.cpp:113] Setting up label_sleeve_data_4_split
I0503 09:03:46.228529 18296 net.cpp:120] Top shape: 64 (64)
I0503 09:03:46.228541 18296 net.cpp:120] Top shape: 64 (64)
I0503 09:03:46.228552 18296 layer_factory.hpp:74] Creating layer label_fit_data_5_split
I0503 09:03:46.228608 18296 net.cpp:84] Creating Layer label_fit_data_5_split
I0503 09:03:46.228621 18296 net.cpp:380] label_fit_data_5_split <- label_fit
I0503 09:03:46.228637 18296 net.cpp:338] label_fit_data_5_split -> label_fit_data_5_split_0
I0503 09:03:46.228657 18296 net.cpp:338] label_fit_data_5_split -> label_fit_data_5_split_1
I0503 09:03:46.228672 18296 net.cpp:113] Setting up label_fit_data_5_split
I0503 09:03:46.228687 18296 net.cpp:120] Top shape: 64 (64)
I0503 09:03:46.228699 18296 net.cpp:120] Top shape: 64 (64)
I0503 09:03:46.228710 18296 layer_factory.hpp:74] Creating layer label_ideal_for_data_6_split
I0503 09:03:46.228724 18296 net.cpp:84] Creating Layer label_ideal_for_data_6_split
I0503 09:03:46.228736 18296 net.cpp:380] label_ideal_for_data_6_split <- label_ideal_for
I0503 09:03:46.228751 18296 net.cpp:338] label_ideal_for_data_6_split -> label_ideal_for_data_6_split_0
I0503 09:03:46.228768 18296 net.cpp:338] label_ideal_for_data_6_split -> label_ideal_for_data_6_split_1
I0503 09:03:46.228783 18296 net.cpp:113] Setting up label_ideal_for_data_6_split
I0503 09:03:46.228797 18296 net.cpp:120] Top shape: 64 (64)
I0503 09:03:46.228809 18296 net.cpp:120] Top shape: 64 (64)
I0503 09:03:46.228821 18296 layer_factory.hpp:74] Creating layer label_occasion_data_7_split
I0503 09:03:46.228835 18296 net.cpp:84] Creating Layer label_occasion_data_7_split
I0503 09:03:46.228847 18296 net.cpp:380] label_occasion_data_7_split <- label_occasion
I0503 09:03:46.228862 18296 net.cpp:338] label_occasion_data_7_split -> label_occasion_data_7_split_0
I0503 09:03:46.228878 18296 net.cpp:338] label_occasion_data_7_split -> label_occasion_data_7_split_1
I0503 09:03:46.228893 18296 net.cpp:113] Setting up label_occasion_data_7_split
I0503 09:03:46.228909 18296 net.cpp:120] Top shape: 64 (64)
I0503 09:03:46.228920 18296 net.cpp:120] Top shape: 64 (64)
I0503 09:03:46.228931 18296 layer_factory.hpp:74] Creating layer conv1
I0503 09:03:46.228953 18296 net.cpp:84] Creating Layer conv1
I0503 09:03:46.228973 18296 net.cpp:380] conv1 <- data
I0503 09:03:46.228992 18296 net.cpp:338] conv1 -> conv1
I0503 09:03:46.229008 18296 net.cpp:113] Setting up conv1
I0503 09:03:46.230345 18296 net.cpp:120] Top shape: 64 96 54 54 (17915904)
I0503 09:03:46.230383 18296 layer_factory.hpp:74] Creating layer relu0
I0503 09:03:46.230402 18296 net.cpp:84] Creating Layer relu0
I0503 09:03:46.230422 18296 net.cpp:380] relu0 <- conv1
I0503 09:03:46.230438 18296 net.cpp:327] relu0 -> conv1 (in-place)
I0503 09:03:46.230453 18296 net.cpp:113] Setting up relu0
I0503 09:03:46.230466 18296 net.cpp:120] Top shape: 64 96 54 54 (17915904)
I0503 09:03:46.230476 18296 layer_factory.hpp:74] Creating layer cccp1
I0503 09:03:46.230494 18296 net.cpp:84] Creating Layer cccp1
I0503 09:03:46.230504 18296 net.cpp:380] cccp1 <- conv1
I0503 09:03:46.230520 18296 net.cpp:338] cccp1 -> cccp1
I0503 09:03:46.230535 18296 net.cpp:113] Setting up cccp1
I0503 09:03:46.230927 18296 net.cpp:120] Top shape: 64 96 54 54 (17915904)
I0503 09:03:46.230955 18296 layer_factory.hpp:74] Creating layer relu1
I0503 09:03:46.230972 18296 net.cpp:84] Creating Layer relu1
I0503 09:03:46.230983 18296 net.cpp:380] relu1 <- cccp1
I0503 09:03:46.230998 18296 net.cpp:327] relu1 -> cccp1 (in-place)
I0503 09:03:46.231011 18296 net.cpp:113] Setting up relu1
I0503 09:03:46.231025 18296 net.cpp:120] Top shape: 64 96 54 54 (17915904)
I0503 09:03:46.231039 18296 layer_factory.hpp:74] Creating layer cccp2
I0503 09:03:46.231066 18296 net.cpp:84] Creating Layer cccp2
I0503 09:03:46.231088 18296 net.cpp:380] cccp2 <- cccp1
I0503 09:03:46.231112 18296 net.cpp:338] cccp2 -> cccp2
I0503 09:03:46.231129 18296 net.cpp:113] Setting up cccp2
I0503 09:03:46.231508 18296 net.cpp:120] Top shape: 64 96 54 54 (17915904)
I0503 09:03:46.231539 18296 layer_factory.hpp:74] Creating layer relu2
I0503 09:03:46.231554 18296 net.cpp:84] Creating Layer relu2
I0503 09:03:46.231566 18296 net.cpp:380] relu2 <- cccp2
I0503 09:03:46.231581 18296 net.cpp:327] relu2 -> cccp2 (in-place)
I0503 09:03:46.231605 18296 net.cpp:113] Setting up relu2
I0503 09:03:46.231638 18296 net.cpp:120] Top shape: 64 96 54 54 (17915904)
I0503 09:03:46.231652 18296 layer_factory.hpp:74] Creating layer pool0
I0503 09:03:46.231667 18296 net.cpp:84] Creating Layer pool0
I0503 09:03:46.231678 18296 net.cpp:380] pool0 <- cccp2
I0503 09:03:46.231693 18296 net.cpp:338] pool0 -> pool0
I0503 09:03:46.231719 18296 net.cpp:113] Setting up pool0
I0503 09:03:46.231739 18296 net.cpp:120] Top shape: 64 96 27 27 (4478976)
I0503 09:03:46.231758 18296 layer_factory.hpp:74] Creating layer conv2
I0503 09:03:46.231775 18296 net.cpp:84] Creating Layer conv2
I0503 09:03:46.231786 18296 net.cpp:380] conv2 <- pool0
I0503 09:03:46.231803 18296 net.cpp:338] conv2 -> conv2
I0503 09:03:46.231818 18296 net.cpp:113] Setting up conv2
I0503 09:03:46.255377 18296 net.cpp:120] Top shape: 64 256 27 27 (11943936)
I0503 09:03:46.255414 18296 layer_factory.hpp:74] Creating layer relu3
I0503 09:03:46.255435 18296 net.cpp:84] Creating Layer relu3
I0503 09:03:46.255448 18296 net.cpp:380] relu3 <- conv2
I0503 09:03:46.255463 18296 net.cpp:327] relu3 -> conv2 (in-place)
I0503 09:03:46.255478 18296 net.cpp:113] Setting up relu3
I0503 09:03:46.255491 18296 net.cpp:120] Top shape: 64 256 27 27 (11943936)
I0503 09:03:46.255508 18296 layer_factory.hpp:74] Creating layer cccp3
I0503 09:03:46.255527 18296 net.cpp:84] Creating Layer cccp3
I0503 09:03:46.255548 18296 net.cpp:380] cccp3 <- conv2
I0503 09:03:46.255568 18296 net.cpp:338] cccp3 -> cccp3
I0503 09:03:46.255584 18296 net.cpp:113] Setting up cccp3
I0503 09:03:46.258160 18296 net.cpp:120] Top shape: 64 256 27 27 (11943936)
I0503 09:03:46.258195 18296 layer_factory.hpp:74] Creating layer relu5
I0503 09:03:46.258214 18296 net.cpp:84] Creating Layer relu5
I0503 09:03:46.258226 18296 net.cpp:380] relu5 <- cccp3
I0503 09:03:46.258242 18296 net.cpp:327] relu5 -> cccp3 (in-place)
I0503 09:03:46.258265 18296 net.cpp:113] Setting up relu5
I0503 09:03:46.258280 18296 net.cpp:120] Top shape: 64 256 27 27 (11943936)
I0503 09:03:46.258291 18296 layer_factory.hpp:74] Creating layer cccp4
I0503 09:03:46.258307 18296 net.cpp:84] Creating Layer cccp4
I0503 09:03:46.258318 18296 net.cpp:380] cccp4 <- cccp3
I0503 09:03:46.258334 18296 net.cpp:338] cccp4 -> cccp4
I0503 09:03:46.258349 18296 net.cpp:113] Setting up cccp4
I0503 09:03:46.260965 18296 net.cpp:120] Top shape: 64 256 27 27 (11943936)
I0503 09:03:46.260998 18296 layer_factory.hpp:74] Creating layer relu6
I0503 09:03:46.261014 18296 net.cpp:84] Creating Layer relu6
I0503 09:03:46.261025 18296 net.cpp:380] relu6 <- cccp4
I0503 09:03:46.261040 18296 net.cpp:327] relu6 -> cccp4 (in-place)
I0503 09:03:46.261059 18296 net.cpp:113] Setting up relu6
I0503 09:03:46.261080 18296 net.cpp:120] Top shape: 64 256 27 27 (11943936)
I0503 09:03:46.261092 18296 layer_factory.hpp:74] Creating layer pool2
I0503 09:03:46.261106 18296 net.cpp:84] Creating Layer pool2
I0503 09:03:46.261117 18296 net.cpp:380] pool2 <- cccp4
I0503 09:03:46.261133 18296 net.cpp:338] pool2 -> pool2
I0503 09:03:46.261149 18296 net.cpp:113] Setting up pool2
I0503 09:03:46.261167 18296 net.cpp:120] Top shape: 64 256 13 13 (2768896)
I0503 09:03:46.261185 18296 layer_factory.hpp:74] Creating layer conv3
I0503 09:03:46.261204 18296 net.cpp:84] Creating Layer conv3
I0503 09:03:46.261215 18296 net.cpp:380] conv3 <- pool2
I0503 09:03:46.261232 18296 net.cpp:338] conv3 -> conv3
I0503 09:03:46.261247 18296 net.cpp:113] Setting up conv3
I0503 09:03:46.295019 18296 net.cpp:120] Top shape: 64 384 13 13 (4153344)
I0503 09:03:46.295061 18296 layer_factory.hpp:74] Creating layer relu7
I0503 09:03:46.295083 18296 net.cpp:84] Creating Layer relu7
I0503 09:03:46.295095 18296 net.cpp:380] relu7 <- conv3
I0503 09:03:46.295112 18296 net.cpp:327] relu7 -> conv3 (in-place)
I0503 09:03:46.295128 18296 net.cpp:113] Setting up relu7
I0503 09:03:46.295141 18296 net.cpp:120] Top shape: 64 384 13 13 (4153344)
I0503 09:03:46.295152 18296 layer_factory.hpp:74] Creating layer cccp5
I0503 09:03:46.295169 18296 net.cpp:84] Creating Layer cccp5
I0503 09:03:46.295181 18296 net.cpp:380] cccp5 <- conv3
I0503 09:03:46.295238 18296 net.cpp:338] cccp5 -> cccp5
I0503 09:03:46.295256 18296 net.cpp:113] Setting up cccp5
I0503 09:03:46.300992 18296 net.cpp:120] Top shape: 64 384 13 13 (4153344)
I0503 09:03:46.301025 18296 layer_factory.hpp:74] Creating layer relu8
I0503 09:03:46.301043 18296 net.cpp:84] Creating Layer relu8
I0503 09:03:46.301055 18296 net.cpp:380] relu8 <- cccp5
I0503 09:03:46.301069 18296 net.cpp:327] relu8 -> cccp5 (in-place)
I0503 09:03:46.301092 18296 net.cpp:113] Setting up relu8
I0503 09:03:46.301117 18296 net.cpp:120] Top shape: 64 384 13 13 (4153344)
I0503 09:03:46.301136 18296 layer_factory.hpp:74] Creating layer cccp6
I0503 09:03:46.301153 18296 net.cpp:84] Creating Layer cccp6
I0503 09:03:46.301164 18296 net.cpp:380] cccp6 <- cccp5
I0503 09:03:46.301182 18296 net.cpp:338] cccp6 -> cccp6
I0503 09:03:46.301204 18296 net.cpp:113] Setting up cccp6
I0503 09:03:46.306967 18296 net.cpp:120] Top shape: 64 384 13 13 (4153344)
I0503 09:03:46.307004 18296 layer_factory.hpp:74] Creating layer relu9
I0503 09:03:46.307023 18296 net.cpp:84] Creating Layer relu9
I0503 09:03:46.307035 18296 net.cpp:380] relu9 <- cccp6
I0503 09:03:46.307052 18296 net.cpp:327] relu9 -> cccp6 (in-place)
I0503 09:03:46.307066 18296 net.cpp:113] Setting up relu9
I0503 09:03:46.307080 18296 net.cpp:120] Top shape: 64 384 13 13 (4153344)
I0503 09:03:46.307101 18296 layer_factory.hpp:74] Creating layer pool3
I0503 09:03:46.307117 18296 net.cpp:84] Creating Layer pool3
I0503 09:03:46.307128 18296 net.cpp:380] pool3 <- cccp6
I0503 09:03:46.307144 18296 net.cpp:338] pool3 -> pool3
I0503 09:03:46.307160 18296 net.cpp:113] Setting up pool3
I0503 09:03:46.307178 18296 net.cpp:120] Top shape: 64 384 6 6 (884736)
I0503 09:03:46.307190 18296 layer_factory.hpp:74] Creating layer pool3_pool3_0_split
I0503 09:03:46.307205 18296 net.cpp:84] Creating Layer pool3_pool3_0_split
I0503 09:03:46.307215 18296 net.cpp:380] pool3_pool3_0_split <- pool3
I0503 09:03:46.307231 18296 net.cpp:338] pool3_pool3_0_split -> pool3_pool3_0_split_0
I0503 09:03:46.307247 18296 net.cpp:338] pool3_pool3_0_split -> pool3_pool3_0_split_1
I0503 09:03:46.307265 18296 net.cpp:338] pool3_pool3_0_split -> pool3_pool3_0_split_2
I0503 09:03:46.307281 18296 net.cpp:338] pool3_pool3_0_split -> pool3_pool3_0_split_3
I0503 09:03:46.307296 18296 net.cpp:338] pool3_pool3_0_split -> pool3_pool3_0_split_4
I0503 09:03:46.307313 18296 net.cpp:338] pool3_pool3_0_split -> pool3_pool3_0_split_5
I0503 09:03:46.307329 18296 net.cpp:338] pool3_pool3_0_split -> pool3_pool3_0_split_6
I0503 09:03:46.307343 18296 net.cpp:113] Setting up pool3_pool3_0_split
I0503 09:03:46.307363 18296 net.cpp:120] Top shape: 64 384 6 6 (884736)
I0503 09:03:46.307374 18296 net.cpp:120] Top shape: 64 384 6 6 (884736)
I0503 09:03:46.307386 18296 net.cpp:120] Top shape: 64 384 6 6 (884736)
I0503 09:03:46.307397 18296 net.cpp:120] Top shape: 64 384 6 6 (884736)
I0503 09:03:46.307410 18296 net.cpp:120] Top shape: 64 384 6 6 (884736)
I0503 09:03:46.307421 18296 net.cpp:120] Top shape: 64 384 6 6 (884736)
I0503 09:03:46.307433 18296 net.cpp:120] Top shape: 64 384 6 6 (884736)
I0503 09:03:46.307443 18296 layer_factory.hpp:74] Creating layer fc5_category
I0503 09:03:46.307461 18296 net.cpp:84] Creating Layer fc5_category
I0503 09:03:46.307472 18296 net.cpp:380] fc5_category <- pool3_pool3_0_split_0
I0503 09:03:46.307489 18296 net.cpp:338] fc5_category -> fc5_category
I0503 09:03:46.307505 18296 net.cpp:113] Setting up fc5_category
I0503 09:03:46.321316 18296 net.cpp:120] Top shape: 64 26 (1664)
I0503 09:03:46.321354 18296 layer_factory.hpp:74] Creating layer fc5_category_fc5_category_0_split
I0503 09:03:46.321372 18296 net.cpp:84] Creating Layer fc5_category_fc5_category_0_split
I0503 09:03:46.321385 18296 net.cpp:380] fc5_category_fc5_category_0_split <- fc5_category
I0503 09:03:46.321401 18296 net.cpp:338] fc5_category_fc5_category_0_split -> fc5_category_fc5_category_0_split_0
I0503 09:03:46.321419 18296 net.cpp:338] fc5_category_fc5_category_0_split -> fc5_category_fc5_category_0_split_1
I0503 09:03:46.321434 18296 net.cpp:113] Setting up fc5_category_fc5_category_0_split
I0503 09:03:46.321486 18296 net.cpp:120] Top shape: 64 26 (1664)
I0503 09:03:46.321501 18296 net.cpp:120] Top shape: 64 26 (1664)
I0503 09:03:46.321511 18296 layer_factory.hpp:74] Creating layer loss_category
I0503 09:03:46.321532 18296 net.cpp:84] Creating Layer loss_category
I0503 09:03:46.321545 18296 net.cpp:380] loss_category <- fc5_category_fc5_category_0_split_0
I0503 09:03:46.321558 18296 net.cpp:380] loss_category <- label_category_data_1_split_0
I0503 09:03:46.321574 18296 net.cpp:338] loss_category -> (automatic)
…
