…
I0518 15:51:34.159528  4671 net.cpp:257] The NetState phase (0) differed from the phase (1) specified by a rule in layer data
I0518 15:51:34.159754  4671 net.cpp:42] Initializing net from parameters: 
name: "yq_fk5"
state {
  phase: TRAIN
}
layer {
  name: "data"
  type: "ImageData"
  top: "data"
  top: "label_category"
  include {
    phase: TRAIN
  }
  transform_param {
    mirror: true
    crop_size: 227
    mean_value: 187
    mean_value: 176
    mean_value: 176
  }
  image_data_param {
    source: "models/yq_fk5/train.txt"
    batch_size: 50
    shuffle: true
    new_height: 256
    new_width: 256
  }
}
layer {
  name: "conv1"
  type: "Convolution"
  bottom: "data"
  top: "conv1"
  param {
    lr_mult: 1
    decay_mult: 1
  }
  param {
    lr_mult: 2
    decay_mult: 0
  }
  convolution_param {
    num_output: 96
    kernel_size: 11
    stride: 4
    weight_filler {
      type: "gaussian"
      std: 0.01
    }
    bias_filler {
      type: "constant"
      value: 0
    }
  }
}
layer {
  name: "relu1"
  type: "ReLU"
  bottom: "conv1"
  top: "conv1"
}
layer {
  name: "pool1"
  type: "Pooling"
  bottom: "conv1"
  top: "pool1"
  pooling_param {
    pool: MAX
    kernel_size: 3
    stride: 2
  }
}
layer {
  name: "norm1"
  type: "LRN"
  bottom: "pool1"
  top: "norm1"
  lrn_param {
    local_size: 5
    alpha: 0.0001
    beta: 0.75
  }
}
layer {
  name: "conv2"
  type: "Convolution"
  bottom: "norm1"
  top: "conv2"
  param {
    lr_mult: 1
    decay_mult: 1
  }
  param {
    lr_mult: 2
    decay_mult: 0
  }
  convolution_param {
    num_output: 256
    pad: 2
    kernel_size: 5
    group: 2
    weight_filler {
      type: "gaussian"
      std: 0.01
    }
    bias_filler {
      type: "constant"
      value: 1
    }
  }
}
layer {
  name: "relu2"
  type: "ReLU"
  bottom: "conv2"
  top: "conv2"
}
layer {
  name: "pool2"
  type: "Pooling"
  bottom: "conv2"
  top: "pool2"
  pooling_param {
    pool: MAX
    kernel_size: 3
    stride: 2
  }
}
layer {
  name: "norm2"
  type: "LRN"
  bottom: "pool2"
  top: "norm2"
  lrn_param {
    local_size: 5
    alpha: 0.0001
    beta: 0.75
  }
}
layer {
  name: "conv3"
  type: "Convolution"
  bottom: "norm2"
  top: "conv3"
  param {
    lr_mult: 1
    decay_mult: 1
  }
  param {
    lr_mult: 2
    decay_mult: 0
  }
  convolution_param {
    num_output: 384
    pad: 1
    kernel_size: 3
    weight_filler {
      type: "gaussian"
      std: 0.01
    }
    bias_filler {
      type: "constant"
      value: 0
    }
  }
}
layer {
  name: "relu3"
  type: "ReLU"
  bottom: "conv3"
  top: "conv3"
}
layer {
  name: "conv4"
  type: "Convolution"
  bottom: "conv3"
  top: "conv4"
  param {
    lr_mult: 1
    decay_mult: 1
  }
  param {
    lr_mult: 2
    decay_mult: 0
  }
  convolution_param {
    num_output: 384
    pad: 1
    kernel_size: 3
    group: 2
    weight_filler {
      type: "gaussian"
      std: 0.01
    }
    bias_filler {
      type: "constant"
      value: 1
    }
  }
}
layer {
  name: "relu4"
  type: "ReLU"
  bottom: "conv4"
  top: "conv4"
}
layer {
  name: "conv5"
  type: "Convolution"
  bottom: "conv4"
  top: "conv5"
  param {
    lr_mult: 1
    decay_mult: 1
  }
  param {
    lr_mult: 2
    decay_mult: 0
  }
  convolution_param {
    num_output: 256
    pad: 1
    kernel_size: 3
    group: 2
    weight_filler {
      type: "gaussian"
      std: 0.01
    }
    bias_filler {
      type: "constant"
      value: 1
    }
  }
}
layer {
  name: "relu5"
  type: "ReLU"
  bottom: "conv5"
  top: "conv5"
}
layer {
  name: "pool5"
  type: "Pooling"
  bottom: "conv5"
  top: "pool5"
  pooling_param {
    pool: MAX
    kernel_size: 3
    stride: 2
  }
}
layer {
  name: "fc8_category"
  type: "InnerProduct"
  bottom: "pool5"
  top: "fc8_category"
  param {
    lr_mult: 1
    decay_mult: 1
  }
  param {
    lr_mult: 2
    decay_mult: 0
  }
  inner_product_param {
    num_output: 29
    weight_filler {
      type: "gaussian"
      std: 0.01
    }
    bias_filler {
      type: "constant"
      value: 0
    }
  }
}
layer {
  name: "loss_category"
  type: "SoftmaxWithLoss"
  bottom: "fc8_category"
  bottom: "label_category"
  loss_param {
    ignore_label: 0
    normalize: true
    classifier_info_file: "models/yq_fk5/info_category.txt"
    class_specific_lr: false
  }
}
layer {
  name: "accuracy_category"
  type: "PerClassAccuracy"
  bottom: "fc8_category"
  bottom: "label_category"
  per_class_accuracy_param {
    ignore_label: 0
    classifier_info_file: "models/yq_fk5/info_category.txt"
    confusion_matrix_file: "models/yq_fk5/conf_category"
  }
}
I0518 15:51:34.160790  4671 layer_factory.hpp:74] Creating layer data
I0518 15:51:34.160833  4671 net.cpp:84] Creating Layer data
I0518 15:51:34.160853  4671 net.cpp:338] data -> data
I0518 15:51:34.160893  4671 net.cpp:338] data -> label_category
I0518 15:51:34.160920  4671 net.cpp:113] Setting up data
I0518 15:51:34.160934  4671 image_data_layer.cpp:36] Opening file models/yq_fk5/train.txt
I0518 15:51:34.271756  4671 image_data_layer.cpp:46] Shuffling data
I0518 15:51:34.306677  4671 image_data_layer.cpp:51] A total of 188279 images.
I0518 15:51:34.312827  4671 image_data_layer.cpp:80] output data size: 50,3,227,227
I0518 15:51:34.320863  4671 net.cpp:120] Top shape: 50 3 227 227 (7729350)
I0518 15:51:34.320915  4671 net.cpp:120] Top shape: 50 (50)
I0518 15:51:34.320932  4671 layer_factory.hpp:74] Creating layer label_category_data_1_split
I0518 15:51:34.320983  4671 net.cpp:84] Creating Layer label_category_data_1_split
I0518 15:51:34.321007  4671 net.cpp:380] label_category_data_1_split <- label_category
I0518 15:51:34.321028  4671 net.cpp:338] label_category_data_1_split -> label_category_data_1_split_0
I0518 15:51:34.321048  4671 net.cpp:338] label_category_data_1_split -> label_category_data_1_split_1
I0518 15:51:34.321063  4671 net.cpp:113] Setting up label_category_data_1_split
I0518 15:51:34.321080  4671 net.cpp:120] Top shape: 50 (50)
I0518 15:51:34.321091  4671 net.cpp:120] Top shape: 50 (50)
I0518 15:51:34.321101  4671 layer_factory.hpp:74] Creating layer conv1
I0518 15:51:34.321121  4671 net.cpp:84] Creating Layer conv1
I0518 15:51:34.321140  4671 net.cpp:380] conv1 <- data
I0518 15:51:34.321154  4671 net.cpp:338] conv1 -> conv1
I0518 15:51:34.321172  4671 net.cpp:113] Setting up conv1
I0518 15:51:34.322381  4671 net.cpp:120] Top shape: 50 96 55 55 (14520000)
I0518 15:51:34.322418  4671 layer_factory.hpp:74] Creating layer relu1
I0518 15:51:34.322434  4671 net.cpp:84] Creating Layer relu1
I0518 15:51:34.322453  4671 net.cpp:380] relu1 <- conv1
I0518 15:51:34.322465  4671 net.cpp:327] relu1 -> conv1 (in-place)
I0518 15:51:34.322477  4671 net.cpp:113] Setting up relu1
I0518 15:51:34.322491  4671 net.cpp:120] Top shape: 50 96 55 55 (14520000)
I0518 15:51:34.322501  4671 layer_factory.hpp:74] Creating layer pool1
I0518 15:51:34.322516  4671 net.cpp:84] Creating Layer pool1
I0518 15:51:34.322525  4671 net.cpp:380] pool1 <- conv1
I0518 15:51:34.322537  4671 net.cpp:338] pool1 -> pool1
I0518 15:51:34.322552  4671 net.cpp:113] Setting up pool1
I0518 15:51:34.322623  4671 net.cpp:120] Top shape: 50 96 27 27 (3499200)
I0518 15:51:34.322641  4671 layer_factory.hpp:74] Creating layer norm1
I0518 15:51:34.322659  4671 net.cpp:84] Creating Layer norm1
I0518 15:51:34.322669  4671 net.cpp:380] norm1 <- pool1
I0518 15:51:34.322680  4671 net.cpp:338] norm1 -> norm1
I0518 15:51:34.322702  4671 net.cpp:113] Setting up norm1
I0518 15:51:34.322721  4671 net.cpp:120] Top shape: 50 96 27 27 (3499200)
I0518 15:51:34.322738  4671 layer_factory.hpp:74] Creating layer conv2
I0518 15:51:34.322753  4671 net.cpp:84] Creating Layer conv2
I0518 15:51:34.322763  4671 net.cpp:380] conv2 <- norm1
I0518 15:51:34.322818  4671 net.cpp:338] conv2 -> conv2
I0518 15:51:34.322834  4671 net.cpp:113] Setting up conv2
I0518 15:51:34.332890  4671 net.cpp:120] Top shape: 50 256 27 27 (9331200)
I0518 15:51:34.332958  4671 layer_factory.hpp:74] Creating layer relu2
I0518 15:51:34.332984  4671 net.cpp:84] Creating Layer relu2
I0518 15:51:34.333000  4671 net.cpp:380] relu2 <- conv2
I0518 15:51:34.333020  4671 net.cpp:327] relu2 -> conv2 (in-place)
I0518 15:51:34.333051  4671 net.cpp:113] Setting up relu2
I0518 15:51:34.333070  4671 net.cpp:120] Top shape: 50 256 27 27 (9331200)
I0518 15:51:34.333084  4671 layer_factory.hpp:74] Creating layer pool2
I0518 15:51:34.333117  4671 net.cpp:84] Creating Layer pool2
I0518 15:51:34.333142  4671 net.cpp:380] pool2 <- conv2
I0518 15:51:34.333163  4671 net.cpp:338] pool2 -> pool2
I0518 15:51:34.333199  4671 net.cpp:113] Setting up pool2
I0518 15:51:34.333230  4671 net.cpp:120] Top shape: 50 256 13 13 (2163200)
I0518 15:51:34.333259  4671 layer_factory.hpp:74] Creating layer norm2
I0518 15:51:34.333282  4671 net.cpp:84] Creating Layer norm2
I0518 15:51:34.333346  4671 net.cpp:380] norm2 <- pool2
I0518 15:51:34.333386  4671 net.cpp:338] norm2 -> norm2
I0518 15:51:34.333420  4671 net.cpp:113] Setting up norm2
I0518 15:51:34.333454  4671 net.cpp:120] Top shape: 50 256 13 13 (2163200)
I0518 15:51:34.333480  4671 layer_factory.hpp:74] Creating layer conv3
I0518 15:51:34.333506  4671 net.cpp:84] Creating Layer conv3
I0518 15:51:34.333525  4671 net.cpp:380] conv3 <- norm2
I0518 15:51:34.333549  4671 net.cpp:338] conv3 -> conv3
I0518 15:51:34.333580  4671 net.cpp:113] Setting up conv3
I0518 15:51:34.363654  4671 net.cpp:120] Top shape: 50 384 13 13 (3244800)
I0518 15:51:34.363718  4671 layer_factory.hpp:74] Creating layer relu3
I0518 15:51:34.363739  4671 net.cpp:84] Creating Layer relu3
I0518 15:51:34.363749  4671 net.cpp:380] relu3 <- conv3
I0518 15:51:34.363764  4671 net.cpp:327] relu3 -> conv3 (in-place)
I0518 15:51:34.363781  4671 net.cpp:113] Setting up relu3
I0518 15:51:34.363795  4671 net.cpp:120] Top shape: 50 384 13 13 (3244800)
I0518 15:51:34.363803  4671 layer_factory.hpp:74] Creating layer conv4
I0518 15:51:34.363819  4671 net.cpp:84] Creating Layer conv4
I0518 15:51:34.363828  4671 net.cpp:380] conv4 <- conv3
I0518 15:51:34.363842  4671 net.cpp:338] conv4 -> conv4
I0518 15:51:34.363855  4671 net.cpp:113] Setting up conv4
I0518 15:51:34.386250  4671 net.cpp:120] Top shape: 50 384 13 13 (3244800)
I0518 15:51:34.386303  4671 layer_factory.hpp:74] Creating layer relu4
I0518 15:51:34.386324  4671 net.cpp:84] Creating Layer relu4
I0518 15:51:34.386343  4671 net.cpp:380] relu4 <- conv4
I0518 15:51:34.386358  4671 net.cpp:327] relu4 -> conv4 (in-place)
I0518 15:51:34.386373  4671 net.cpp:113] Setting up relu4
I0518 15:51:34.386385  4671 net.cpp:120] Top shape: 50 384 13 13 (3244800)
I0518 15:51:34.386395  4671 layer_factory.hpp:74] Creating layer conv5
I0518 15:51:34.386410  4671 net.cpp:84] Creating Layer conv5
I0518 15:51:34.386420  4671 net.cpp:380] conv5 <- conv4
I0518 15:51:34.386431  4671 net.cpp:338] conv5 -> conv5
I0518 15:51:34.386446  4671 net.cpp:113] Setting up conv5
I0518 15:51:34.400887  4671 net.cpp:120] Top shape: 50 256 13 13 (2163200)
I0518 15:51:34.400951  4671 layer_factory.hpp:74] Creating layer relu5
I0518 15:51:34.400971  4671 net.cpp:84] Creating Layer relu5
I0518 15:51:34.400982  4671 net.cpp:380] relu5 <- conv5
I0518 15:51:34.400995  4671 net.cpp:327] relu5 -> conv5 (in-place)
I0518 15:51:34.401010  4671 net.cpp:113] Setting up relu5
I0518 15:51:34.401021  4671 net.cpp:120] Top shape: 50 256 13 13 (2163200)
I0518 15:51:34.401032  4671 layer_factory.hpp:74] Creating layer pool5
I0518 15:51:34.401053  4671 net.cpp:84] Creating Layer pool5
I0518 15:51:34.401063  4671 net.cpp:380] pool5 <- conv5
I0518 15:51:34.401077  4671 net.cpp:338] pool5 -> pool5
I0518 15:51:34.401092  4671 net.cpp:113] Setting up pool5
I0518 15:51:34.401118  4671 net.cpp:120] Top shape: 50 256 6 6 (460800)
I0518 15:51:34.401128  4671 layer_factory.hpp:74] Creating layer fc8_category
I0518 15:51:34.401185  4671 net.cpp:84] Creating Layer fc8_category
I0518 15:51:34.401197  4671 net.cpp:380] fc8_category <- pool5
I0518 15:51:34.401211  4671 net.cpp:338] fc8_category -> fc8_category
I0518 15:51:34.401228  4671 net.cpp:113] Setting up fc8_category
I0518 15:51:34.410378  4671 net.cpp:120] Top shape: 50 29 (1450)
I0518 15:51:34.410433  4671 layer_factory.hpp:74] Creating layer fc8_category_fc8_category_0_split
I0518 15:51:34.410454  4671 net.cpp:84] Creating Layer fc8_category_fc8_category_0_split
I0518 15:51:34.410465  4671 net.cpp:380] fc8_category_fc8_category_0_split <- fc8_category
I0518 15:51:34.410480  4671 net.cpp:338] fc8_category_fc8_category_0_split -> fc8_category_fc8_category_0_split_0
I0518 15:51:34.410498  4671 net.cpp:338] fc8_category_fc8_category_0_split -> fc8_category_fc8_category_0_split_1
I0518 15:51:34.410518  4671 net.cpp:113] Setting up fc8_category_fc8_category_0_split
I0518 15:51:34.410531  4671 net.cpp:120] Top shape: 50 29 (1450)
I0518 15:51:34.410542  4671 net.cpp:120] Top shape: 50 29 (1450)
I0518 15:51:34.410552  4671 layer_factory.hpp:74] Creating layer loss_category
I0518 15:51:34.410569  4671 net.cpp:84] Creating Layer loss_category
I0518 15:51:34.410588  4671 net.cpp:380] loss_category <- fc8_category_fc8_category_0_split_0
I0518 15:51:34.410600  4671 net.cpp:380] loss_category <- label_category_data_1_split_0
I0518 15:51:34.410626  4671 net.cpp:338] loss_category -> (automatic)
…
