…
state {
  phase: TRAIN
}
layer {
  name: "data"
  type: "ImageDataMultLabel"
  top: "data"
  top: "label_category"
  top: "label_pattern"
  top: "label_neck"
  top: "label_sleeve"
  top: "label_fit"
  top: "label_ideal_for"
  top: "label_occasion"
  include {
    phase: TRAIN
  }
  transform_param {
    mirror: true
    crop_size: 224
    mean_file: "data/ilsvrc12/imagenet_mean.binaryproto"
  }
  image_data_mult_label_param {
    source: "/mnt/images/training/flipkart_yq2set/train.txt"
    batch_size: 64
    new_height: 256
    new_width: 256
  }
}
layer {
  name: "conv1"
  type: "Convolution"
  bottom: "data"
  top: "conv1"
  param {
    lr_mult: 1
    decay_mult: 1
  }
  param {
    lr_mult: 2
    decay_mult: 0
  }
  convolution_param {
    num_output: 96
    kernel_size: 11
    stride: 4
    weight_filler {
      type: "gaussian"
      mean: 0
      std: 0.01
    }
    bias_filler {
      type: "constant"
      value: 0
    }
  }
}
layer {
  name: "relu0"
  type: "ReLU"
  bottom: "conv1"
  top: "conv1"
}
layer {
  name: "cccp1"
  type: "Convolution"
  bottom: "conv1"
  top: "cccp1"
  param {
    lr_mult: 1
    decay_mult: 1
  }
  param {
    lr_mult: 2
    decay_mult: 0
  }
  convolution_param {
    num_output: 96
    kernel_size: 1
    stride: 1
    weight_filler {
      type: "gaussian"
      mean: 0
      std: 0.05
    }
    bias_filler {
      type: "constant"
      value: 0
    }
  }
}
layer {
  name: "relu1"
  type: "ReLU"
  bottom: "cccp1"
  top: "cccp1"
}
layer {
  name: "cccp2"
  type: "Convolution"
  bottom: "cccp1"
  top: "cccp2"
  param {
    lr_mult: 1
    decay_mult: 1
  }
  param {
    lr_mult: 2
    decay_mult: 0
  }
  convolution_param {
    num_output: 96
    kernel_size: 1
    stride: 1
    weight_filler {
      type: "gaussian"
      mean: 0
      std: 0.05
    }
    bias_filler {
      type: "constant"
      value: 0
    }
  }
}
layer {
  name: "relu2"
  type: "ReLU"
  bottom: "cccp2"
  top: "cccp2"
}
layer {
  name: "pool0"
  type: "Pooling"
  bottom: "cccp2"
  top: "pool0"
  pooling_param {
    pool: MAX
    kernel_size: 3
    stride: 2
  }
}
layer {
  name: "conv2"
  type: "Convolution"
  bottom: "pool0"
  top: "conv2"
  param {
    lr_mult: 1
    decay_mult: 1
  }
  param {
    lr_mult: 2
    decay_mult: 0
  }
  convolution_param {
    num_output: 256
    pad: 2
    kernel_size: 5
    stride: 1
    weight_filler {
      type: "gaussian"
      mean: 0
      std: 0.05
    }
    bias_filler {
      type: "constant"
      value: 0
    }
  }
}
layer {
  name: "relu3"
  type: "ReLU"
  bottom: "conv2"
  top: "conv2"
}
layer {
  name: "cccp3"
  type: "Convolution"
  bottom: "conv2"
  top: "cccp3"
  param {
    lr_mult: 1
    decay_mult: 1
  }
  param {
    lr_mult: 2
    decay_mult: 0
  }
  convolution_param {
    num_output: 256
    kernel_size: 1
    stride: 1
    weight_filler {
      type: "gaussian"
      mean: 0
      std: 0.05
    }
    bias_filler {
      type: "constant"
      value: 0
    }
  }
}
layer {
  name: "relu5"
  type: "ReLU"
  bottom: "cccp3"
  top: "cccp3"
}
layer {
  name: "cccp4"
  type: "Convolution"
  bottom: "cccp3"
  top: "cccp4"
  param {
    lr_mult: 1
    decay_mult: 1
  }
  param {
    lr_mult: 2
    decay_mult: 0
  }
  convolution_param {
    num_output: 256
    kernel_size: 1
    stride: 1
    weight_filler {
      type: "gaussian"
      mean: 0
      std: 0.05
    }
    bias_filler {
      type: "constant"
      value: 0
    }
  }
}
layer {
  name: "relu6"
  type: "ReLU"
  bottom: "cccp4"
  top: "cccp4"
}
layer {
  name: "pool2"
  type: "Pooling"
  bottom: "cccp4"
  top: "pool2"
  pooling_param {
    pool: MAX
    kernel_size: 3
    stride: 2
  }
}
layer {
  name: "conv3"
  type: "Convolution"
  bottom: "pool2"
  top: "conv3"
  param {
    lr_mult: 1
    decay_mult: 1
  }
  param {
    lr_mult: 2
    decay_mult: 0
  }
  convolution_param {
    num_output: 384
    pad: 1
    kernel_size: 3
    stride: 1
    weight_filler {
      type: "gaussian"
      mean: 0
      std: 0.01
    }
    bias_filler {
      type: "constant"
      value: 0
    }
  }
}
layer {
  name: "relu7"
  type: "ReLU"
  bottom: "conv3"
  top: "conv3"
}
layer {
  name: "cccp5"
  type: "Convolution"
  bottom: "conv3"
  top: "cccp5"
  param {
    lr_mult: 1
    decay_mult: 1
  }
  param {
    lr_mult: 2
    decay_mult: 0
  }
  convolution_param {
    num_output: 384
    kernel_size: 1
    stride: 1
    weight_filler {
      type: "gaussian"
      mean: 0
      std: 0.05
    }
    bias_filler {
      type: "constant"
      value: 0
    }
  }
}
layer {
  name: "relu8"
  type: "ReLU"
  bottom: "cccp5"
  top: "cccp5"
}
layer {
  name: "cccp6"
  type: "Convolution"
  bottom: "cccp5"
  top: "cccp6"
  param {
    lr_mult: 1
    decay_mult: 1
  }
  param {
    lr_mult: 2
    decay_mult: 0
  }
  convolution_param {
    num_output: 384
    kernel_size: 1
    stride: 1
    weight_filler {
      type: "gaussian"
      mean: 0
      std: 0.05
    }
    bias_filler {
      type: "constant"
      value: 0
    }
  }
}
layer {
  name: "relu9"
  type: "ReLU"
  bottom: "cccp6"
  top: "cccp6"
}
layer {
  name: "pool3"
  type: "Pooling"
  bottom: "cccp6"
  top: "pool3"
  pooling_param {
    pool: MAX
    kernel_size: 3
    stride: 2
  }
}
layer {
  name: "drop"
  type: "Dropout"
  bottom: "pool3"
  top: "pool3"
  dropout_param {
    dropout_ratio: 0.5
  }
}
layer {
  name: "conv4-1024"
  type: "Convolution"
  bottom: "pool3"
  top: "conv4"
  param {
    lr_mult: 1
    decay_mult: 1
  }
  param {
    lr_mult: 2
    decay_mult: 0
  }
  convolution_param {
    num_output: 1024
    pad: 1
    kernel_size: 3
    stride: 1
    weight_filler {
      type: "gaussian"
      mean: 0
      std: 0.05
    }
    bias_filler {
      type: "constant"
      value: 0
    }
  }
}
layer {
  name: "relu10"
  type: "ReLU"
  bottom: "conv4"
  top: "conv4"
}
layer {
  name: "cccp7-1024"
  type: "Convolution"
  bottom: "conv4"
  top: "cccp7"
  param {
    lr_mult: 1
    decay_mult: 1
  }
  param {
    lr_mult: 2
    decay_mult: 0
  }
  convolution_param {
    num_output: 1024
    kernel_size: 1
    stride: 1
    weight_filler {
      type: "gaussian"
      mean: 0
      std: 0.05
    }
    bias_filler {
      type: "constant"
      value: 0
    }
  }
}
layer {
  name: "relu11"
  type: "ReLU"
  bottom: "cccp7"
  top: "cccp7"
}
layer {
  name: "pool4"
  type: "Pooling"
  bottom: "cccp7"
  top: "pool4"
  pooling_param {
    pool: MAX
    kernel_size: 6
    stride: 1
  }
}
layer {
  name: "fc5_category"
  type: "InnerProduct"
  bottom: "pool4"
  top: "fc5_category"
  param {
    lr_mult: 10
    decay_mult: 1
  }
  param {
    lr_mult: 20
    decay_mult: 0
  }
  inner_product_param {
    num_output: 26
    weight_filler {
      type: "gaussian"
      std: 0.01
    }
    bias_filler {
      type: "constant"
      value: 0
    }
  }
}
layer {
  name: "loss_category"
  type: "SoftmaxWithLoss"
  bottom: "fc5_category"
  bottom: "label_category"
}
layer {
  name: "fc5_pattern"
  type: "InnerProduct"
  bottom: "pool4"
  top: "fc5_pattern"
  param {
    lr_mult: 10
    decay_mult: 1
  }
  param {
    lr_mult: 20
    decay_mult: 0
  }
  inner_product_param {
    num_output: 20
    weight_filler {
      type: "gaussian"
      std: 0.01
    }
    bias_filler {
      type: "constant"
      value: 0
    }
  }
}
layer {
  name: "loss_pattern"
  type: "SoftmaxWithLoss"
  bottom: "fc5_pattern"
  bottom: "label_pattern"
  loss_param {
    ignore_label: 0
  }
}
layer {
  name: "fc5_neck"
  type: "InnerProduct"
  bottom: "pool4"
  top: "fc5_neck"
  param {
    lr_mult: 10
    decay_mult: 1
  }
  param {
    lr_mult: 20
    decay_mult: 0
  }
  inner_product_param {
    num_output: 23
    weight_filler {
      type: "gaussian"
      std: 0.01
    }
    bias_filler {
      type: "constant"
      value: 0
    }
  }
}
layer {
  name: "loss_neck"
  type: "SoftmaxWithLoss"
  bottom: "fc5_neck"
  bottom: "label_neck"
  loss_param {
    ignore_label: 0
  }
}
layer {
  name: "fc5_sleeve"
  type: "InnerProduct"
  bottom: "pool4"
  top: "fc5_sleeve"
  param {
    lr_mult: 10
    decay_mult: 1
  }
  param {
    lr_mult: 20
    decay_mult: 0
  }
  inner_product_param {
    num_output: 9
    weight_filler {
      type: "gaussian"
      std: 0.01
    }
    bias_filler {
      type: "constant"
      value: 0
    }
  }
}
layer {
  name: "loss_sleeve"
  type: "SoftmaxWithLoss"
  bottom: "fc5_sleeve"
  bottom: "label_sleeve"
  loss_param {
    ignore_label: 0
  }
}
layer {
  name: "fc5_fit"
  type: "InnerProduct"
  bottom: "pool4"
  top: "fc5_fit"
  param {
    lr_mult: 10
    decay_mult: 1
  }
  param {
    lr_mult: 20
    decay_mult: 0
  }
  inner_product_param {
    num_output: 26
    weight_filler {
      type: "gaussian"
      std: 0.01
    }
    bias_filler {
      type: "constant"
      value: 0
    }
  }
}
layer {
  name: "loss_fit"
  type: "SoftmaxWithLoss"
  bottom: "fc5_fit"
  bottom: "label_fit"
  loss_param {
    ignore_label: 0
  }
}
layer {
  name: "fc5_ideal_for"
  type: "InnerProduct"
  bottom: "pool4"
  top: "fc5_ideal_for"
  param {
    lr_mult: 10
    decay_mult: 1
  }
  param {
    lr_mult: 20
    decay_mult: 0
  }
  inner_product_param {
    num_output: 7
    weight_filler {
      type: "gaussian"
      std: 0.01
    }
    bias_filler {
      type: "constant"
      value: 0
    }
  }
}
layer {
  name: "loss_ideal_for"
  type: "SoftmaxWithLoss"
  bottom: "fc5_ideal_for"
  bottom: "label_ideal_for"
  loss_param {
    ignore_label: 0
  }
}
layer {
  name: "fc5_occasion"
  type: "InnerProduct"
  bottom: "pool4"
  top: "fc5_occasion"
  param {
    lr_mult: 10
    decay_mult: 1
  }
  param {
    lr_mult: 20
    decay_mult: 0
  }
  inner_product_param {
    num_output: 38
    weight_filler {
      type: "gaussian"
      std: 0.01
    }
    bias_filler {
      type: "constant"
      value: 0
    }
  }
}
layer {
  name: "loss_occasion"
  type: "SoftmaxWithLoss"
  bottom: "fc5_occasion"
  bottom: "label_occasion"
  loss_param {
    ignore_label: 0
  }
}
I0503 03:58:52.161046 29183 layer_factory.hpp:74] Creating layer data
I0503 03:58:52.161098 29183 net.cpp:84] Creating Layer data
I0503 03:58:52.161128 29183 net.cpp:338] data -> data
I0503 03:58:52.161175 29183 net.cpp:338] data -> label_category
I0503 03:58:52.161207 29183 net.cpp:338] data -> label_pattern
I0503 03:58:52.161233 29183 net.cpp:338] data -> label_neck
…
I0503 03:58:52.441562 29183 image_data_multclass_layer.cpp:75] ##############################################
I0503 03:58:52.441572 29183 image_data_multclass_layer.cpp:76] ##############################################
I0503 03:58:52.441581 29183 image_data_multclass_layer.cpp:77] size of top: 8
I0503 03:58:52.448443 29183 image_data_multclass_layer.cpp:95] output data size: 64,3,224,224
I0503 03:58:52.448477 29183 image_data_multclass_layer.cpp:99] number of labels: 7
I0503 03:58:52.448528 29183 data_transformer.cpp:22] Loading mean file from: data/ilsvrc12/imagenet_mean.binaryproto
I0503 03:58:52.461109 29183 net.cpp:120] Top shape: 64 3 224 224 (9633792)
I0503 03:58:52.461161 29183 net.cpp:120] Top shape: 64 (64)
I0503 03:58:52.461175 29183 net.cpp:120] Top shape: 64 (64)
I0503 03:58:52.461187 29183 net.cpp:120] Top shape: 64 (64)
I0503 03:58:52.461199 29183 net.cpp:120] Top shape: 64 (64)
I0503 03:58:52.461210 29183 net.cpp:120] Top shape: 64 (64)
I0503 03:58:52.461221 29183 net.cpp:120] Top shape: 64 (64)
I0503 03:58:52.461233 29183 net.cpp:120] Top shape: 64 (64)
I0503 03:58:52.461251 29183 layer_factory.hpp:74] Creating layer conv1
I0503 03:58:52.461287 29183 net.cpp:84] Creating Layer conv1
I0503 03:58:52.461303 29183 net.cpp:380] conv1 <- data
I0503 03:58:52.461328 29183 net.cpp:338] conv1 -> conv1
I0503 03:58:52.461356 29183 net.cpp:113] Setting up conv1
I0503 03:58:52.462719 29183 net.cpp:120] Top shape: 64 96 54 54 (17915904)
I0503 03:58:52.462774 29183 layer_factory.hpp:74] Creating layer relu0
I0503 03:58:52.462793 29183 net.cpp:84] Creating Layer relu0
I0503 03:58:52.462816 29183 net.cpp:380] relu0 <- conv1
I0503 03:58:52.462833 29183 net.cpp:327] relu0 -> conv1 (in-place)
I0503 03:58:52.462848 29183 net.cpp:113] Setting up relu0
I0503 03:58:52.462867 29183 net.cpp:120] Top shape: 64 96 54 54 (17915904)
I0503 03:58:52.462877 29183 layer_factory.hpp:74] Creating layer cccp1
I0503 03:58:52.462895 29183 net.cpp:84] Creating Layer cccp1
I0503 03:58:52.462906 29183 net.cpp:380] cccp1 <- conv1
I0503 03:58:52.462923 29183 net.cpp:338] cccp1 -> cccp1
I0503 03:58:52.462939 29183 net.cpp:113] Setting up cccp1
I0503 03:58:52.463311 29183 net.cpp:120] Top shape: 64 96 54 54 (17915904)
I0503 03:58:52.463340 29183 layer_factory.hpp:74] Creating layer relu1
I0503 03:58:52.463356 29183 net.cpp:84] Creating Layer relu1
I0503 03:58:52.463368 29183 net.cpp:380] relu1 <- cccp1
I0503 03:58:52.463382 29183 net.cpp:327] relu1 -> cccp1 (in-place)
I0503 03:58:52.463393 29183 net.cpp:113] Setting up relu1
I0503 03:58:52.463407 29183 net.cpp:120] Top shape: 64 96 54 54 (17915904)
I0503 03:58:52.463418 29183 layer_factory.hpp:74] Creating layer cccp2
I0503 03:58:52.463433 29183 net.cpp:84] Creating Layer cccp2
I0503 03:58:52.463443 29183 net.cpp:380] cccp2 <- cccp1
I0503 03:58:52.463456 29183 net.cpp:338] cccp2 -> cccp2
I0503 03:58:52.463472 29183 net.cpp:113] Setting up cccp2
I0503 03:58:52.463850 29183 net.cpp:120] Top shape: 64 96 54 54 (17915904)
I0503 03:58:52.463877 29183 layer_factory.hpp:74] Creating layer relu2
I0503 03:58:52.463892 29183 net.cpp:84] Creating Layer relu2
I0503 03:58:52.463939 29183 net.cpp:380] relu2 <- cccp2
I0503 03:58:52.463953 29183 net.cpp:327] relu2 -> cccp2 (in-place)
I0503 03:58:52.463968 29183 net.cpp:113] Setting up relu2
I0503 03:58:52.463981 29183 net.cpp:120] Top shape: 64 96 54 54 (17915904)
I0503 03:58:52.463992 29183 layer_factory.hpp:74] Creating layer pool0
I0503 03:58:52.464007 29183 net.cpp:84] Creating Layer pool0
I0503 03:58:52.464017 29183 net.cpp:380] pool0 <- cccp2
I0503 03:58:52.464030 29183 net.cpp:338] pool0 -> pool0
I0503 03:58:52.464047 29183 net.cpp:113] Setting up pool0
I0503 03:58:52.464078 29183 net.cpp:120] Top shape: 64 96 27 27 (4478976)
I0503 03:58:52.464092 29183 layer_factory.hpp:74] Creating layer conv2
I0503 03:58:52.464108 29183 net.cpp:84] Creating Layer conv2
I0503 03:58:52.464119 29183 net.cpp:380] conv2 <- pool0
I0503 03:58:52.464135 29183 net.cpp:338] conv2 -> conv2
I0503 03:58:52.464150 29183 net.cpp:113] Setting up conv2
I0503 03:58:52.487591 29183 net.cpp:120] Top shape: 64 256 27 27 (11943936)
I0503 03:58:52.487629 29183 layer_factory.hpp:74] Creating layer relu3
I0503 03:58:52.487648 29183 net.cpp:84] Creating Layer relu3
I0503 03:58:52.487659 29183 net.cpp:380] relu3 <- conv2
I0503 03:58:52.487673 29183 net.cpp:327] relu3 -> conv2 (in-place)
I0503 03:58:52.487686 29183 net.cpp:113] Setting up relu3
I0503 03:58:52.487699 29183 net.cpp:120] Top shape: 64 256 27 27 (11943936)
I0503 03:58:52.487709 29183 layer_factory.hpp:74] Creating layer cccp3
I0503 03:58:52.487725 29183 net.cpp:84] Creating Layer cccp3
I0503 03:58:52.487735 29183 net.cpp:380] cccp3 <- conv2
I0503 03:58:52.487751 29183 net.cpp:338] cccp3 -> cccp3
I0503 03:58:52.487767 29183 net.cpp:113] Setting up cccp3
I0503 03:58:52.490298 29183 net.cpp:120] Top shape: 64 256 27 27 (11943936)
I0503 03:58:52.490366 29183 layer_factory.hpp:74] Creating layer relu5
I0503 03:58:52.490382 29183 net.cpp:84] Creating Layer relu5
I0503 03:58:52.490393 29183 net.cpp:380] relu5 <- cccp3
I0503 03:58:52.490409 29183 net.cpp:327] relu5 -> cccp3 (in-place)
I0503 03:58:52.490422 29183 net.cpp:113] Setting up relu5
I0503 03:58:52.490435 29183 net.cpp:120] Top shape: 64 256 27 27 (11943936)
I0503 03:58:52.490449 29183 layer_factory.hpp:74] Creating layer cccp4
I0503 03:58:52.490466 29183 net.cpp:84] Creating Layer cccp4
I0503 03:58:52.490476 29183 net.cpp:380] cccp4 <- cccp3
I0503 03:58:52.490494 29183 net.cpp:338] cccp4 -> cccp4
I0503 03:58:52.490512 29183 net.cpp:113] Setting up cccp4
I0503 03:58:52.493077 29183 net.cpp:120] Top shape: 64 256 27 27 (11943936)
I0503 03:58:52.493106 29183 layer_factory.hpp:74] Creating layer relu6
I0503 03:58:52.493122 29183 net.cpp:84] Creating Layer relu6
I0503 03:58:52.493134 29183 net.cpp:380] relu6 <- cccp4
I0503 03:58:52.493149 29183 net.cpp:327] relu6 -> cccp4 (in-place)
I0503 03:58:52.493161 29183 net.cpp:113] Setting up relu6
I0503 03:58:52.493175 29183 net.cpp:120] Top shape: 64 256 27 27 (11943936)
I0503 03:58:52.493185 29183 layer_factory.hpp:74] Creating layer pool2
I0503 03:58:52.493198 29183 net.cpp:84] Creating Layer pool2
I0503 03:58:52.493208 29183 net.cpp:380] pool2 <- cccp4
I0503 03:58:52.493222 29183 net.cpp:338] pool2 -> pool2
I0503 03:58:52.493237 29183 net.cpp:113] Setting up pool2
I0503 03:58:52.493253 29183 net.cpp:120] Top shape: 64 256 13 13 (2768896)
I0503 03:58:52.493264 29183 layer_factory.hpp:74] Creating layer conv3
I0503 03:58:52.493278 29183 net.cpp:84] Creating Layer conv3
I0503 03:58:52.493288 29183 net.cpp:380] conv3 <- pool2
I0503 03:58:52.493304 29183 net.cpp:338] conv3 -> conv3
I0503 03:58:52.493322 29183 net.cpp:113] Setting up conv3
I0503 03:58:52.527286 29183 net.cpp:120] Top shape: 64 384 13 13 (4153344)
I0503 03:58:52.527333 29183 layer_factory.hpp:74] Creating layer relu7
I0503 03:58:52.527357 29183 net.cpp:84] Creating Layer relu7
I0503 03:58:52.527370 29183 net.cpp:380] relu7 <- conv3
I0503 03:58:52.527385 29183 net.cpp:327] relu7 -> conv3 (in-place)
I0503 03:58:52.527401 29183 net.cpp:113] Setting up relu7
I0503 03:58:52.527415 29183 net.cpp:120] Top shape: 64 384 13 13 (4153344)
I0503 03:58:52.527459 29183 layer_factory.hpp:74] Creating layer cccp5
I0503 03:58:52.527477 29183 net.cpp:84] Creating Layer cccp5
I0503 03:58:52.527488 29183 net.cpp:380] cccp5 <- conv3
I0503 03:58:52.527505 29183 net.cpp:338] cccp5 -> cccp5
I0503 03:58:52.527523 29183 net.cpp:113] Setting up cccp5
I0503 03:58:52.533226 29183 net.cpp:120] Top shape: 64 384 13 13 (4153344)
I0503 03:58:52.533257 29183 layer_factory.hpp:74] Creating layer relu8
I0503 03:58:52.533274 29183 net.cpp:84] Creating Layer relu8
I0503 03:58:52.533285 29183 net.cpp:380] relu8 <- cccp5
I0503 03:58:52.533299 29183 net.cpp:327] relu8 -> cccp5 (in-place)
I0503 03:58:52.533314 29183 net.cpp:113] Setting up relu8
I0503 03:58:52.533326 29183 net.cpp:120] Top shape: 64 384 13 13 (4153344)
I0503 03:58:52.533336 29183 layer_factory.hpp:74] Creating layer cccp6
I0503 03:58:52.533351 29183 net.cpp:84] Creating Layer cccp6
I0503 03:58:52.533362 29183 net.cpp:380] cccp6 <- cccp5
I0503 03:58:52.533377 29183 net.cpp:338] cccp6 -> cccp6
I0503 03:58:52.533392 29183 net.cpp:113] Setting up cccp6
I0503 03:58:52.539108 29183 net.cpp:120] Top shape: 64 384 13 13 (4153344)
I0503 03:58:52.539142 29183 layer_factory.hpp:74] Creating layer relu9
I0503 03:58:52.539161 29183 net.cpp:84] Creating Layer relu9
I0503 03:58:52.539173 29183 net.cpp:380] relu9 <- cccp6
I0503 03:58:52.539187 29183 net.cpp:327] relu9 -> cccp6 (in-place)
I0503 03:58:52.539201 29183 net.cpp:113] Setting up relu9
I0503 03:58:52.539212 29183 net.cpp:120] Top shape: 64 384 13 13 (4153344)
I0503 03:58:52.539223 29183 layer_factory.hpp:74] Creating layer pool3
I0503 03:58:52.539237 29183 net.cpp:84] Creating Layer pool3
I0503 03:58:52.539247 29183 net.cpp:380] pool3 <- cccp6
I0503 03:58:52.539263 29183 net.cpp:338] pool3 -> pool3
I0503 03:58:52.539276 29183 net.cpp:113] Setting up pool3
I0503 03:58:52.539294 29183 net.cpp:120] Top shape: 64 384 6 6 (884736)
I0503 03:58:52.539304 29183 layer_factory.hpp:74] Creating layer drop
I0503 03:58:52.539322 29183 net.cpp:84] Creating Layer drop
I0503 03:58:52.539333 29183 net.cpp:380] drop <- pool3
I0503 03:58:52.539346 29183 net.cpp:327] drop -> pool3 (in-place)
I0503 03:58:52.539363 29183 net.cpp:113] Setting up drop
I0503 03:58:52.539386 29183 net.cpp:120] Top shape: 64 384 6 6 (884736)
I0503 03:58:52.539397 29183 layer_factory.hpp:74] Creating layer conv4-1024
I0503 03:58:52.539412 29183 net.cpp:84] Creating Layer conv4-1024
I0503 03:58:52.539422 29183 net.cpp:380] conv4-1024 <- pool3
I0503 03:58:52.539441 29183 net.cpp:338] conv4-1024 -> conv4
I0503 03:58:52.539458 29183 net.cpp:113] Setting up conv4-1024
I0503 03:58:52.672969 29183 net.cpp:120] Top shape: 64 1024 6 6 (2359296)
I0503 03:58:52.673024 29183 layer_factory.hpp:74] Creating layer relu10
I0503 03:58:52.673050 29183 net.cpp:84] Creating Layer relu10
I0503 03:58:52.673064 29183 net.cpp:380] relu10 <- conv4
I0503 03:58:52.673081 29183 net.cpp:327] relu10 -> conv4 (in-place)
I0503 03:58:52.673097 29183 net.cpp:113] Setting up relu10
I0503 03:58:52.673111 29183 net.cpp:120] Top shape: 64 1024 6 6 (2359296)
I0503 03:58:52.673121 29183 layer_factory.hpp:74] Creating layer cccp7-1024
I0503 03:58:52.673140 29183 net.cpp:84] Creating Layer cccp7-1024
I0503 03:58:52.673159 29183 net.cpp:380] cccp7-1024 <- conv4
I0503 03:58:52.673187 29183 net.cpp:338] cccp7-1024 -> cccp7
I0503 03:58:52.673207 29183 net.cpp:113] Setting up cccp7-1024
I0503 03:58:52.712719 29183 net.cpp:120] Top shape: 64 1024 6 6 (2359296)
I0503 03:58:52.712757 29183 layer_factory.hpp:74] Creating layer relu11
I0503 03:58:52.712774 29183 net.cpp:84] Creating Layer relu11
I0503 03:58:52.712785 29183 net.cpp:380] relu11 <- cccp7
I0503 03:58:52.712800 29183 net.cpp:327] relu11 -> cccp7 (in-place)
I0503 03:58:52.712815 29183 net.cpp:113] Setting up relu11
I0503 03:58:52.712827 29183 net.cpp:120] Top shape: 64 1024 6 6 (2359296)
I0503 03:58:52.712837 29183 layer_factory.hpp:74] Creating layer pool4
I0503 03:58:52.712853 29183 net.cpp:84] Creating Layer pool4
I0503 03:58:52.712863 29183 net.cpp:380] pool4 <- cccp7
I0503 03:58:52.712878 29183 net.cpp:338] pool4 -> pool4
I0503 03:58:52.712936 29183 net.cpp:113] Setting up pool4
I0503 03:58:52.712957 29183 net.cpp:120] Top shape: 64 1024 1 1 (65536)
I0503 03:58:52.712977 29183 layer_factory.hpp:74] Creating layer pool4_pool4_0_split
I0503 03:58:52.713001 29183 net.cpp:84] Creating Layer pool4_pool4_0_split
I0503 03:58:52.713012 29183 net.cpp:380] pool4_pool4_0_split <- pool4
I0503 03:58:52.713027 29183 net.cpp:338] pool4_pool4_0_split -> pool4_pool4_0_split_0
I0503 03:58:52.713045 29183 net.cpp:338] pool4_pool4_0_split -> pool4_pool4_0_split_1
I0503 03:58:52.713063 29183 net.cpp:338] pool4_pool4_0_split -> pool4_pool4_0_split_2
I0503 03:58:52.713080 29183 net.cpp:338] pool4_pool4_0_split -> pool4_pool4_0_split_3
I0503 03:58:52.713098 29183 net.cpp:338] pool4_pool4_0_split -> pool4_pool4_0_split_4
I0503 03:58:52.713114 29183 net.cpp:338] pool4_pool4_0_split -> pool4_pool4_0_split_5
I0503 03:58:52.713130 29183 net.cpp:338] pool4_pool4_0_split -> pool4_pool4_0_split_6
I0503 03:58:52.713143 29183 net.cpp:113] Setting up pool4_pool4_0_split
I0503 03:58:52.713165 29183 net.cpp:120] Top shape: 64 1024 1 1 (65536)
I0503 03:58:52.713176 29183 net.cpp:120] Top shape: 64 1024 1 1 (65536)
I0503 03:58:52.713187 29183 net.cpp:120] Top shape: 64 1024 1 1 (65536)
I0503 03:58:52.713207 29183 net.cpp:120] Top shape: 64 1024 1 1 (65536)
I0503 03:58:52.713218 29183 net.cpp:120] Top shape: 64 1024 1 1 (65536)
I0503 03:58:52.713229 29183 net.cpp:120] Top shape: 64 1024 1 1 (65536)
I0503 03:58:52.713242 29183 net.cpp:120] Top shape: 64 1024 1 1 (65536)
I0503 03:58:52.713251 29183 layer_factory.hpp:74] Creating layer fc5_category
I0503 03:58:52.713273 29183 net.cpp:84] Creating Layer fc5_category
I0503 03:58:52.713284 29183 net.cpp:380] fc5_category <- pool4_pool4_0_split_0
I0503 03:58:52.713300 29183 net.cpp:338] fc5_category -> fc5_category
I0503 03:58:52.713320 29183 net.cpp:113] Setting up fc5_category
I0503 03:58:52.714368 29183 net.cpp:120] Top shape: 64 26 (1664)
I0503 03:58:52.714401 29183 layer_factory.hpp:74] Creating layer loss_category
I0503 03:58:52.714419 29183 net.cpp:84] Creating Layer loss_category
I0503 03:58:52.714431 29183 net.cpp:380] loss_category <- fc5_category
I0503 03:58:52.714443 29183 net.cpp:380] loss_category <- label_category
I0503 03:58:52.714459 29183 net.cpp:338] loss_category -> (automatic)
I0503 03:58:52.714473 29183 net.cpp:113] Setting up loss_category
I0503 03:58:52.714493 29183 layer_factory.hpp:74] Creating layer loss_category
I0503 03:58:52.714541 29183 net.cpp:120] Top shape: (1)
I0503 03:58:52.714555 29183 net.cpp:122]     with loss weight 1
I0503 03:58:52.714591 29183 layer_factory.hpp:74] Creating layer fc5_pattern
I0503 03:58:52.714607 29183 net.cpp:84] Creating Layer fc5_pattern
I0503 03:58:52.714618 29183 net.cpp:380] fc5_pattern <- pool4_pool4_0_split_1
I0503 03:58:52.714633 29183 net.cpp:338] fc5_pattern -> fc5_pattern
I0503 03:58:52.714658 29183 net.cpp:113] Setting up fc5_pattern
I0503 03:58:52.715477 29183 net.cpp:120] Top shape: 64 20 (1280)
I0503 03:58:52.715507 29183 layer_factory.hpp:74] Creating layer loss_pattern
I0503 03:58:52.715531 29183 net.cpp:84] Creating Layer loss_pattern
I0503 03:58:52.715543 29183 net.cpp:380] loss_pattern <- fc5_pattern
I0503 03:58:52.715556 29183 net.cpp:380] loss_pattern <- label_pattern
I0503 03:58:52.715571 29183 net.cpp:338] loss_pattern -> (automatic)
I0503 03:58:52.715587 29183 net.cpp:113] Setting up loss_pattern
I0503 03:58:52.715600 29183 layer_factory.hpp:74] Creating layer loss_pattern
I0503 03:58:52.715625 29183 softmax_loss_layer.cpp:29] loss has ignore_label: 0
I0503 03:58:52.715642 29183 net.cpp:120] Top shape: (1)
I0503 03:58:52.715653 29183 net.cpp:122]     with loss weight 1
I0503 03:58:52.715668 29183 layer_factory.hpp:74] Creating layer fc5_neck
I0503 03:58:52.715684 29183 net.cpp:84] Creating Layer fc5_neck
I0503 03:58:52.715695 29183 net.cpp:380] fc5_neck <- pool4_pool4_0_split_2
I0503 03:58:52.715713 29183 net.cpp:338] fc5_neck -> fc5_neck
I0503 03:58:52.715729 29183 net.cpp:113] Setting up fc5_neck
I0503 03:58:52.716658 29183 net.cpp:120] Top shape: 64 23 (1472)
I0503 03:58:52.716702 29183 layer_factory.hpp:74] Creating layer loss_neck
I0503 03:58:52.716718 29183 net.cpp:84] Creating Layer loss_neck
I0503 03:58:52.716729 29183 net.cpp:380] loss_neck <- fc5_neck
I0503 03:58:52.716742 29183 net.cpp:380] loss_neck <- label_neck
I0503 03:58:52.716754 29183 net.cpp:338] loss_neck -> (automatic)
I0503 03:58:52.716768 29183 net.cpp:113] Setting up loss_neck
I0503 03:58:52.716779 29183 layer_factory.hpp:74] Creating layer loss_neck
I0503 03:58:52.716804 29183 softmax_loss_layer.cpp:29] loss has ignore_label: 0
I0503 03:58:52.716821 29183 net.cpp:120] Top shape: (1)
I0503 03:58:52.716832 29183 net.cpp:122]     with loss weight 1
I0503 03:58:52.716847 29183 layer_factory.hpp:74] Creating layer fc5_sleeve
I0503 03:58:52.716866 29183 net.cpp:84] Creating Layer fc5_sleeve
I0503 03:58:52.716876 29183 net.cpp:380] fc5_sleeve <- pool4_pool4_0_split_3
I0503 03:58:52.716893 29183 net.cpp:338] fc5_sleeve -> fc5_sleeve
I0503 03:58:52.716908 29183 net.cpp:113] Setting up fc5_sleeve
I0503 03:58:52.717286 29183 net.cpp:120] Top shape: 64 9 (576)
I0503 03:58:52.717314 29183 layer_factory.hpp:74] Creating layer loss_sleeve
I0503 03:58:52.717327 29183 net.cpp:84] Creating Layer loss_sleeve
I0503 03:58:52.717339 29183 net.cpp:380] loss_sleeve <- fc5_sleeve
I0503 03:58:52.717351 29183 net.cpp:380] loss_sleeve <- label_sleeve
I0503 03:58:52.717365 29183 net.cpp:338] loss_sleeve -> (automatic)
I0503 03:58:52.717377 29183 net.cpp:113] Setting up loss_sleeve
I0503 03:58:52.717389 29183 layer_factory.hpp:74] Creating layer loss_sleeve
I0503 03:58:52.717416 29183 softmax_loss_layer.cpp:29] loss has ignore_label: 0
I0503 03:58:52.717437 29183 net.cpp:120] Top shape: (1)
I0503 03:58:52.717447 29183 net.cpp:122]     with loss weight 1
I0503 03:58:52.717463 29183 layer_factory.hpp:74] Creating layer fc5_fit
I0503 03:58:52.717481 29183 net.cpp:84] Creating Layer fc5_fit
I0503 03:58:52.717501 29183 net.cpp:380] fc5_fit <- pool4_pool4_0_split_4
I0503 03:58:52.717519 29183 net.cpp:338] fc5_fit -> fc5_fit
I0503 03:58:52.717535 29183 net.cpp:113] Setting up fc5_fit
I0503 03:58:52.718569 29183 net.cpp:120] Top shape: 64 26 (1664)
I0503 03:58:52.718600 29183 layer_factory.hpp:74] Creating layer loss_fit
I0503 03:58:52.718619 29183 net.cpp:84] Creating Layer loss_fit
I0503 03:58:52.718631 29183 net.cpp:380] loss_fit <- fc5_fit
I0503 03:58:52.718646 29183 net.cpp:380] loss_fit <- label_fit
I0503 03:58:52.718658 29183 net.cpp:338] loss_fit -> (automatic)
I0503 03:58:52.718672 29183 net.cpp:113] Setting up loss_fit
I0503 03:58:52.718684 29183 layer_factory.hpp:74] Creating layer loss_fit
I0503 03:58:52.718710 29183 softmax_loss_layer.cpp:29] loss has ignore_label: 0
I0503 03:58:52.718729 29183 net.cpp:120] Top shape: (1)
I0503 03:58:52.718750 29183 net.cpp:122]     with loss weight 1
I0503 03:58:52.718765 29183 layer_factory.hpp:74] Creating layer fc5_ideal_for
I0503 03:58:52.718783 29183 net.cpp:84] Creating Layer fc5_ideal_for
I0503 03:58:52.718796 29183 net.cpp:380] fc5_ideal_for <- pool4_pool4_0_split_5
I0503 03:58:52.718832 29183 net.cpp:338] fc5_ideal_for -> fc5_ideal_for
I0503 03:58:52.718849 29183 net.cpp:113] Setting up fc5_ideal_for
I0503 03:58:52.719146 29183 net.cpp:120] Top shape: 64 7 (448)
I0503 03:58:52.719178 29183 layer_factory.hpp:74] Creating layer loss_ideal_for
I0503 03:58:52.719193 29183 net.cpp:84] Creating Layer loss_ideal_for
I0503 03:58:52.719205 29183 net.cpp:380] loss_ideal_for <- fc5_ideal_for
I0503 03:58:52.719218 29183 net.cpp:380] loss_ideal_for <- label_ideal_for
I0503 03:58:52.719231 29183 net.cpp:338] loss_ideal_for -> (automatic)
I0503 03:58:52.719244 29183 net.cpp:113] Setting up loss_ideal_for
I0503 03:58:52.719257 29183 layer_factory.hpp:74] Creating layer loss_ideal_for
I0503 03:58:52.719277 29183 softmax_loss_layer.cpp:29] loss has ignore_label: 0
I0503 03:58:52.719305 29183 net.cpp:120] Top shape: (1)
I0503 03:58:52.719316 29183 net.cpp:122]     with loss weight 1
I0503 03:58:52.719332 29183 layer_factory.hpp:74] Creating layer fc5_occasion
I0503 03:58:52.719351 29183 net.cpp:84] Creating Layer fc5_occasion
I0503 03:58:52.719387 29183 net.cpp:380] fc5_occasion <- pool4_pool4_0_split_6
I0503 03:58:52.719405 29183 net.cpp:338] fc5_occasion -> fc5_occasion
I0503 03:58:52.719421 29183 net.cpp:113] Setting up fc5_occasion
I0503 03:58:52.720929 29183 net.cpp:120] Top shape: 64 38 (2432)
I0503 03:58:52.720959 29183 layer_factory.hpp:74] Creating layer loss_occasion
I0503 03:58:52.720973 29183 net.cpp:84] Creating Layer loss_occasion
I0503 03:58:52.720985 29183 net.cpp:380] loss_occasion <- fc5_occasion
I0503 03:58:52.720998 29183 net.cpp:380] loss_occasion <- label_occasion
I0503 03:58:52.721012 29183 net.cpp:338] loss_occasion -> (automatic)
I0503 03:58:52.721026 29183 net.cpp:113] Setting up loss_occasion
…
name: "nin_imagenet"
state {
  phase: TEST
}
layer {
  name: "data"
  type: "ImageDataMultLabel"
  top: "data"
  top: "label_category"
  top: "label_pattern"
  top: "label_neck"
  top: "label_sleeve"
  top: "label_fit"
  top: "label_ideal_for"
  top: "label_occasion"
  include {
    phase: TEST
  }
  transform_param {
    mirror: false
    crop_size: 224
    mean_file: "data/ilsvrc12/imagenet_mean.binaryproto"
  }
  image_data_mult_label_param {
    source: "/mnt/images/training/flipkart_yq2set/test.txt"
    batch_size: 64
    new_height: 256
    new_width: 256
  }
}
layer {
  name: "conv1"
  type: "Convolution"
  bottom: "data"
  top: "conv1"
  param {
    lr_mult: 1
    decay_mult: 1
  }
  param {
    lr_mult: 2
    decay_mult: 0
  }
  convolution_param {
    num_output: 96
    kernel_size: 11
    stride: 4
    weight_filler {
      type: "gaussian"
      mean: 0
      std: 0.01
    }
    bias_filler {
      type: "constant"
      value: 0
    }
  }
}
layer {
  name: "relu0"
  type: "ReLU"
  bottom: "conv1"
  top: "conv1"
}
layer {
  name: "cccp1"
  type: "Convolution"
  bottom: "conv1"
  top: "cccp1"
  param {
    lr_mult: 1
    decay_mult: 1
  }
  param {
    lr_mult: 2
    decay_mult: 0
  }
  convolution_param {
    num_output: 96
    kernel_size: 1
    stride: 1
    weight_filler {
      type: "gaussian"
      mean: 0
      std: 0.05
    }
    bias_filler {
      type: "constant"
      value: 0
    }
  }
}
layer {
  name: "relu1"
  type: "ReLU"
  bottom: "cccp1"
  top: "cccp1"
}
layer {
  name: "cccp2"
  type: "Convolution"
  bottom: "cccp1"
  top: "cccp2"
  param {
    lr_mult: 1
    decay_mult: 1
  }
  param {
    lr_mult: 2
    decay_mult: 0
  }
  convolution_param {
    num_output: 96
    kernel_size: 1
    stride: 1
    weight_filler {
      type: "gaussian"
      mean: 0
      std: 0.05
    }
    bias_filler {
      type: "constant"
      value: 0
    }
  }
}
layer {
  name: "relu2"
  type: "ReLU"
  bottom: "cccp2"
  top: "cccp2"
}
layer {
  name: "pool0"
  type: "Pooling"
  bottom: "cccp2"
  top: "pool0"
  pooling_param {
    pool: MAX
    kernel_size: 3
    stride: 2
  }
}
layer {
  name: "conv2"
  type: "Convolution"
  bottom: "pool0"
  top: "conv2"
  param {
    lr_mult: 1
    decay_mult: 1
  }
  param {
    lr_mult: 2
    decay_mult: 0
  }
  convolution_param {
    num_output: 256
    pad: 2
    kernel_size: 5
    stride: 1
    weight_filler {
      type: "gaussian"
      mean: 0
      std: 0.05
    }
    bias_filler {
      type: "constant"
      value: 0
    }
  }
}
layer {
  name: "relu3"
  type: "ReLU"
  bottom: "conv2"
  top: "conv2"
}
layer {
  name: "cccp3"
  type: "Convolution"
  bottom: "conv2"
  top: "cccp3"
  param {
    lr_mult: 1
    decay_mult: 1
  }
  param {
    lr_mult: 2
    decay_mult: 0
  }
  convolution_param {
    num_output: 256
    kernel_size: 1
    stride: 1
    weight_filler {
      type: "gaussian"
      mean: 0
      std: 0.05
    }
    bias_filler {
      type: "constant"
      value: 0
    }
  }
}
layer {
  name: "relu5"
  type: "ReLU"
  bottom: "cccp3"
  top: "cccp3"
}
layer {
  name: "cccp4"
  type: "Convolution"
  bottom: "cccp3"
  top: "cccp4"
  param {
    lr_mult: 1
    decay_mult: 1
  }
  param {
    lr_mult: 2
    decay_mult: 0
  }
  convolution_param {
    num_output: 256
    kernel_size: 1
    stride: 1
    weight_filler {
      type: "gaussian"
      mean: 0
      std: 0.05
    }
    bias_filler {
      type: "constant"
      value: 0
    }
  }
}
layer {
  name: "relu6"
  type: "ReLU"
  bottom: "cccp4"
  top: "cccp4"
}
layer {
  name: "pool2"
  type: "Pooling"
  bottom: "cccp4"
  top: "pool2"
  pooling_param {
    pool: MAX
    kernel_size: 3
    stride: 2
  }
}
layer {
  name: "conv3"
  type: "Convolution"
  bottom: "pool2"
  top: "conv3"
  param {
    lr_mult: 1
    decay_mult: 1
  }
  param {
    lr_mult: 2
    decay_mult: 0
  }
  convolution_param {
    num_output: 384
    pad: 1
    kernel_size: 3
    stride: 1
    weight_filler {
      type: "gaussian"
      mean: 0
      std: 0.01
    }
    bias_filler {
      type: "constant"
      value: 0
    }
  }
}
layer {
  name: "relu7"
  type: "ReLU"
  bottom: "conv3"
  top: "conv3"
}
layer {
  name: "cccp5"
  type: "Convolution"
  bottom: "conv3"
  top: "cccp5"
  param {
    lr_mult: 1
    decay_mult: 1
  }
  param {
    lr_mult: 2
    decay_mult: 0
  }
  convolution_param {
    num_output: 384
    kernel_size: 1
    stride: 1
    weight_filler {
      type: "gaussian"
      mean: 0
      std: 0.05
    }
    bias_filler {
      type: "constant"
      value: 0
    }
  }
}
layer {
  name: "relu8"
  type: "ReLU"
  bottom: "cccp5"
  top: "cccp5"
}
layer {
  name: "cccp6"
  type: "Convolution"
  bottom: "cccp5"
  top: "cccp6"
  param {
    lr_mult: 1
    decay_mult: 1
  }
  param {
    lr_mult: 2
    decay_mult: 0
  }
  convolution_param {
    num_output: 384
    kernel_size: 1
    stride: 1
    weight_filler {
      type: "gaussian"
      mean: 0
      std: 0.05
    }
    bias_filler {
      type: "constant"
      value: 0
    }
  }
}
layer {
  name: "relu9"
  type: "ReLU"
  bottom: "cccp6"
  top: "cccp6"
}
layer {
  name: "pool3"
  type: "Pooling"
  bottom: "cccp6"
  top: "pool3"
  pooling_param {
    pool: MAX
    kernel_size: 3
    stride: 2
  }
}
layer {
  name: "drop"
  type: "Dropout"
  bottom: "pool3"
  top: "pool3"
  dropout_param {
    dropout_ratio: 0.5
  }
}
layer {
  name: "conv4-1024"
  type: "Convolution"
  bottom: "pool3"
  top: "conv4"
  param {
    lr_mult: 1
    decay_mult: 1
  }
  param {
    lr_mult: 2
    decay_mult: 0
  }
  convolution_param {
    num_output: 1024
    pad: 1
    kernel_size: 3
    stride: 1
    weight_filler {
      type: "gaussian"
      mean: 0
      std: 0.05
    }
    bias_filler {
      type: "constant"
      value: 0
    }
  }
}
layer {
  name: "relu10"
  type: "ReLU"
  bottom: "conv4"
  top: "conv4"
}
layer {
  name: "cccp7-1024"
  type: "Convolution"
  bottom: "conv4"
  top: "cccp7"
  param {
    lr_mult: 1
    decay_mult: 1
  }
  param {
    lr_mult: 2
    decay_mult: 0
  }
  convolution_param {
    num_output: 1024
    kernel_size: 1
    stride: 1
    weight_filler {
      type: "gaussian"
      mean: 0
      std: 0.05
    }
    bias_filler {
      type: "constant"
      value: 0
    }
  }
}
layer {
  name: "relu11"
  type: "ReLU"
  bottom: "cccp7"
  top: "cccp7"
}
layer {
  name: "pool4"
  type: "Pooling"
  bottom: "cccp7"
  top: "pool4"
  pooling_param {
    pool: MAX
    kernel_size: 6
    stride: 1
  }
}
layer {
  name: "fc5_category"
  type: "InnerProduct"
  bottom: "pool4"
  top: "fc5_category"
  param {
    lr_mult: 10
    decay_mult: 1
  }
  param {
    lr_mult: 20
    decay_mult: 0
  }
  inner_product_param {
    num_output: 26
    weight_filler {
      type: "gaussian"
      std: 0.01
    }
    bias_filler {
      type: "constant"
      value: 0
    }
  }
}
layer {
  name: "loss_category"
  type: "SoftmaxWithLoss"
  bottom: "fc5_category"
  bottom: "label_category"
}
layer {
  name: "accuracy_category"
  type: "Accuracy"
  bottom: "fc5_category"
  bottom: "label_category"
  top: "accuracy_category"
  include {
    phase: TEST
  }
}
layer {
  name: "fc5_pattern"
  type: "InnerProduct"
  bottom: "pool4"
  top: "fc5_pattern"
  param {
    lr_mult: 10
    decay_mult: 1
  }
  param {
    lr_mult: 20
    decay_mult: 0
  }
  inner_product_param {
    num_output: 20
    weight_filler {
      type: "gaussian"
      std: 0.01
    }
    bias_filler {
      type: "constant"
      value: 0
    }
  }
}
layer {
  name: "loss_pattern"
  type: "SoftmaxWithLoss"
  bottom: "fc5_pattern"
  bottom: "label_pattern"
  loss_param {
    ignore_label: 0
  }
}
layer {
  name: "accuracy_pattern"
  type: "Accuracy"
  bottom: "fc5_pattern"
  bottom: "label_pattern"
  top: "accuracy_pattern"
  include {
    phase: TEST
  }
  accuracy_param {
    ignore_label: 0
  }
}
layer {
  name: "fc5_neck"
  type: "InnerProduct"
  bottom: "pool4"
  top: "fc5_neck"
  param {
    lr_mult: 10
    decay_mult: 1
  }
  param {
    lr_mult: 20
    decay_mult: 0
  }
  inner_product_param {
    num_output: 23
    weight_filler {
      type: "gaussian"
      std: 0.01
    }
    bias_filler {
      type: "constant"
      value: 0
    }
  }
}
layer {
  name: "loss_neck"
  type: "SoftmaxWithLoss"
  bottom: "fc5_neck"
  bottom: "label_neck"
  loss_param {
    ignore_label: 0
  }
}
layer {
  name: "accuracy_neck"
  type: "Accuracy"
  bottom: "fc5_neck"
  bottom: "label_neck"
  top: "accuracy_neck"
  include {
    phase: TEST
  }
  accuracy_param {
    ignore_label: 0
  }
}
layer {
  name: "fc5_sleeve"
  type: "InnerProduct"
  bottom: "pool4"
  top: "fc5_sleeve"
  param {
    lr_mult: 10
    decay_mult: 1
  }
  param {
    lr_mult: 20
    decay_mult: 0
  }
  inner_product_param {
    num_output: 9
    weight_filler {
      type: "gaussian"
      std: 0.01
    }
    bias_filler {
      type: "constant"
      value: 0
    }
  }
}
layer {
  name: "loss_sleeve"
  type: "SoftmaxWithLoss"
  bottom: "fc5_sleeve"
  bottom: "label_sleeve"
  loss_param {
    ignore_label: 0
  }
}
layer {
  name: "accuracy_sleeve"
  type: "Accuracy"
  bottom: "fc5_sleeve"
  bottom: "label_sleeve"
  top: "accuracy_sleeve"
  include {
    phase: TEST
  }
  accuracy_param {
    ignore_label: 0
  }
}
layer {
  name: "fc5_fit"
  type: "InnerProduct"
  bottom: "pool4"
  top: "fc5_fit"
  param {
    lr_mult: 10
    decay_mult: 1
  }
  param {
    lr_mult: 20
    decay_mult: 0
  }
  inner_product_param {
    num_output: 26
    weight_filler {
      type: "gaussian"
      std: 0.01
    }
    bias_filler {
      type: "constant"
      value: 0
    }
  }
}
layer {
  name: "loss_fit"
  type: "SoftmaxWithLoss"
  bottom: "fc5_fit"
  bottom: "label_fit"
  loss_param {
    ignore_label: 0
  }
}
layer {
  name: "accuracy_fit"
  type: "Accuracy"
  bottom: "fc5_fit"
  bottom: "label_fit"
  top: "accuracy_fit"
  include {
    phase: TEST
  }
  accuracy_param {
    ignore_label: 0
  }
}
layer {
  name: "fc5_ideal_for"
  type: "InnerProduct"
  bottom: "pool4"
  top: "fc5_ideal_for"
  param {
    lr_mult: 10
    decay_mult: 1
  }
  param {
    lr_mult: 20
    decay_mult: 0
  }
  inner_product_param {
    num_output: 7
    weight_filler {
      type: "gaussian"
      std: 0.01
    }
    bias_filler {
      type: "constant"
      value: 0
    }
  }
}
layer {
  name: "loss_ideal_for"
  type: "SoftmaxWithLoss"
  bottom: "fc5_ideal_for"
  bottom: "label_ideal_for"
  loss_param {
    ignore_label: 0
  }
}
layer {
  name: "accuracy_ideal_for"
  type: "Accuracy"
  bottom: "fc5_ideal_for"
  bottom: "label_ideal_for"
  top: "accuracy_ideal_for"
  include {
    phase: TEST
  }
  accuracy_param {
    ignore_label: 0
  }
}
layer {
  name: "fc5_occasion"
  type: "InnerProduct"
  bottom: "pool4"
  top: "fc5_occasion"
  param {
    lr_mult: 10
    decay_mult: 1
  }
  param {
    lr_mult: 20
    decay_mult: 0
  }
  inner_product_param {
    num_output: 38
    weight_filler {
      type: "gaussian"
      std: 0.01
    }
    bias_filler {
      type: "constant"
      value: 0
    }
  }
}
layer {
  name: "loss_occasion"
  type: "SoftmaxWithLoss"
  bottom: "fc5_occasion"
  bottom: "label_occasion"
  loss_param {
    ignore_label: 0
  }
}
layer {
  name: "accuracy_occasion"
  type: "Accuracy"
  bottom: "fc5_occasion"
  bottom: "label_occasion"
  top: "accuracy_occasion"
  include {
    phase: TEST
  }
  accuracy_param {
    ignore_label: 0
  }
}
I0503 03:58:52.727035 29183 layer_factory.hpp:74] Creating layer data
I0503 03:58:52.727083 29183 net.cpp:84] Creating Layer data
I0503 03:58:52.727099 29183 net.cpp:338] data -> data
I0503 03:58:52.727121 29183 net.cpp:338] data -> label_category
I0503 03:58:52.727150 29183 net.cpp:338] data -> label_pattern
…
I0503 03:58:52.758537 29183 image_data_multclass_layer.cpp:75] ##############################################
I0503 03:58:52.758548 29183 image_data_multclass_layer.cpp:76] ##############################################
I0503 03:58:52.758558 29183 image_data_multclass_layer.cpp:77] size of top: 8
I0503 03:58:52.760905 29183 image_data_multclass_layer.cpp:95] output data size: 64,3,224,224
I0503 03:58:52.760934 29183 image_data_multclass_layer.cpp:99] number of labels: 7
I0503 03:58:52.760965 29183 data_transformer.cpp:22] Loading mean file from: data/ilsvrc12/imagenet_mean.binaryproto
I0503 03:58:52.774019 29183 net.cpp:120] Top shape: 64 3 224 224 (9633792)
I0503 03:58:52.774070 29183 net.cpp:120] Top shape: 64 (64)
I0503 03:58:52.774085 29183 net.cpp:120] Top shape: 64 (64)
I0503 03:58:52.774097 29183 net.cpp:120] Top shape: 64 (64)
I0503 03:58:52.774109 29183 net.cpp:120] Top shape: 64 (64)
I0503 03:58:52.774121 29183 net.cpp:120] Top shape: 64 (64)
I0503 03:58:52.774132 29183 net.cpp:120] Top shape: 64 (64)
I0503 03:58:52.774159 29183 net.cpp:120] Top shape: 64 (64)
I0503 03:58:52.774178 29183 layer_factory.hpp:74] Creating layer label_category_data_1_split
I0503 03:58:52.774206 29183 net.cpp:84] Creating Layer label_category_data_1_split
I0503 03:58:52.774230 29183 net.cpp:380] label_category_data_1_split <- label_category
I0503 03:58:52.774248 29183 net.cpp:338] label_category_data_1_split -> label_category_data_1_split_0
I0503 03:58:52.774272 29183 net.cpp:338] label_category_data_1_split -> label_category_data_1_split_1
I0503 03:58:52.774289 29183 net.cpp:113] Setting up label_category_data_1_split
I0503 03:58:52.774308 29183 net.cpp:120] Top shape: 64 (64)
I0503 03:58:52.774322 29183 net.cpp:120] Top shape: 64 (64)
I0503 03:58:52.774334 29183 layer_factory.hpp:74] Creating layer label_pattern_data_2_split
I0503 03:58:52.774349 29183 net.cpp:84] Creating Layer label_pattern_data_2_split
I0503 03:58:52.774361 29183 net.cpp:380] label_pattern_data_2_split <- label_pattern
I0503 03:58:52.774375 29183 net.cpp:338] label_pattern_data_2_split -> label_pattern_data_2_split_0
I0503 03:58:52.774390 29183 net.cpp:338] label_pattern_data_2_split -> label_pattern_data_2_split_1
I0503 03:58:52.774405 29183 net.cpp:113] Setting up label_pattern_data_2_split
I0503 03:58:52.774418 29183 net.cpp:120] Top shape: 64 (64)
I0503 03:58:52.774430 29183 net.cpp:120] Top shape: 64 (64)
I0503 03:58:52.774441 29183 layer_factory.hpp:74] Creating layer label_neck_data_3_split
I0503 03:58:52.774453 29183 net.cpp:84] Creating Layer label_neck_data_3_split
I0503 03:58:52.774505 29183 net.cpp:380] label_neck_data_3_split <- label_neck
I0503 03:58:52.774523 29183 net.cpp:338] label_neck_data_3_split -> label_neck_data_3_split_0
I0503 03:58:52.774538 29183 net.cpp:338] label_neck_data_3_split -> label_neck_data_3_split_1
I0503 03:58:52.774554 29183 net.cpp:113] Setting up label_neck_data_3_split
I0503 03:58:52.774569 29183 net.cpp:120] Top shape: 64 (64)
I0503 03:58:52.774580 29183 net.cpp:120] Top shape: 64 (64)
I0503 03:58:52.774591 29183 layer_factory.hpp:74] Creating layer label_sleeve_data_4_split
I0503 03:58:52.774605 29183 net.cpp:84] Creating Layer label_sleeve_data_4_split
I0503 03:58:52.774616 29183 net.cpp:380] label_sleeve_data_4_split <- label_sleeve
I0503 03:58:52.774629 29183 net.cpp:338] label_sleeve_data_4_split -> label_sleeve_data_4_split_0
I0503 03:58:52.774643 29183 net.cpp:338] label_sleeve_data_4_split -> label_sleeve_data_4_split_1
I0503 03:58:52.774657 29183 net.cpp:113] Setting up label_sleeve_data_4_split
I0503 03:58:52.774672 29183 net.cpp:120] Top shape: 64 (64)
I0503 03:58:52.774683 29183 net.cpp:120] Top shape: 64 (64)
I0503 03:58:52.774693 29183 layer_factory.hpp:74] Creating layer label_fit_data_5_split
I0503 03:58:52.774708 29183 net.cpp:84] Creating Layer label_fit_data_5_split
I0503 03:58:52.774719 29183 net.cpp:380] label_fit_data_5_split <- label_fit
I0503 03:58:52.774734 29183 net.cpp:338] label_fit_data_5_split -> label_fit_data_5_split_0
I0503 03:58:52.774751 29183 net.cpp:338] label_fit_data_5_split -> label_fit_data_5_split_1
I0503 03:58:52.774777 29183 net.cpp:113] Setting up label_fit_data_5_split
I0503 03:58:52.774794 29183 net.cpp:120] Top shape: 64 (64)
I0503 03:58:52.774827 29183 net.cpp:120] Top shape: 64 (64)
I0503 03:58:52.774840 29183 layer_factory.hpp:74] Creating layer label_ideal_for_data_6_split
I0503 03:58:52.774854 29183 net.cpp:84] Creating Layer label_ideal_for_data_6_split
I0503 03:58:52.774865 29183 net.cpp:380] label_ideal_for_data_6_split <- label_ideal_for
I0503 03:58:52.774880 29183 net.cpp:338] label_ideal_for_data_6_split -> label_ideal_for_data_6_split_0
I0503 03:58:52.774896 29183 net.cpp:338] label_ideal_for_data_6_split -> label_ideal_for_data_6_split_1
I0503 03:58:52.774910 29183 net.cpp:113] Setting up label_ideal_for_data_6_split
I0503 03:58:52.774924 29183 net.cpp:120] Top shape: 64 (64)
I0503 03:58:52.774936 29183 net.cpp:120] Top shape: 64 (64)
I0503 03:58:52.774947 29183 layer_factory.hpp:74] Creating layer label_occasion_data_7_split
I0503 03:58:52.774960 29183 net.cpp:84] Creating Layer label_occasion_data_7_split
I0503 03:58:52.774971 29183 net.cpp:380] label_occasion_data_7_split <- label_occasion
I0503 03:58:52.774986 29183 net.cpp:338] label_occasion_data_7_split -> label_occasion_data_7_split_0
I0503 03:58:52.775001 29183 net.cpp:338] label_occasion_data_7_split -> label_occasion_data_7_split_1
I0503 03:58:52.775013 29183 net.cpp:113] Setting up label_occasion_data_7_split
I0503 03:58:52.775028 29183 net.cpp:120] Top shape: 64 (64)
I0503 03:58:52.775039 29183 net.cpp:120] Top shape: 64 (64)
I0503 03:58:52.775050 29183 layer_factory.hpp:74] Creating layer conv1
I0503 03:58:52.775070 29183 net.cpp:84] Creating Layer conv1
I0503 03:58:52.775090 29183 net.cpp:380] conv1 <- data
I0503 03:58:52.775107 29183 net.cpp:338] conv1 -> conv1
I0503 03:58:52.775123 29183 net.cpp:113] Setting up conv1
I0503 03:58:52.776445 29183 net.cpp:120] Top shape: 64 96 54 54 (17915904)
I0503 03:58:52.776479 29183 layer_factory.hpp:74] Creating layer relu0
I0503 03:58:52.776505 29183 net.cpp:84] Creating Layer relu0
I0503 03:58:52.776520 29183 net.cpp:380] relu0 <- conv1
I0503 03:58:52.776532 29183 net.cpp:327] relu0 -> conv1 (in-place)
I0503 03:58:52.776546 29183 net.cpp:113] Setting up relu0
I0503 03:58:52.776559 29183 net.cpp:120] Top shape: 64 96 54 54 (17915904)
I0503 03:58:52.776571 29183 layer_factory.hpp:74] Creating layer cccp1
I0503 03:58:52.776587 29183 net.cpp:84] Creating Layer cccp1
I0503 03:58:52.776597 29183 net.cpp:380] cccp1 <- conv1
I0503 03:58:52.776612 29183 net.cpp:338] cccp1 -> cccp1
I0503 03:58:52.776650 29183 net.cpp:113] Setting up cccp1
I0503 03:58:52.777017 29183 net.cpp:120] Top shape: 64 96 54 54 (17915904)
I0503 03:58:52.777045 29183 layer_factory.hpp:74] Creating layer relu1
I0503 03:58:52.777061 29183 net.cpp:84] Creating Layer relu1
I0503 03:58:52.777073 29183 net.cpp:380] relu1 <- cccp1
I0503 03:58:52.777086 29183 net.cpp:327] relu1 -> cccp1 (in-place)
I0503 03:58:52.777101 29183 net.cpp:113] Setting up relu1
I0503 03:58:52.777113 29183 net.cpp:120] Top shape: 64 96 54 54 (17915904)
I0503 03:58:52.777124 29183 layer_factory.hpp:74] Creating layer cccp2
I0503 03:58:52.777140 29183 net.cpp:84] Creating Layer cccp2
I0503 03:58:52.777151 29183 net.cpp:380] cccp2 <- cccp1
I0503 03:58:52.777166 29183 net.cpp:338] cccp2 -> cccp2
I0503 03:58:52.777201 29183 net.cpp:113] Setting up cccp2
I0503 03:58:52.777582 29183 net.cpp:120] Top shape: 64 96 54 54 (17915904)
I0503 03:58:52.777611 29183 layer_factory.hpp:74] Creating layer relu2
I0503 03:58:52.777626 29183 net.cpp:84] Creating Layer relu2
I0503 03:58:52.777638 29183 net.cpp:380] relu2 <- cccp2
I0503 03:58:52.777652 29183 net.cpp:327] relu2 -> cccp2 (in-place)
I0503 03:58:52.777664 29183 net.cpp:113] Setting up relu2
I0503 03:58:52.777678 29183 net.cpp:120] Top shape: 64 96 54 54 (17915904)
I0503 03:58:52.777689 29183 layer_factory.hpp:74] Creating layer pool0
I0503 03:58:52.777705 29183 net.cpp:84] Creating Layer pool0
I0503 03:58:52.777716 29183 net.cpp:380] pool0 <- cccp2
I0503 03:58:52.777731 29183 net.cpp:338] pool0 -> pool0
I0503 03:58:52.777755 29183 net.cpp:113] Setting up pool0
I0503 03:58:52.777775 29183 net.cpp:120] Top shape: 64 96 27 27 (4478976)
I0503 03:58:52.777793 29183 layer_factory.hpp:74] Creating layer conv2
I0503 03:58:52.777811 29183 net.cpp:84] Creating Layer conv2
I0503 03:58:52.777822 29183 net.cpp:380] conv2 <- pool0
I0503 03:58:52.777838 29183 net.cpp:338] conv2 -> conv2
I0503 03:58:52.777853 29183 net.cpp:113] Setting up conv2
I0503 03:58:52.801173 29183 net.cpp:120] Top shape: 64 256 27 27 (11943936)
I0503 03:58:52.801221 29183 layer_factory.hpp:74] Creating layer relu3
I0503 03:58:52.801247 29183 net.cpp:84] Creating Layer relu3
I0503 03:58:52.801260 29183 net.cpp:380] relu3 <- conv2
I0503 03:58:52.801277 29183 net.cpp:327] relu3 -> conv2 (in-place)
I0503 03:58:52.801293 29183 net.cpp:113] Setting up relu3
I0503 03:58:52.801307 29183 net.cpp:120] Top shape: 64 256 27 27 (11943936)
I0503 03:58:52.801318 29183 layer_factory.hpp:74] Creating layer cccp3
I0503 03:58:52.801336 29183 net.cpp:84] Creating Layer cccp3
I0503 03:58:52.801347 29183 net.cpp:380] cccp3 <- conv2
I0503 03:58:52.801362 29183 net.cpp:338] cccp3 -> cccp3
I0503 03:58:52.801388 29183 net.cpp:113] Setting up cccp3
I0503 03:58:52.803954 29183 net.cpp:120] Top shape: 64 256 27 27 (11943936)
I0503 03:58:52.803988 29183 layer_factory.hpp:74] Creating layer relu5
I0503 03:58:52.804005 29183 net.cpp:84] Creating Layer relu5
I0503 03:58:52.804018 29183 net.cpp:380] relu5 <- cccp3
I0503 03:58:52.804033 29183 net.cpp:327] relu5 -> cccp3 (in-place)
I0503 03:58:52.804046 29183 net.cpp:113] Setting up relu5
I0503 03:58:52.804059 29183 net.cpp:120] Top shape: 64 256 27 27 (11943936)
I0503 03:58:52.804078 29183 layer_factory.hpp:74] Creating layer cccp4
I0503 03:58:52.804096 29183 net.cpp:84] Creating Layer cccp4
I0503 03:58:52.804107 29183 net.cpp:380] cccp4 <- cccp3
I0503 03:58:52.804122 29183 net.cpp:338] cccp4 -> cccp4
I0503 03:58:52.804137 29183 net.cpp:113] Setting up cccp4
I0503 03:58:52.806681 29183 net.cpp:120] Top shape: 64 256 27 27 (11943936)
I0503 03:58:52.806712 29183 layer_factory.hpp:74] Creating layer relu6
I0503 03:58:52.806728 29183 net.cpp:84] Creating Layer relu6
I0503 03:58:52.806743 29183 net.cpp:380] relu6 <- cccp4
I0503 03:58:52.806758 29183 net.cpp:327] relu6 -> cccp4 (in-place)
I0503 03:58:52.806772 29183 net.cpp:113] Setting up relu6
I0503 03:58:52.806785 29183 net.cpp:120] Top shape: 64 256 27 27 (11943936)
I0503 03:58:52.806797 29183 layer_factory.hpp:74] Creating layer pool2
I0503 03:58:52.806838 29183 net.cpp:84] Creating Layer pool2
I0503 03:58:52.806890 29183 net.cpp:380] pool2 <- cccp4
I0503 03:58:52.806910 29183 net.cpp:338] pool2 -> pool2
I0503 03:58:52.806934 29183 net.cpp:113] Setting up pool2
I0503 03:58:52.806954 29183 net.cpp:120] Top shape: 64 256 13 13 (2768896)
I0503 03:58:52.806965 29183 layer_factory.hpp:74] Creating layer conv3
I0503 03:58:52.806982 29183 net.cpp:84] Creating Layer conv3
I0503 03:58:52.806993 29183 net.cpp:380] conv3 <- pool2
I0503 03:58:52.807009 29183 net.cpp:338] conv3 -> conv3
I0503 03:58:52.807034 29183 net.cpp:113] Setting up conv3
I0503 03:58:52.840927 29183 net.cpp:120] Top shape: 64 384 13 13 (4153344)
I0503 03:58:52.840981 29183 layer_factory.hpp:74] Creating layer relu7
I0503 03:58:52.841006 29183 net.cpp:84] Creating Layer relu7
I0503 03:58:52.841018 29183 net.cpp:380] relu7 <- conv3
I0503 03:58:52.841035 29183 net.cpp:327] relu7 -> conv3 (in-place)
I0503 03:58:52.841053 29183 net.cpp:113] Setting up relu7
I0503 03:58:52.841065 29183 net.cpp:120] Top shape: 64 384 13 13 (4153344)
I0503 03:58:52.841076 29183 layer_factory.hpp:74] Creating layer cccp5
I0503 03:58:52.841094 29183 net.cpp:84] Creating Layer cccp5
I0503 03:58:52.841114 29183 net.cpp:380] cccp5 <- conv3
I0503 03:58:52.841132 29183 net.cpp:338] cccp5 -> cccp5
I0503 03:58:52.841148 29183 net.cpp:113] Setting up cccp5
I0503 03:58:52.846873 29183 net.cpp:120] Top shape: 64 384 13 13 (4153344)
I0503 03:58:52.846911 29183 layer_factory.hpp:74] Creating layer relu8
I0503 03:58:52.846928 29183 net.cpp:84] Creating Layer relu8
I0503 03:58:52.846940 29183 net.cpp:380] relu8 <- cccp5
I0503 03:58:52.846954 29183 net.cpp:327] relu8 -> cccp5 (in-place)
I0503 03:58:52.846968 29183 net.cpp:113] Setting up relu8
I0503 03:58:52.846982 29183 net.cpp:120] Top shape: 64 384 13 13 (4153344)
I0503 03:58:52.846992 29183 layer_factory.hpp:74] Creating layer cccp6
I0503 03:58:52.847008 29183 net.cpp:84] Creating Layer cccp6
I0503 03:58:52.847019 29183 net.cpp:380] cccp6 <- cccp5
I0503 03:58:52.847035 29183 net.cpp:338] cccp6 -> cccp6
I0503 03:58:52.847066 29183 net.cpp:113] Setting up cccp6
I0503 03:58:52.852753 29183 net.cpp:120] Top shape: 64 384 13 13 (4153344)
I0503 03:58:52.852787 29183 layer_factory.hpp:74] Creating layer relu9
I0503 03:58:52.852802 29183 net.cpp:84] Creating Layer relu9
I0503 03:58:52.852814 29183 net.cpp:380] relu9 <- cccp6
I0503 03:58:52.852829 29183 net.cpp:327] relu9 -> cccp6 (in-place)
I0503 03:58:52.852852 29183 net.cpp:113] Setting up relu9
I0503 03:58:52.852866 29183 net.cpp:120] Top shape: 64 384 13 13 (4153344)
I0503 03:58:52.852880 29183 layer_factory.hpp:74] Creating layer pool3
I0503 03:58:52.852895 29183 net.cpp:84] Creating Layer pool3
I0503 03:58:52.852905 29183 net.cpp:380] pool3 <- cccp6
I0503 03:58:52.852921 29183 net.cpp:338] pool3 -> pool3
I0503 03:58:52.852936 29183 net.cpp:113] Setting up pool3
I0503 03:58:52.852953 29183 net.cpp:120] Top shape: 64 384 6 6 (884736)
I0503 03:58:52.852964 29183 layer_factory.hpp:74] Creating layer drop
I0503 03:58:52.852983 29183 net.cpp:84] Creating Layer drop
I0503 03:58:52.853003 29183 net.cpp:380] drop <- pool3
I0503 03:58:52.853018 29183 net.cpp:327] drop -> pool3 (in-place)
I0503 03:58:52.853031 29183 net.cpp:113] Setting up drop
I0503 03:58:52.853047 29183 net.cpp:120] Top shape: 64 384 6 6 (884736)
I0503 03:58:52.853059 29183 layer_factory.hpp:74] Creating layer conv4-1024
I0503 03:58:52.853075 29183 net.cpp:84] Creating Layer conv4-1024
I0503 03:58:52.853085 29183 net.cpp:380] conv4-1024 <- pool3
I0503 03:58:52.853099 29183 net.cpp:338] conv4-1024 -> conv4
I0503 03:58:52.853116 29183 net.cpp:113] Setting up conv4-1024
I0503 03:58:52.986322 29183 net.cpp:120] Top shape: 64 1024 6 6 (2359296)
I0503 03:58:52.986382 29183 layer_factory.hpp:74] Creating layer relu10
I0503 03:58:52.986405 29183 net.cpp:84] Creating Layer relu10
I0503 03:58:52.986420 29183 net.cpp:380] relu10 <- conv4
I0503 03:58:52.986441 29183 net.cpp:327] relu10 -> conv4 (in-place)
I0503 03:58:52.986459 29183 net.cpp:113] Setting up relu10
I0503 03:58:52.986474 29183 net.cpp:120] Top shape: 64 1024 6 6 (2359296)
I0503 03:58:52.986485 29183 layer_factory.hpp:74] Creating layer cccp7-1024
I0503 03:58:52.986552 29183 net.cpp:84] Creating Layer cccp7-1024
I0503 03:58:52.986567 29183 net.cpp:380] cccp7-1024 <- conv4
I0503 03:58:52.986583 29183 net.cpp:338] cccp7-1024 -> cccp7
I0503 03:58:52.986609 29183 net.cpp:113] Setting up cccp7-1024
I0503 03:58:53.026152 29183 net.cpp:120] Top shape: 64 1024 6 6 (2359296)
I0503 03:58:53.026201 29183 layer_factory.hpp:74] Creating layer relu11
I0503 03:58:53.026221 29183 net.cpp:84] Creating Layer relu11
I0503 03:58:53.026234 29183 net.cpp:380] relu11 <- cccp7
I0503 03:58:53.026250 29183 net.cpp:327] relu11 -> cccp7 (in-place)
I0503 03:58:53.026267 29183 net.cpp:113] Setting up relu11
I0503 03:58:53.026279 29183 net.cpp:120] Top shape: 64 1024 6 6 (2359296)
I0503 03:58:53.026290 29183 layer_factory.hpp:74] Creating layer pool4
I0503 03:58:53.026305 29183 net.cpp:84] Creating Layer pool4
I0503 03:58:53.026316 29183 net.cpp:380] pool4 <- cccp7
I0503 03:58:53.026330 29183 net.cpp:338] pool4 -> pool4
I0503 03:58:53.026346 29183 net.cpp:113] Setting up pool4
I0503 03:58:53.026377 29183 net.cpp:120] Top shape: 64 1024 1 1 (65536)
I0503 03:58:53.026389 29183 layer_factory.hpp:74] Creating layer pool4_pool4_0_split
I0503 03:58:53.026407 29183 net.cpp:84] Creating Layer pool4_pool4_0_split
I0503 03:58:53.026417 29183 net.cpp:380] pool4_pool4_0_split <- pool4
I0503 03:58:53.026432 29183 net.cpp:338] pool4_pool4_0_split -> pool4_pool4_0_split_0
I0503 03:58:53.026448 29183 net.cpp:338] pool4_pool4_0_split -> pool4_pool4_0_split_1
I0503 03:58:53.026464 29183 net.cpp:338] pool4_pool4_0_split -> pool4_pool4_0_split_2
I0503 03:58:53.026480 29183 net.cpp:338] pool4_pool4_0_split -> pool4_pool4_0_split_3
I0503 03:58:53.026494 29183 net.cpp:338] pool4_pool4_0_split -> pool4_pool4_0_split_4
I0503 03:58:53.026510 29183 net.cpp:338] pool4_pool4_0_split -> pool4_pool4_0_split_5
I0503 03:58:53.026525 29183 net.cpp:338] pool4_pool4_0_split -> pool4_pool4_0_split_6
I0503 03:58:53.026537 29183 net.cpp:113] Setting up pool4_pool4_0_split
I0503 03:58:53.026556 29183 net.cpp:120] Top shape: 64 1024 1 1 (65536)
I0503 03:58:53.026569 29183 net.cpp:120] Top shape: 64 1024 1 1 (65536)
I0503 03:58:53.026582 29183 net.cpp:120] Top shape: 64 1024 1 1 (65536)
I0503 03:58:53.026593 29183 net.cpp:120] Top shape: 64 1024 1 1 (65536)
I0503 03:58:53.026608 29183 net.cpp:120] Top shape: 64 1024 1 1 (65536)
I0503 03:58:53.026621 29183 net.cpp:120] Top shape: 64 1024 1 1 (65536)
I0503 03:58:53.026633 29183 net.cpp:120] Top shape: 64 1024 1 1 (65536)
I0503 03:58:53.026643 29183 layer_factory.hpp:74] Creating layer fc5_category
I0503 03:58:53.026660 29183 net.cpp:84] Creating Layer fc5_category
I0503 03:58:53.026672 29183 net.cpp:380] fc5_category <- pool4_pool4_0_split_0
I0503 03:58:53.026687 29183 net.cpp:338] fc5_category -> fc5_category
I0503 03:58:53.026703 29183 net.cpp:113] Setting up fc5_category
I0503 03:58:53.027734 29183 net.cpp:120] Top shape: 64 26 (1664)
I0503 03:58:53.027762 29183 layer_factory.hpp:74] Creating layer fc5_category_fc5_category_0_split
I0503 03:58:53.027778 29183 net.cpp:84] Creating Layer fc5_category_fc5_category_0_split
I0503 03:58:53.027791 29183 net.cpp:380] fc5_category_fc5_category_0_split <- fc5_category
I0503 03:58:53.027804 29183 net.cpp:338] fc5_category_fc5_category_0_split -> fc5_category_fc5_category_0_split_0
I0503 03:58:53.027822 29183 net.cpp:338] fc5_category_fc5_category_0_split -> fc5_category_fc5_category_0_split_1
I0503 03:58:53.027835 29183 net.cpp:113] Setting up fc5_category_fc5_category_0_split
I0503 03:58:53.027851 29183 net.cpp:120] Top shape: 64 26 (1664)
I0503 03:58:53.027864 29183 net.cpp:120] Top shape: 64 26 (1664)
I0503 03:58:53.027874 29183 layer_factory.hpp:74] Creating layer loss_category
I0503 03:58:53.027887 29183 net.cpp:84] Creating Layer loss_category
I0503 03:58:53.027899 29183 net.cpp:380] loss_category <- fc5_category_fc5_category_0_split_0
I0503 03:58:53.027911 29183 net.cpp:380] loss_category <- label_category_data_1_split_0
I0503 03:58:53.027927 29183 net.cpp:338] loss_category -> (automatic)
…
