…
state {
  phase: TRAIN
}
layer {
  name: "data"
  type: "ImageDataMultLabel"
  top: "data"
  top: "label_category"
  top: "label_pattern"
  top: "label_neck"
  top: "label_sleeve"
  top: "label_fit"
  top: "label_ideal_for"
  top: "label_occasion"
  include {
    phase: TRAIN
  }
  transform_param {
    mirror: true
    crop_size: 227
    mean_file: "data/ilsvrc12/imagenet_mean.binaryproto"
  }
  image_data_mult_label_param {
    source: "/mnt/images/training/flipkart_yq2set/train.txt"
    batch_size: 50
    new_height: 256
    new_width: 256
  }
}
layer {
  name: "conv1"
  type: "Convolution"
  bottom: "data"
  top: "conv1"
  param {
    lr_mult: 1
    decay_mult: 1
  }
  param {
    lr_mult: 2
    decay_mult: 0
  }
  convolution_param {
    num_output: 96
    kernel_size: 11
    stride: 4
    weight_filler {
      type: "gaussian"
      std: 0.01
    }
    bias_filler {
      type: "constant"
      value: 0
    }
  }
}
layer {
  name: "relu1"
  type: "ReLU"
  bottom: "conv1"
  top: "conv1"
}
layer {
  name: "pool1"
  type: "Pooling"
  bottom: "conv1"
  top: "pool1"
  pooling_param {
    pool: MAX
    kernel_size: 3
    stride: 2
  }
}
layer {
  name: "norm1"
  type: "LRN"
  bottom: "pool1"
  top: "norm1"
  lrn_param {
    local_size: 5
    alpha: 0.0001
    beta: 0.75
  }
}
layer {
  name: "conv2"
  type: "Convolution"
  bottom: "norm1"
  top: "conv2"
  param {
    lr_mult: 1
    decay_mult: 1
  }
  param {
    lr_mult: 2
    decay_mult: 0
  }
  convolution_param {
    num_output: 256
    pad: 2
    kernel_size: 5
    group: 2
    weight_filler {
      type: "gaussian"
      std: 0.01
    }
    bias_filler {
      type: "constant"
      value: 1
    }
  }
}
layer {
  name: "relu2"
  type: "ReLU"
  bottom: "conv2"
  top: "conv2"
}
layer {
  name: "pool2"
  type: "Pooling"
  bottom: "conv2"
  top: "pool2"
  pooling_param {
    pool: MAX
    kernel_size: 3
    stride: 2
  }
}
layer {
  name: "norm2"
  type: "LRN"
  bottom: "pool2"
  top: "norm2"
  lrn_param {
    local_size: 5
    alpha: 0.0001
    beta: 0.75
  }
}
layer {
  name: "conv3"
  type: "Convolution"
  bottom: "norm2"
  top: "conv3"
  param {
    lr_mult: 1
    decay_mult: 1
  }
  param {
    lr_mult: 2
    decay_mult: 0
  }
  convolution_param {
    num_output: 384
    pad: 1
    kernel_size: 3
    weight_filler {
      type: "gaussian"
      std: 0.01
    }
    bias_filler {
      type: "constant"
      value: 0
    }
  }
}
layer {
  name: "relu3"
  type: "ReLU"
  bottom: "conv3"
  top: "conv3"
}
layer {
  name: "conv4"
  type: "Convolution"
  bottom: "conv3"
  top: "conv4"
  param {
    lr_mult: 1
    decay_mult: 1
  }
  param {
    lr_mult: 2
    decay_mult: 0
  }
  convolution_param {
    num_output: 384
    pad: 1
    kernel_size: 3
    group: 2
    weight_filler {
      type: "gaussian"
      std: 0.01
    }
    bias_filler {
      type: "constant"
      value: 1
    }
  }
}
layer {
  name: "relu4"
  type: "ReLU"
  bottom: "conv4"
  top: "conv4"
}
layer {
  name: "conv5"
  type: "Convolution"
  bottom: "conv4"
  top: "conv5"
  param {
    lr_mult: 1
    decay_mult: 1
  }
  param {
    lr_mult: 2
    decay_mult: 0
  }
  convolution_param {
    num_output: 256
    pad: 1
    kernel_size: 3
    group: 2
    weight_filler {
      type: "gaussian"
      std: 0.01
    }
    bias_filler {
      type: "constant"
      value: 1
    }
  }
}
layer {
  name: "relu5"
  type: "ReLU"
  bottom: "conv5"
  top: "conv5"
}
layer {
  name: "pool5"
  type: "Pooling"
  bottom: "conv5"
  top: "pool5"
  pooling_param {
    pool: MAX
    kernel_size: 3
    stride: 2
  }
}
layer {
  name: "fc6"
  type: "InnerProduct"
  bottom: "pool5"
  top: "fc6"
  param {
    lr_mult: 1
    decay_mult: 1
  }
  param {
    lr_mult: 2
    decay_mult: 0
  }
  inner_product_param {
    num_output: 4096
    weight_filler {
      type: "gaussian"
      std: 0.005
    }
    bias_filler {
      type: "constant"
      value: 1
    }
  }
}
layer {
  name: "relu6"
  type: "ReLU"
  bottom: "fc6"
  top: "fc6"
}
layer {
  name: "drop6"
  type: "Dropout"
  bottom: "fc6"
  top: "fc6"
  dropout_param {
    dropout_ratio: 0.5
  }
}
layer {
  name: "fc7"
  type: "InnerProduct"
  bottom: "fc6"
  top: "fc7"
  param {
    lr_mult: 1
    decay_mult: 1
  }
  param {
    lr_mult: 2
    decay_mult: 0
  }
  inner_product_param {
    num_output: 4096
    weight_filler {
      type: "gaussian"
      std: 0.005
    }
    bias_filler {
      type: "constant"
      value: 1
    }
  }
}
layer {
  name: "relu7"
  type: "ReLU"
  bottom: "fc7"
  top: "fc7"
}
layer {
  name: "drop7"
  type: "Dropout"
  bottom: "fc7"
  top: "fc7"
  dropout_param {
    dropout_ratio: 0.5
  }
}
layer {
  name: "fc8_category"
  type: "InnerProduct"
  bottom: "fc7"
  top: "fc8_category"
  param {
    lr_mult: 10
    decay_mult: 1
  }
  param {
    lr_mult: 20
    decay_mult: 0
  }
  inner_product_param {
    num_output: 26
    weight_filler {
      type: "gaussian"
      std: 0.01
    }
    bias_filler {
      type: "constant"
      value: 0
    }
  }
}
layer {
  name: "loss_category"
  type: "SoftmaxWithLoss"
  bottom: "fc8_category"
  bottom: "label_category"
}
layer {
  name: "fc8_pattern"
  type: "InnerProduct"
  bottom: "fc7"
  top: "fc8_pattern"
  param {
    lr_mult: 10
    decay_mult: 1
  }
  param {
    lr_mult: 20
    decay_mult: 0
  }
  inner_product_param {
    num_output: 20
    weight_filler {
      type: "gaussian"
      std: 0.01
    }
    bias_filler {
      type: "constant"
      value: 0
    }
  }
}
layer {
  name: "loss_pattern"
  type: "SoftmaxWithLoss"
  bottom: "fc8_pattern"
  bottom: "label_pattern"
  loss_param {
    ignore_label: 0
  }
}
layer {
  name: "fc8_neck"
  type: "InnerProduct"
  bottom: "fc7"
  top: "fc8_neck"
  param {
    lr_mult: 10
    decay_mult: 1
  }
  param {
    lr_mult: 20
    decay_mult: 0
  }
  inner_product_param {
    num_output: 23
    weight_filler {
      type: "gaussian"
      std: 0.01
    }
    bias_filler {
      type: "constant"
      value: 0
    }
  }
}
layer {
  name: "loss_neck"
  type: "SoftmaxWithLoss"
  bottom: "fc8_neck"
  bottom: "label_neck"
  loss_param {
    ignore_label: 0
  }
}
layer {
  name: "fc8_sleeve"
  type: "InnerProduct"
  bottom: "fc7"
  top: "fc8_sleeve"
  param {
    lr_mult: 10
    decay_mult: 1
  }
  param {
    lr_mult: 20
    decay_mult: 0
  }
  inner_product_param {
    num_output: 9
    weight_filler {
      type: "gaussian"
      std: 0.01
    }
    bias_filler {
      type: "constant"
      value: 0
    }
  }
}
layer {
  name: "loss_sleeve"
  type: "SoftmaxWithLoss"
  bottom: "fc8_sleeve"
  bottom: "label_sleeve"
  loss_param {
    ignore_label: 0
  }
}
layer {
  name: "fc8_fit"
  type: "InnerProduct"
  bottom: "fc7"
  top: "fc8_fit"
  param {
    lr_mult: 10
    decay_mult: 1
  }
  param {
    lr_mult: 20
    decay_mult: 0
  }
  inner_product_param {
    num_output: 26
    weight_filler {
      type: "gaussian"
      std: 0.01
    }
    bias_filler {
      type: "constant"
      value: 0
    }
  }
}
layer {
  name: "loss_fit"
  type: "SoftmaxWithLoss"
  bottom: "fc8_fit"
  bottom: "label_fit"
  loss_param {
    ignore_label: 0
  }
}
layer {
  name: "fc8_ideal_for"
  type: "InnerProduct"
  bottom: "fc7"
  top: "fc8_ideal_for"
  param {
    lr_mult: 10
    decay_mult: 1
  }
  param {
    lr_mult: 20
    decay_mult: 0
  }
  inner_product_param {
    num_output: 7
    weight_filler {
      type: "gaussian"
      std: 0.01
    }
    bias_filler {
      type: "constant"
      value: 0
    }
  }
}
layer {
  name: "loss_ideal_for"
  type: "SoftmaxWithLoss"
  bottom: "fc8_ideal_for"
  bottom: "label_ideal_for"
  loss_param {
    ignore_label: 0
  }
}
layer {
  name: "fc8_occasion"
  type: "InnerProduct"
  bottom: "fc7"
  top: "fc8_occasion"
  param {
    lr_mult: 10
    decay_mult: 1
  }
  param {
    lr_mult: 20
    decay_mult: 0
  }
  inner_product_param {
    num_output: 38
    weight_filler {
      type: "gaussian"
      std: 0.01
    }
    bias_filler {
      type: "constant"
      value: 0
    }
  }
}
layer {
  name: "loss_occasion"
  type: "SoftmaxWithLoss"
  bottom: "fc8_occasion"
  bottom: "label_occasion"
  loss_param {
    ignore_label: 0
  }
}
I0501 17:30:56.581046 10529 layer_factory.hpp:74] Creating layer data
I0501 17:30:56.581097 10529 net.cpp:84] Creating Layer data
I0501 17:30:56.581130 10529 net.cpp:338] data -> data
I0501 17:30:56.581176 10529 net.cpp:338] data -> label_category
I0501 17:30:56.581209 10529 net.cpp:338] data -> label_pattern
I0501 17:30:56.581238 10529 net.cpp:338] data -> label_neck
…
I0501 17:30:56.865423 10529 image_data_multclass_layer.cpp:75] ##############################################
I0501 17:30:56.865433 10529 image_data_multclass_layer.cpp:76] ##############################################
I0501 17:30:56.865442 10529 image_data_multclass_layer.cpp:77] size of top: 8
I0501 17:30:56.872527 10529 image_data_multclass_layer.cpp:95] output data size: 50,3,227,227
I0501 17:30:56.872558 10529 image_data_multclass_layer.cpp:99] number of labels: 7
I0501 17:30:56.872609 10529 data_transformer.cpp:22] Loading mean file from: data/ilsvrc12/imagenet_mean.binaryproto
I0501 17:30:56.883344 10529 net.cpp:120] Top shape: 50 3 227 227 (7729350)
I0501 17:30:56.883399 10529 net.cpp:120] Top shape: 50 (50)
I0501 17:30:56.883412 10529 net.cpp:120] Top shape: 50 (50)
I0501 17:30:56.883430 10529 net.cpp:120] Top shape: 50 (50)
I0501 17:30:56.883442 10529 net.cpp:120] Top shape: 50 (50)
I0501 17:30:56.883499 10529 net.cpp:120] Top shape: 50 (50)
I0501 17:30:56.883513 10529 net.cpp:120] Top shape: 50 (50)
I0501 17:30:56.883524 10529 net.cpp:120] Top shape: 50 (50)
I0501 17:30:56.883541 10529 layer_factory.hpp:74] Creating layer conv1
I0501 17:30:56.883581 10529 net.cpp:84] Creating Layer conv1
I0501 17:30:56.883610 10529 net.cpp:380] conv1 <- data
I0501 17:30:56.883636 10529 net.cpp:338] conv1 -> conv1
I0501 17:30:56.883674 10529 net.cpp:113] Setting up conv1
I0501 17:30:56.885046 10529 net.cpp:120] Top shape: 50 96 55 55 (14520000)
I0501 17:30:56.885087 10529 layer_factory.hpp:74] Creating layer relu1
I0501 17:30:56.885107 10529 net.cpp:84] Creating Layer relu1
I0501 17:30:56.885124 10529 net.cpp:380] relu1 <- conv1
I0501 17:30:56.885140 10529 net.cpp:327] relu1 -> conv1 (in-place)
I0501 17:30:56.885154 10529 net.cpp:113] Setting up relu1
I0501 17:30:56.885172 10529 net.cpp:120] Top shape: 50 96 55 55 (14520000)
I0501 17:30:56.885182 10529 layer_factory.hpp:74] Creating layer pool1
I0501 17:30:56.885200 10529 net.cpp:84] Creating Layer pool1
I0501 17:30:56.885210 10529 net.cpp:380] pool1 <- conv1
I0501 17:30:56.885224 10529 net.cpp:338] pool1 -> pool1
I0501 17:30:56.885242 10529 net.cpp:113] Setting up pool1
I0501 17:30:56.885272 10529 net.cpp:120] Top shape: 50 96 27 27 (3499200)
I0501 17:30:56.885287 10529 layer_factory.hpp:74] Creating layer norm1
I0501 17:30:56.885308 10529 net.cpp:84] Creating Layer norm1
I0501 17:30:56.885329 10529 net.cpp:380] norm1 <- pool1
I0501 17:30:56.885344 10529 net.cpp:338] norm1 -> norm1
I0501 17:30:56.885361 10529 net.cpp:113] Setting up norm1
I0501 17:30:56.885381 10529 net.cpp:120] Top shape: 50 96 27 27 (3499200)
I0501 17:30:56.885393 10529 layer_factory.hpp:74] Creating layer conv2
I0501 17:30:56.885417 10529 net.cpp:84] Creating Layer conv2
I0501 17:30:56.885437 10529 net.cpp:380] conv2 <- norm1
I0501 17:30:56.885455 10529 net.cpp:338] conv2 -> conv2
I0501 17:30:56.885471 10529 net.cpp:113] Setting up conv2
I0501 17:30:56.896829 10529 net.cpp:120] Top shape: 50 256 27 27 (9331200)
I0501 17:30:56.896862 10529 layer_factory.hpp:74] Creating layer relu2
I0501 17:30:56.896879 10529 net.cpp:84] Creating Layer relu2
I0501 17:30:56.896890 10529 net.cpp:380] relu2 <- conv2
I0501 17:30:56.896905 10529 net.cpp:327] relu2 -> conv2 (in-place)
I0501 17:30:56.896919 10529 net.cpp:113] Setting up relu2
I0501 17:30:56.896932 10529 net.cpp:120] Top shape: 50 256 27 27 (9331200)
I0501 17:30:56.896944 10529 layer_factory.hpp:74] Creating layer pool2
I0501 17:30:56.896956 10529 net.cpp:84] Creating Layer pool2
I0501 17:30:56.896967 10529 net.cpp:380] pool2 <- conv2
I0501 17:30:56.896982 10529 net.cpp:338] pool2 -> pool2
I0501 17:30:56.896996 10529 net.cpp:113] Setting up pool2
I0501 17:30:56.897012 10529 net.cpp:120] Top shape: 50 256 13 13 (2163200)
I0501 17:30:56.897025 10529 layer_factory.hpp:74] Creating layer norm2
I0501 17:30:56.897042 10529 net.cpp:84] Creating Layer norm2
I0501 17:30:56.897053 10529 net.cpp:380] norm2 <- pool2
I0501 17:30:56.897066 10529 net.cpp:338] norm2 -> norm2
I0501 17:30:56.897080 10529 net.cpp:113] Setting up norm2
I0501 17:30:56.897096 10529 net.cpp:120] Top shape: 50 256 13 13 (2163200)
I0501 17:30:56.897115 10529 layer_factory.hpp:74] Creating layer conv3
I0501 17:30:56.897135 10529 net.cpp:84] Creating Layer conv3
I0501 17:30:56.897145 10529 net.cpp:380] conv3 <- norm2
I0501 17:30:56.897161 10529 net.cpp:338] conv3 -> conv3
I0501 17:30:56.897177 10529 net.cpp:113] Setting up conv3
I0501 17:30:56.931051 10529 net.cpp:120] Top shape: 50 384 13 13 (3244800)
I0501 17:30:56.931099 10529 layer_factory.hpp:74] Creating layer relu3
I0501 17:30:56.931124 10529 net.cpp:84] Creating Layer relu3
I0501 17:30:56.931138 10529 net.cpp:380] relu3 <- conv3
I0501 17:30:56.931155 10529 net.cpp:327] relu3 -> conv3 (in-place)
I0501 17:30:56.931171 10529 net.cpp:113] Setting up relu3
I0501 17:30:56.931193 10529 net.cpp:120] Top shape: 50 384 13 13 (3244800)
I0501 17:30:56.931205 10529 layer_factory.hpp:74] Creating layer conv4
I0501 17:30:56.931223 10529 net.cpp:84] Creating Layer conv4
I0501 17:30:56.931265 10529 net.cpp:380] conv4 <- conv3
I0501 17:30:56.931284 10529 net.cpp:338] conv4 -> conv4
I0501 17:30:56.931313 10529 net.cpp:113] Setting up conv4
I0501 17:30:56.956892 10529 net.cpp:120] Top shape: 50 384 13 13 (3244800)
I0501 17:30:56.956928 10529 layer_factory.hpp:74] Creating layer relu4
I0501 17:30:56.956945 10529 net.cpp:84] Creating Layer relu4
I0501 17:30:56.956959 10529 net.cpp:380] relu4 <- conv4
I0501 17:30:56.956974 10529 net.cpp:327] relu4 -> conv4 (in-place)
I0501 17:30:56.956987 10529 net.cpp:113] Setting up relu4
I0501 17:30:56.957000 10529 net.cpp:120] Top shape: 50 384 13 13 (3244800)
I0501 17:30:56.957011 10529 layer_factory.hpp:74] Creating layer conv5
I0501 17:30:56.957028 10529 net.cpp:84] Creating Layer conv5
I0501 17:30:56.957039 10529 net.cpp:380] conv5 <- conv4
I0501 17:30:56.957057 10529 net.cpp:338] conv5 -> conv5
I0501 17:30:56.957087 10529 net.cpp:113] Setting up conv5
I0501 17:30:56.974112 10529 net.cpp:120] Top shape: 50 256 13 13 (2163200)
I0501 17:30:56.974150 10529 layer_factory.hpp:74] Creating layer relu5
I0501 17:30:56.974167 10529 net.cpp:84] Creating Layer relu5
I0501 17:30:56.974179 10529 net.cpp:380] relu5 <- conv5
I0501 17:30:56.974195 10529 net.cpp:327] relu5 -> conv5 (in-place)
I0501 17:30:56.974217 10529 net.cpp:113] Setting up relu5
I0501 17:30:56.974232 10529 net.cpp:120] Top shape: 50 256 13 13 (2163200)
I0501 17:30:56.974243 10529 layer_factory.hpp:74] Creating layer pool5
I0501 17:30:56.974259 10529 net.cpp:84] Creating Layer pool5
I0501 17:30:56.974272 10529 net.cpp:380] pool5 <- conv5
I0501 17:30:56.974287 10529 net.cpp:338] pool5 -> pool5
I0501 17:30:56.974303 10529 net.cpp:113] Setting up pool5
I0501 17:30:56.974328 10529 net.cpp:120] Top shape: 50 256 6 6 (460800)
I0501 17:30:56.974340 10529 layer_factory.hpp:74] Creating layer fc6
I0501 17:30:56.974361 10529 net.cpp:84] Creating Layer fc6
I0501 17:30:56.974373 10529 net.cpp:380] fc6 <- pool5
I0501 17:30:56.974390 10529 net.cpp:338] fc6 -> fc6
I0501 17:30:56.974411 10529 net.cpp:113] Setting up fc6
I0501 17:30:58.446200 10529 net.cpp:120] Top shape: 50 4096 (204800)
I0501 17:30:58.446266 10529 layer_factory.hpp:74] Creating layer relu6
I0501 17:30:58.446290 10529 net.cpp:84] Creating Layer relu6
I0501 17:30:58.446305 10529 net.cpp:380] relu6 <- fc6
I0501 17:30:58.446322 10529 net.cpp:327] relu6 -> fc6 (in-place)
I0501 17:30:58.446341 10529 net.cpp:113] Setting up relu6
I0501 17:30:58.446355 10529 net.cpp:120] Top shape: 50 4096 (204800)
I0501 17:30:58.446380 10529 layer_factory.hpp:74] Creating layer drop6
I0501 17:30:58.446408 10529 net.cpp:84] Creating Layer drop6
I0501 17:30:58.446419 10529 net.cpp:380] drop6 <- fc6
I0501 17:30:58.446434 10529 net.cpp:327] drop6 -> fc6 (in-place)
I0501 17:30:58.446463 10529 net.cpp:113] Setting up drop6
I0501 17:30:58.446502 10529 net.cpp:120] Top shape: 50 4096 (204800)
I0501 17:30:58.446532 10529 layer_factory.hpp:74] Creating layer fc7
I0501 17:30:58.446555 10529 net.cpp:84] Creating Layer fc7
I0501 17:30:58.446578 10529 net.cpp:380] fc7 <- fc6
I0501 17:30:58.446598 10529 net.cpp:338] fc7 -> fc7
I0501 17:30:58.446624 10529 net.cpp:113] Setting up fc7
I0501 17:30:59.109333 10529 net.cpp:120] Top shape: 50 4096 (204800)
I0501 17:30:59.109402 10529 layer_factory.hpp:74] Creating layer relu7
I0501 17:30:59.109427 10529 net.cpp:84] Creating Layer relu7
I0501 17:30:59.109441 10529 net.cpp:380] relu7 <- fc7
I0501 17:30:59.109458 10529 net.cpp:327] relu7 -> fc7 (in-place)
I0501 17:30:59.109475 10529 net.cpp:113] Setting up relu7
I0501 17:30:59.109491 10529 net.cpp:120] Top shape: 50 4096 (204800)
I0501 17:30:59.109503 10529 layer_factory.hpp:74] Creating layer drop7
I0501 17:30:59.109519 10529 net.cpp:84] Creating Layer drop7
I0501 17:30:59.109530 10529 net.cpp:380] drop7 <- fc7
I0501 17:30:59.109544 10529 net.cpp:327] drop7 -> fc7 (in-place)
I0501 17:30:59.109562 10529 net.cpp:113] Setting up drop7
I0501 17:30:59.109588 10529 net.cpp:120] Top shape: 50 4096 (204800)
I0501 17:30:59.109601 10529 layer_factory.hpp:74] Creating layer fc7_drop7_0_split
I0501 17:30:59.109670 10529 net.cpp:84] Creating Layer fc7_drop7_0_split
I0501 17:30:59.109684 10529 net.cpp:380] fc7_drop7_0_split <- fc7
I0501 17:30:59.109701 10529 net.cpp:338] fc7_drop7_0_split -> fc7_drop7_0_split_0
I0501 17:30:59.109721 10529 net.cpp:338] fc7_drop7_0_split -> fc7_drop7_0_split_1
I0501 17:30:59.109747 10529 net.cpp:338] fc7_drop7_0_split -> fc7_drop7_0_split_2
I0501 17:30:59.109777 10529 net.cpp:338] fc7_drop7_0_split -> fc7_drop7_0_split_3
I0501 17:30:59.109802 10529 net.cpp:338] fc7_drop7_0_split -> fc7_drop7_0_split_4
I0501 17:30:59.109825 10529 net.cpp:338] fc7_drop7_0_split -> fc7_drop7_0_split_5
I0501 17:30:59.109874 10529 net.cpp:338] fc7_drop7_0_split -> fc7_drop7_0_split_6
I0501 17:30:59.109910 10529 net.cpp:113] Setting up fc7_drop7_0_split
I0501 17:30:59.109937 10529 net.cpp:120] Top shape: 50 4096 (204800)
I0501 17:30:59.109953 10529 net.cpp:120] Top shape: 50 4096 (204800)
I0501 17:30:59.109972 10529 net.cpp:120] Top shape: 50 4096 (204800)
I0501 17:30:59.109983 10529 net.cpp:120] Top shape: 50 4096 (204800)
I0501 17:30:59.109994 10529 net.cpp:120] Top shape: 50 4096 (204800)
I0501 17:30:59.110007 10529 net.cpp:120] Top shape: 50 4096 (204800)
I0501 17:30:59.110018 10529 net.cpp:120] Top shape: 50 4096 (204800)
I0501 17:30:59.110028 10529 layer_factory.hpp:74] Creating layer fc8_category
I0501 17:30:59.110045 10529 net.cpp:84] Creating Layer fc8_category
I0501 17:30:59.110057 10529 net.cpp:380] fc8_category <- fc7_drop7_0_split_0
I0501 17:30:59.110074 10529 net.cpp:338] fc8_category -> fc8_category
I0501 17:30:59.110091 10529 net.cpp:113] Setting up fc8_category
I0501 17:30:59.114455 10529 net.cpp:120] Top shape: 50 26 (1300)
I0501 17:30:59.114491 10529 layer_factory.hpp:74] Creating layer loss_category
I0501 17:30:59.114511 10529 net.cpp:84] Creating Layer loss_category
I0501 17:30:59.114524 10529 net.cpp:380] loss_category <- fc8_category
I0501 17:30:59.114538 10529 net.cpp:380] loss_category <- label_category
I0501 17:30:59.114555 10529 net.cpp:338] loss_category -> (automatic)
I0501 17:30:59.114570 10529 net.cpp:113] Setting up loss_category
I0501 17:30:59.114593 10529 layer_factory.hpp:74] Creating layer loss_category
I0501 17:30:59.114645 10529 net.cpp:120] Top shape: (1)
I0501 17:30:59.114670 10529 net.cpp:122]     with loss weight 1
I0501 17:30:59.114727 10529 layer_factory.hpp:74] Creating layer fc8_pattern
I0501 17:30:59.114750 10529 net.cpp:84] Creating Layer fc8_pattern
I0501 17:30:59.114778 10529 net.cpp:380] fc8_pattern <- fc7_drop7_0_split_1
I0501 17:30:59.114796 10529 net.cpp:338] fc8_pattern -> fc8_pattern
I0501 17:30:59.114837 10529 net.cpp:113] Setting up fc8_pattern
I0501 17:30:59.118160 10529 net.cpp:120] Top shape: 50 20 (1000)
I0501 17:30:59.118198 10529 layer_factory.hpp:74] Creating layer loss_pattern
I0501 17:30:59.118216 10529 net.cpp:84] Creating Layer loss_pattern
I0501 17:30:59.118227 10529 net.cpp:380] loss_pattern <- fc8_pattern
I0501 17:30:59.118242 10529 net.cpp:380] loss_pattern <- label_pattern
I0501 17:30:59.118262 10529 net.cpp:338] loss_pattern -> (automatic)
I0501 17:30:59.118289 10529 net.cpp:113] Setting up loss_pattern
I0501 17:30:59.118304 10529 layer_factory.hpp:74] Creating layer loss_pattern
I0501 17:30:59.118325 10529 softmax_loss_layer.cpp:29] loss has ignore_label: 0
I0501 17:30:59.118345 10529 net.cpp:120] Top shape: (1)
I0501 17:30:59.118363 10529 net.cpp:122]     with loss weight 1
I0501 17:30:59.118381 10529 layer_factory.hpp:74] Creating layer fc8_neck
I0501 17:30:59.118398 10529 net.cpp:84] Creating Layer fc8_neck
I0501 17:30:59.118409 10529 net.cpp:380] fc8_neck <- fc7_drop7_0_split_2
I0501 17:30:59.118425 10529 net.cpp:338] fc8_neck -> fc8_neck
I0501 17:30:59.118443 10529 net.cpp:113] Setting up fc8_neck
I0501 17:30:59.122277 10529 net.cpp:120] Top shape: 50 23 (1150)
I0501 17:30:59.122310 10529 layer_factory.hpp:74] Creating layer loss_neck
I0501 17:30:59.122326 10529 net.cpp:84] Creating Layer loss_neck
I0501 17:30:59.122341 10529 net.cpp:380] loss_neck <- fc8_neck
I0501 17:30:59.122359 10529 net.cpp:380] loss_neck <- label_neck
I0501 17:30:59.122395 10529 net.cpp:338] loss_neck -> (automatic)
I0501 17:30:59.122416 10529 net.cpp:113] Setting up loss_neck
I0501 17:30:59.122438 10529 layer_factory.hpp:74] Creating layer loss_neck
I0501 17:30:59.122464 10529 softmax_loss_layer.cpp:29] loss has ignore_label: 0
I0501 17:30:59.122483 10529 net.cpp:120] Top shape: (1)
I0501 17:30:59.122496 10529 net.cpp:122]     with loss weight 1
I0501 17:30:59.122524 10529 layer_factory.hpp:74] Creating layer fc8_sleeve
I0501 17:30:59.122542 10529 net.cpp:84] Creating Layer fc8_sleeve
I0501 17:30:59.122555 10529 net.cpp:380] fc8_sleeve <- fc7_drop7_0_split_3
I0501 17:30:59.122577 10529 net.cpp:338] fc8_sleeve -> fc8_sleeve
I0501 17:30:59.122594 10529 net.cpp:113] Setting up fc8_sleeve
I0501 17:30:59.124101 10529 net.cpp:120] Top shape: 50 9 (450)
I0501 17:30:59.124132 10529 layer_factory.hpp:74] Creating layer loss_sleeve
I0501 17:30:59.124150 10529 net.cpp:84] Creating Layer loss_sleeve
I0501 17:30:59.124161 10529 net.cpp:380] loss_sleeve <- fc8_sleeve
I0501 17:30:59.124173 10529 net.cpp:380] loss_sleeve <- label_sleeve
I0501 17:30:59.124187 10529 net.cpp:338] loss_sleeve -> (automatic)
I0501 17:30:59.124200 10529 net.cpp:113] Setting up loss_sleeve
I0501 17:30:59.124213 10529 layer_factory.hpp:74] Creating layer loss_sleeve
I0501 17:30:59.124233 10529 softmax_loss_layer.cpp:29] loss has ignore_label: 0
I0501 17:30:59.124260 10529 net.cpp:120] Top shape: (1)
I0501 17:30:59.124274 10529 net.cpp:122]     with loss weight 1
I0501 17:30:59.124291 10529 layer_factory.hpp:74] Creating layer fc8_fit
I0501 17:30:59.124307 10529 net.cpp:84] Creating Layer fc8_fit
I0501 17:30:59.124320 10529 net.cpp:380] fc8_fit <- fc7_drop7_0_split_4
I0501 17:30:59.124336 10529 net.cpp:338] fc8_fit -> fc8_fit
I0501 17:30:59.124352 10529 net.cpp:113] Setting up fc8_fit
I0501 17:30:59.128624 10529 net.cpp:120] Top shape: 50 26 (1300)
I0501 17:30:59.128654 10529 layer_factory.hpp:74] Creating layer loss_fit
I0501 17:30:59.128675 10529 net.cpp:84] Creating Layer loss_fit
I0501 17:30:59.128687 10529 net.cpp:380] loss_fit <- fc8_fit
I0501 17:30:59.128700 10529 net.cpp:380] loss_fit <- label_fit
I0501 17:30:59.128715 10529 net.cpp:338] loss_fit -> (automatic)
I0501 17:30:59.128737 10529 net.cpp:113] Setting up loss_fit
I0501 17:30:59.128753 10529 layer_factory.hpp:74] Creating layer loss_fit
I0501 17:30:59.128780 10529 softmax_loss_layer.cpp:29] loss has ignore_label: 0
I0501 17:30:59.128808 10529 net.cpp:120] Top shape: (1)
I0501 17:30:59.128819 10529 net.cpp:122]     with loss weight 1
I0501 17:30:59.128834 10529 layer_factory.hpp:74] Creating layer fc8_ideal_for
I0501 17:30:59.128851 10529 net.cpp:84] Creating Layer fc8_ideal_for
I0501 17:30:59.128866 10529 net.cpp:380] fc8_ideal_for <- fc7_drop7_0_split_5
I0501 17:30:59.128883 10529 net.cpp:338] fc8_ideal_for -> fc8_ideal_for
I0501 17:30:59.128908 10529 net.cpp:113] Setting up fc8_ideal_for
I0501 17:30:59.130075 10529 net.cpp:120] Top shape: 50 7 (350)
I0501 17:30:59.130105 10529 layer_factory.hpp:74] Creating layer loss_ideal_for
I0501 17:30:59.130120 10529 net.cpp:84] Creating Layer loss_ideal_for
I0501 17:30:59.130131 10529 net.cpp:380] loss_ideal_for <- fc8_ideal_for
I0501 17:30:59.130143 10529 net.cpp:380] loss_ideal_for <- label_ideal_for
I0501 17:30:59.130156 10529 net.cpp:338] loss_ideal_for -> (automatic)
I0501 17:30:59.130170 10529 net.cpp:113] Setting up loss_ideal_for
I0501 17:30:59.130183 10529 layer_factory.hpp:74] Creating layer loss_ideal_for
I0501 17:30:59.130201 10529 softmax_loss_layer.cpp:29] loss has ignore_label: 0
I0501 17:30:59.130226 10529 net.cpp:120] Top shape: (1)
I0501 17:30:59.130239 10529 net.cpp:122]     with loss weight 1
I0501 17:30:59.130254 10529 layer_factory.hpp:74] Creating layer fc8_occasion
I0501 17:30:59.130269 10529 net.cpp:84] Creating Layer fc8_occasion
I0501 17:30:59.130280 10529 net.cpp:380] fc8_occasion <- fc7_drop7_0_split_6
I0501 17:30:59.130295 10529 net.cpp:338] fc8_occasion -> fc8_occasion
I0501 17:30:59.130311 10529 net.cpp:113] Setting up fc8_occasion
I0501 17:30:59.136533 10529 net.cpp:120] Top shape: 50 38 (1900)
I0501 17:30:59.136564 10529 layer_factory.hpp:74] Creating layer loss_occasion
I0501 17:30:59.136579 10529 net.cpp:84] Creating Layer loss_occasion
I0501 17:30:59.136590 10529 net.cpp:380] loss_occasion <- fc8_occasion
I0501 17:30:59.136602 10529 net.cpp:380] loss_occasion <- label_occasion
I0501 17:30:59.136618 10529 net.cpp:338] loss_occasion -> (automatic)
I0501 17:30:59.136631 10529 net.cpp:113] Setting up loss_occasion
…
name: "yq_fk1"
state {
  phase: TEST
}
layer {
  name: "data"
  type: "ImageDataMultLabel"
  top: "data"
  top: "label_category"
  top: "label_pattern"
  top: "label_neck"
  top: "label_sleeve"
  top: "label_fit"
  top: "label_ideal_for"
  top: "label_occasion"
  include {
    phase: TEST
  }
  transform_param {
    mirror: false
    crop_size: 227
    mean_file: "data/ilsvrc12/imagenet_mean.binaryproto"
  }
  image_data_mult_label_param {
    source: "/mnt/images/training/flipkart_yq2set/test.txt"
    batch_size: 50
    new_height: 256
    new_width: 256
  }
}
layer {
  name: "conv1"
  type: "Convolution"
  bottom: "data"
  top: "conv1"
  param {
    lr_mult: 1
    decay_mult: 1
  }
  param {
    lr_mult: 2
    decay_mult: 0
  }
  convolution_param {
    num_output: 96
    kernel_size: 11
    stride: 4
    weight_filler {
      type: "gaussian"
      std: 0.01
    }
    bias_filler {
      type: "constant"
      value: 0
    }
  }
}
layer {
  name: "relu1"
  type: "ReLU"
  bottom: "conv1"
  top: "conv1"
}
layer {
  name: "pool1"
  type: "Pooling"
  bottom: "conv1"
  top: "pool1"
  pooling_param {
    pool: MAX
    kernel_size: 3
    stride: 2
  }
}
layer {
  name: "norm1"
  type: "LRN"
  bottom: "pool1"
  top: "norm1"
  lrn_param {
    local_size: 5
    alpha: 0.0001
    beta: 0.75
  }
}
layer {
  name: "conv2"
  type: "Convolution"
  bottom: "norm1"
  top: "conv2"
  param {
    lr_mult: 1
    decay_mult: 1
  }
  param {
    lr_mult: 2
    decay_mult: 0
  }
  convolution_param {
    num_output: 256
    pad: 2
    kernel_size: 5
    group: 2
    weight_filler {
      type: "gaussian"
      std: 0.01
    }
    bias_filler {
      type: "constant"
      value: 1
    }
  }
}
layer {
  name: "relu2"
  type: "ReLU"
  bottom: "conv2"
  top: "conv2"
}
layer {
  name: "pool2"
  type: "Pooling"
  bottom: "conv2"
  top: "pool2"
  pooling_param {
    pool: MAX
    kernel_size: 3
    stride: 2
  }
}
layer {
  name: "norm2"
  type: "LRN"
  bottom: "pool2"
  top: "norm2"
  lrn_param {
    local_size: 5
    alpha: 0.0001
    beta: 0.75
  }
}
layer {
  name: "conv3"
  type: "Convolution"
  bottom: "norm2"
  top: "conv3"
  param {
    lr_mult: 1
    decay_mult: 1
  }
  param {
    lr_mult: 2
    decay_mult: 0
  }
  convolution_param {
    num_output: 384
    pad: 1
    kernel_size: 3
    weight_filler {
      type: "gaussian"
      std: 0.01
    }
    bias_filler {
      type: "constant"
      value: 0
    }
  }
}
layer {
  name: "relu3"
  type: "ReLU"
  bottom: "conv3"
  top: "conv3"
}
layer {
  name: "conv4"
  type: "Convolution"
  bottom: "conv3"
  top: "conv4"
  param {
    lr_mult: 1
    decay_mult: 1
  }
  param {
    lr_mult: 2
    decay_mult: 0
  }
  convolution_param {
    num_output: 384
    pad: 1
    kernel_size: 3
    group: 2
    weight_filler {
      type: "gaussian"
      std: 0.01
    }
    bias_filler {
      type: "constant"
      value: 1
    }
  }
}
layer {
  name: "relu4"
  type: "ReLU"
  bottom: "conv4"
  top: "conv4"
}
layer {
  name: "conv5"
  type: "Convolution"
  bottom: "conv4"
  top: "conv5"
  param {
    lr_mult: 1
    decay_mult: 1
  }
  param {
    lr_mult: 2
    decay_mult: 0
  }
  convolution_param {
    num_output: 256
    pad: 1
    kernel_size: 3
    group: 2
    weight_filler {
      type: "gaussian"
      std: 0.01
    }
    bias_filler {
      type: "constant"
      value: 1
    }
  }
}
layer {
  name: "relu5"
  type: "ReLU"
  bottom: "conv5"
  top: "conv5"
}
layer {
  name: "pool5"
  type: "Pooling"
  bottom: "conv5"
  top: "pool5"
  pooling_param {
    pool: MAX
    kernel_size: 3
    stride: 2
  }
}
layer {
  name: "fc6"
  type: "InnerProduct"
  bottom: "pool5"
  top: "fc6"
  param {
    lr_mult: 1
    decay_mult: 1
  }
  param {
    lr_mult: 2
    decay_mult: 0
  }
  inner_product_param {
    num_output: 4096
    weight_filler {
      type: "gaussian"
      std: 0.005
    }
    bias_filler {
      type: "constant"
      value: 1
    }
  }
}
layer {
  name: "relu6"
  type: "ReLU"
  bottom: "fc6"
  top: "fc6"
}
layer {
  name: "drop6"
  type: "Dropout"
  bottom: "fc6"
  top: "fc6"
  dropout_param {
    dropout_ratio: 0.5
  }
}
layer {
  name: "fc7"
  type: "InnerProduct"
  bottom: "fc6"
  top: "fc7"
  param {
    lr_mult: 1
    decay_mult: 1
  }
  param {
    lr_mult: 2
    decay_mult: 0
  }
  inner_product_param {
    num_output: 4096
    weight_filler {
      type: "gaussian"
      std: 0.005
    }
    bias_filler {
      type: "constant"
      value: 1
    }
  }
}
layer {
  name: "relu7"
  type: "ReLU"
  bottom: "fc7"
  top: "fc7"
}
layer {
  name: "drop7"
  type: "Dropout"
  bottom: "fc7"
  top: "fc7"
  dropout_param {
    dropout_ratio: 0.5
  }
}
layer {
  name: "fc8_category"
  type: "InnerProduct"
  bottom: "fc7"
  top: "fc8_category"
  param {
    lr_mult: 10
    decay_mult: 1
  }
  param {
    lr_mult: 20
    decay_mult: 0
  }
  inner_product_param {
    num_output: 26
    weight_filler {
      type: "gaussian"
      std: 0.01
    }
    bias_filler {
      type: "constant"
      value: 0
    }
  }
}
layer {
  name: "loss_category"
  type: "SoftmaxWithLoss"
  bottom: "fc8_category"
  bottom: "label_category"
}
layer {
  name: "accuracy_category"
  type: "Accuracy"
  bottom: "fc8_category"
  bottom: "label_category"
  top: "accuracy_category"
  include {
    phase: TEST
  }
}
layer {
  name: "fc8_pattern"
  type: "InnerProduct"
  bottom: "fc7"
  top: "fc8_pattern"
  param {
    lr_mult: 10
    decay_mult: 1
  }
  param {
    lr_mult: 20
    decay_mult: 0
  }
  inner_product_param {
    num_output: 20
    weight_filler {
      type: "gaussian"
      std: 0.01
    }
    bias_filler {
      type: "constant"
      value: 0
    }
  }
}
layer {
  name: "loss_pattern"
  type: "SoftmaxWithLoss"
  bottom: "fc8_pattern"
  bottom: "label_pattern"
  loss_param {
    ignore_label: 0
  }
}
layer {
  name: "accuracy_pattern"
  type: "Accuracy"
  bottom: "fc8_pattern"
  bottom: "label_pattern"
  top: "accuracy_pattern"
  include {
    phase: TEST
  }
  accuracy_param {
    ignore_label: 0
  }
}
layer {
  name: "fc8_neck"
  type: "InnerProduct"
  bottom: "fc7"
  top: "fc8_neck"
  param {
    lr_mult: 10
    decay_mult: 1
  }
  param {
    lr_mult: 20
    decay_mult: 0
  }
  inner_product_param {
    num_output: 23
    weight_filler {
      type: "gaussian"
      std: 0.01
    }
    bias_filler {
      type: "constant"
      value: 0
    }
  }
}
layer {
  name: "loss_neck"
  type: "SoftmaxWithLoss"
  bottom: "fc8_neck"
  bottom: "label_neck"
  loss_param {
    ignore_label: 0
  }
}
layer {
  name: "accuracy_neck"
  type: "Accuracy"
  bottom: "fc8_neck"
  bottom: "label_neck"
  top: "accuracy_neck"
  include {
    phase: TEST
  }
  accuracy_param {
    ignore_label: 0
  }
}
layer {
  name: "fc8_sleeve"
  type: "InnerProduct"
  bottom: "fc7"
  top: "fc8_sleeve"
  param {
    lr_mult: 10
    decay_mult: 1
  }
  param {
    lr_mult: 20
    decay_mult: 0
  }
  inner_product_param {
    num_output: 9
    weight_filler {
      type: "gaussian"
      std: 0.01
    }
    bias_filler {
      type: "constant"
      value: 0
    }
  }
}
layer {
  name: "loss_sleeve"
  type: "SoftmaxWithLoss"
  bottom: "fc8_sleeve"
  bottom: "label_sleeve"
  loss_param {
    ignore_label: 0
  }
}
layer {
  name: "accuracy_sleeve"
  type: "Accuracy"
  bottom: "fc8_sleeve"
  bottom: "label_sleeve"
  top: "accuracy_sleeve"
  include {
    phase: TEST
  }
  accuracy_param {
    ignore_label: 0
  }
}
layer {
  name: "fc8_fit"
  type: "InnerProduct"
  bottom: "fc7"
  top: "fc8_fit"
  param {
    lr_mult: 10
    decay_mult: 1
  }
  param {
    lr_mult: 20
    decay_mult: 0
  }
  inner_product_param {
    num_output: 26
    weight_filler {
      type: "gaussian"
      std: 0.01
    }
    bias_filler {
      type: "constant"
      value: 0
    }
  }
}
layer {
  name: "loss_fit"
  type: "SoftmaxWithLoss"
  bottom: "fc8_fit"
  bottom: "label_fit"
  loss_param {
    ignore_label: 0
  }
}
layer {
  name: "accuracy_fit"
  type: "Accuracy"
  bottom: "fc8_fit"
  bottom: "label_fit"
  top: "accuracy_fit"
  include {
    phase: TEST
  }
  accuracy_param {
    ignore_label: 0
  }
}
layer {
  name: "fc8_ideal_for"
  type: "InnerProduct"
  bottom: "fc7"
  top: "fc8_ideal_for"
  param {
    lr_mult: 10
    decay_mult: 1
  }
  param {
    lr_mult: 20
    decay_mult: 0
  }
  inner_product_param {
    num_output: 7
    weight_filler {
      type: "gaussian"
      std: 0.01
    }
    bias_filler {
      type: "constant"
      value: 0
    }
  }
}
layer {
  name: "loss_ideal_for"
  type: "SoftmaxWithLoss"
  bottom: "fc8_ideal_for"
  bottom: "label_ideal_for"
  loss_param {
    ignore_label: 0
  }
}
layer {
  name: "accuracy_ideal_for"
  type: "Accuracy"
  bottom: "fc8_ideal_for"
  bottom: "label_ideal_for"
  top: "accuracy_ideal_for"
  include {
    phase: TEST
  }
  accuracy_param {
    ignore_label: 0
  }
}
layer {
  name: "fc8_occasion"
  type: "InnerProduct"
  bottom: "fc7"
  top: "fc8_occasion"
  param {
    lr_mult: 10
    decay_mult: 1
  }
  param {
    lr_mult: 20
    decay_mult: 0
  }
  inner_product_param {
    num_output: 38
    weight_filler {
      type: "gaussian"
      std: 0.01
    }
    bias_filler {
      type: "constant"
      value: 0
    }
  }
}
layer {
  name: "loss_occasion"
  type: "SoftmaxWithLoss"
  bottom: "fc8_occasion"
  bottom: "label_occasion"
  loss_param {
    ignore_label: 0
  }
}
layer {
  name: "accuracy_occasion"
  type: "Accuracy"
  bottom: "fc8_occasion"
  bottom: "label_occasion"
  top: "accuracy_occasion"
  include {
    phase: TEST
  }
  accuracy_param {
    ignore_label: 0
  }
}
I0501 17:30:59.141775 10529 layer_factory.hpp:74] Creating layer data
I0501 17:30:59.141809 10529 net.cpp:84] Creating Layer data
I0501 17:30:59.141825 10529 net.cpp:338] data -> data
I0501 17:30:59.141846 10529 net.cpp:338] data -> label_category
I0501 17:30:59.141875 10529 net.cpp:338] data -> label_pattern
…
I0501 17:30:59.173930 10529 image_data_multclass_layer.cpp:75] ##############################################
I0501 17:30:59.173943 10529 image_data_multclass_layer.cpp:76] ##############################################
I0501 17:30:59.173954 10529 image_data_multclass_layer.cpp:77] size of top: 8
I0501 17:30:59.176326 10529 image_data_multclass_layer.cpp:95] output data size: 50,3,227,227
I0501 17:30:59.176353 10529 image_data_multclass_layer.cpp:99] number of labels: 7
I0501 17:30:59.176383 10529 data_transformer.cpp:22] Loading mean file from: data/ilsvrc12/imagenet_mean.binaryproto
I0501 17:30:59.187901 10529 net.cpp:120] Top shape: 50 3 227 227 (7729350)
I0501 17:30:59.187950 10529 net.cpp:120] Top shape: 50 (50)
I0501 17:30:59.187964 10529 net.cpp:120] Top shape: 50 (50)
I0501 17:30:59.187976 10529 net.cpp:120] Top shape: 50 (50)
I0501 17:30:59.187988 10529 net.cpp:120] Top shape: 50 (50)
I0501 17:30:59.187999 10529 net.cpp:120] Top shape: 50 (50)
I0501 17:30:59.188010 10529 net.cpp:120] Top shape: 50 (50)
I0501 17:30:59.188021 10529 net.cpp:120] Top shape: 50 (50)
I0501 17:30:59.188076 10529 layer_factory.hpp:74] Creating layer label_category_data_1_split
I0501 17:30:59.188120 10529 net.cpp:84] Creating Layer label_category_data_1_split
I0501 17:30:59.188134 10529 net.cpp:380] label_category_data_1_split <- label_category
I0501 17:30:59.188153 10529 net.cpp:338] label_category_data_1_split -> label_category_data_1_split_0
I0501 17:30:59.188177 10529 net.cpp:338] label_category_data_1_split -> label_category_data_1_split_1
I0501 17:30:59.188192 10529 net.cpp:113] Setting up label_category_data_1_split
I0501 17:30:59.188213 10529 net.cpp:120] Top shape: 50 (50)
I0501 17:30:59.188226 10529 net.cpp:120] Top shape: 50 (50)
I0501 17:30:59.188236 10529 layer_factory.hpp:74] Creating layer label_pattern_data_2_split
I0501 17:30:59.188251 10529 net.cpp:84] Creating Layer label_pattern_data_2_split
I0501 17:30:59.188261 10529 net.cpp:380] label_pattern_data_2_split <- label_pattern
I0501 17:30:59.188276 10529 net.cpp:338] label_pattern_data_2_split -> label_pattern_data_2_split_0
I0501 17:30:59.188290 10529 net.cpp:338] label_pattern_data_2_split -> label_pattern_data_2_split_1
I0501 17:30:59.188304 10529 net.cpp:113] Setting up label_pattern_data_2_split
I0501 17:30:59.188318 10529 net.cpp:120] Top shape: 50 (50)
I0501 17:30:59.188330 10529 net.cpp:120] Top shape: 50 (50)
I0501 17:30:59.188340 10529 layer_factory.hpp:74] Creating layer label_neck_data_3_split
I0501 17:30:59.188352 10529 net.cpp:84] Creating Layer label_neck_data_3_split
I0501 17:30:59.188364 10529 net.cpp:380] label_neck_data_3_split <- label_neck
I0501 17:30:59.188376 10529 net.cpp:338] label_neck_data_3_split -> label_neck_data_3_split_0
I0501 17:30:59.188391 10529 net.cpp:338] label_neck_data_3_split -> label_neck_data_3_split_1
I0501 17:30:59.188405 10529 net.cpp:113] Setting up label_neck_data_3_split
I0501 17:30:59.188418 10529 net.cpp:120] Top shape: 50 (50)
I0501 17:30:59.188432 10529 net.cpp:120] Top shape: 50 (50)
I0501 17:30:59.188443 10529 layer_factory.hpp:74] Creating layer label_sleeve_data_4_split
I0501 17:30:59.188458 10529 net.cpp:84] Creating Layer label_sleeve_data_4_split
I0501 17:30:59.188468 10529 net.cpp:380] label_sleeve_data_4_split <- label_sleeve
I0501 17:30:59.188482 10529 net.cpp:338] label_sleeve_data_4_split -> label_sleeve_data_4_split_0
I0501 17:30:59.188496 10529 net.cpp:338] label_sleeve_data_4_split -> label_sleeve_data_4_split_1
I0501 17:30:59.188509 10529 net.cpp:113] Setting up label_sleeve_data_4_split
I0501 17:30:59.188523 10529 net.cpp:120] Top shape: 50 (50)
I0501 17:30:59.188534 10529 net.cpp:120] Top shape: 50 (50)
I0501 17:30:59.188544 10529 layer_factory.hpp:74] Creating layer label_fit_data_5_split
I0501 17:30:59.188557 10529 net.cpp:84] Creating Layer label_fit_data_5_split
I0501 17:30:59.188570 10529 net.cpp:380] label_fit_data_5_split <- label_fit
I0501 17:30:59.188583 10529 net.cpp:338] label_fit_data_5_split -> label_fit_data_5_split_0
I0501 17:30:59.188599 10529 net.cpp:338] label_fit_data_5_split -> label_fit_data_5_split_1
I0501 17:30:59.188613 10529 net.cpp:113] Setting up label_fit_data_5_split
I0501 17:30:59.188627 10529 net.cpp:120] Top shape: 50 (50)
I0501 17:30:59.188638 10529 net.cpp:120] Top shape: 50 (50)
I0501 17:30:59.188648 10529 layer_factory.hpp:74] Creating layer label_ideal_for_data_6_split
I0501 17:30:59.188662 10529 net.cpp:84] Creating Layer label_ideal_for_data_6_split
I0501 17:30:59.188676 10529 net.cpp:380] label_ideal_for_data_6_split <- label_ideal_for
I0501 17:30:59.188690 10529 net.cpp:338] label_ideal_for_data_6_split -> label_ideal_for_data_6_split_0
I0501 17:30:59.188705 10529 net.cpp:338] label_ideal_for_data_6_split -> label_ideal_for_data_6_split_1
I0501 17:30:59.188719 10529 net.cpp:113] Setting up label_ideal_for_data_6_split
I0501 17:30:59.188733 10529 net.cpp:120] Top shape: 50 (50)
I0501 17:30:59.188745 10529 net.cpp:120] Top shape: 50 (50)
I0501 17:30:59.188755 10529 layer_factory.hpp:74] Creating layer label_occasion_data_7_split
I0501 17:30:59.188767 10529 net.cpp:84] Creating Layer label_occasion_data_7_split
I0501 17:30:59.188793 10529 net.cpp:380] label_occasion_data_7_split <- label_occasion
I0501 17:30:59.188807 10529 net.cpp:338] label_occasion_data_7_split -> label_occasion_data_7_split_0
I0501 17:30:59.188822 10529 net.cpp:338] label_occasion_data_7_split -> label_occasion_data_7_split_1
I0501 17:30:59.188837 10529 net.cpp:113] Setting up label_occasion_data_7_split
I0501 17:30:59.188851 10529 net.cpp:120] Top shape: 50 (50)
I0501 17:30:59.188863 10529 net.cpp:120] Top shape: 50 (50)
I0501 17:30:59.188873 10529 layer_factory.hpp:74] Creating layer conv1
I0501 17:30:59.188892 10529 net.cpp:84] Creating Layer conv1
I0501 17:30:59.188904 10529 net.cpp:380] conv1 <- data
I0501 17:30:59.188918 10529 net.cpp:338] conv1 -> conv1
I0501 17:30:59.188935 10529 net.cpp:113] Setting up conv1
I0501 17:30:59.190255 10529 net.cpp:120] Top shape: 50 96 55 55 (14520000)
I0501 17:30:59.190289 10529 layer_factory.hpp:74] Creating layer relu1
I0501 17:30:59.190306 10529 net.cpp:84] Creating Layer relu1
I0501 17:30:59.190317 10529 net.cpp:380] relu1 <- conv1
I0501 17:30:59.190331 10529 net.cpp:327] relu1 -> conv1 (in-place)
I0501 17:30:59.190346 10529 net.cpp:113] Setting up relu1
I0501 17:30:59.190359 10529 net.cpp:120] Top shape: 50 96 55 55 (14520000)
I0501 17:30:59.190369 10529 layer_factory.hpp:74] Creating layer pool1
I0501 17:30:59.190384 10529 net.cpp:84] Creating Layer pool1
I0501 17:30:59.190395 10529 net.cpp:380] pool1 <- conv1
I0501 17:30:59.190409 10529 net.cpp:338] pool1 -> pool1
I0501 17:30:59.190423 10529 net.cpp:113] Setting up pool1
I0501 17:30:59.190441 10529 net.cpp:120] Top shape: 50 96 27 27 (3499200)
I0501 17:30:59.190451 10529 layer_factory.hpp:74] Creating layer norm1
I0501 17:30:59.190469 10529 net.cpp:84] Creating Layer norm1
I0501 17:30:59.190479 10529 net.cpp:380] norm1 <- pool1
I0501 17:30:59.190492 10529 net.cpp:338] norm1 -> norm1
I0501 17:30:59.190505 10529 net.cpp:113] Setting up norm1
I0501 17:30:59.190521 10529 net.cpp:120] Top shape: 50 96 27 27 (3499200)
I0501 17:30:59.190534 10529 layer_factory.hpp:74] Creating layer conv2
I0501 17:30:59.190551 10529 net.cpp:84] Creating Layer conv2
I0501 17:30:59.190562 10529 net.cpp:380] conv2 <- norm1
I0501 17:30:59.190575 10529 net.cpp:338] conv2 -> conv2
I0501 17:30:59.190589 10529 net.cpp:113] Setting up conv2
I0501 17:30:59.202139 10529 net.cpp:120] Top shape: 50 256 27 27 (9331200)
I0501 17:30:59.202180 10529 layer_factory.hpp:74] Creating layer relu2
I0501 17:30:59.202198 10529 net.cpp:84] Creating Layer relu2
I0501 17:30:59.202210 10529 net.cpp:380] relu2 <- conv2
I0501 17:30:59.202224 10529 net.cpp:327] relu2 -> conv2 (in-place)
I0501 17:30:59.202239 10529 net.cpp:113] Setting up relu2
I0501 17:30:59.202251 10529 net.cpp:120] Top shape: 50 256 27 27 (9331200)
I0501 17:30:59.202261 10529 layer_factory.hpp:74] Creating layer pool2
I0501 17:30:59.202275 10529 net.cpp:84] Creating Layer pool2
I0501 17:30:59.202286 10529 net.cpp:380] pool2 <- conv2
I0501 17:30:59.202299 10529 net.cpp:338] pool2 -> pool2
I0501 17:30:59.202314 10529 net.cpp:113] Setting up pool2
I0501 17:30:59.202330 10529 net.cpp:120] Top shape: 50 256 13 13 (2163200)
I0501 17:30:59.202344 10529 layer_factory.hpp:74] Creating layer norm2
I0501 17:30:59.202360 10529 net.cpp:84] Creating Layer norm2
I0501 17:30:59.202371 10529 net.cpp:380] norm2 <- pool2
I0501 17:30:59.202385 10529 net.cpp:338] norm2 -> norm2
I0501 17:30:59.202399 10529 net.cpp:113] Setting up norm2
I0501 17:30:59.202414 10529 net.cpp:120] Top shape: 50 256 13 13 (2163200)
I0501 17:30:59.202425 10529 layer_factory.hpp:74] Creating layer conv3
I0501 17:30:59.202442 10529 net.cpp:84] Creating Layer conv3
I0501 17:30:59.202453 10529 net.cpp:380] conv3 <- norm2
I0501 17:30:59.202468 10529 net.cpp:338] conv3 -> conv3
I0501 17:30:59.202483 10529 net.cpp:113] Setting up conv3
I0501 17:30:59.236737 10529 net.cpp:120] Top shape: 50 384 13 13 (3244800)
I0501 17:30:59.236799 10529 layer_factory.hpp:74] Creating layer relu3
I0501 17:30:59.236822 10529 net.cpp:84] Creating Layer relu3
I0501 17:30:59.236835 10529 net.cpp:380] relu3 <- conv3
I0501 17:30:59.236886 10529 net.cpp:327] relu3 -> conv3 (in-place)
I0501 17:30:59.236903 10529 net.cpp:113] Setting up relu3
I0501 17:30:59.236917 10529 net.cpp:120] Top shape: 50 384 13 13 (3244800)
I0501 17:30:59.236928 10529 layer_factory.hpp:74] Creating layer conv4
I0501 17:30:59.236948 10529 net.cpp:84] Creating Layer conv4
I0501 17:30:59.236958 10529 net.cpp:380] conv4 <- conv3
I0501 17:30:59.236974 10529 net.cpp:338] conv4 -> conv4
I0501 17:30:59.236989 10529 net.cpp:113] Setting up conv4
I0501 17:30:59.262096 10529 net.cpp:120] Top shape: 50 384 13 13 (3244800)
I0501 17:30:59.262143 10529 layer_factory.hpp:74] Creating layer relu4
I0501 17:30:59.262166 10529 net.cpp:84] Creating Layer relu4
I0501 17:30:59.262178 10529 net.cpp:380] relu4 <- conv4
I0501 17:30:59.262195 10529 net.cpp:327] relu4 -> conv4 (in-place)
I0501 17:30:59.262212 10529 net.cpp:113] Setting up relu4
I0501 17:30:59.262228 10529 net.cpp:120] Top shape: 50 384 13 13 (3244800)
I0501 17:30:59.262239 10529 layer_factory.hpp:74] Creating layer conv5
I0501 17:30:59.262256 10529 net.cpp:84] Creating Layer conv5
I0501 17:30:59.262280 10529 net.cpp:380] conv5 <- conv4
I0501 17:30:59.262297 10529 net.cpp:338] conv5 -> conv5
I0501 17:30:59.262315 10529 net.cpp:113] Setting up conv5
I0501 17:30:59.279424 10529 net.cpp:120] Top shape: 50 256 13 13 (2163200)
I0501 17:30:59.279460 10529 layer_factory.hpp:74] Creating layer relu5
I0501 17:30:59.279477 10529 net.cpp:84] Creating Layer relu5
I0501 17:30:59.279489 10529 net.cpp:380] relu5 <- conv5
I0501 17:30:59.279503 10529 net.cpp:327] relu5 -> conv5 (in-place)
I0501 17:30:59.279527 10529 net.cpp:113] Setting up relu5
I0501 17:30:59.279541 10529 net.cpp:120] Top shape: 50 256 13 13 (2163200)
I0501 17:30:59.279552 10529 layer_factory.hpp:74] Creating layer pool5
I0501 17:30:59.279567 10529 net.cpp:84] Creating Layer pool5
I0501 17:30:59.279579 10529 net.cpp:380] pool5 <- conv5
I0501 17:30:59.279593 10529 net.cpp:338] pool5 -> pool5
I0501 17:30:59.279608 10529 net.cpp:113] Setting up pool5
I0501 17:30:59.279628 10529 net.cpp:120] Top shape: 50 256 6 6 (460800)
I0501 17:30:59.279649 10529 layer_factory.hpp:74] Creating layer fc6
I0501 17:30:59.279666 10529 net.cpp:84] Creating Layer fc6
I0501 17:30:59.279677 10529 net.cpp:380] fc6 <- pool5
I0501 17:30:59.279692 10529 net.cpp:338] fc6 -> fc6
I0501 17:30:59.279714 10529 net.cpp:113] Setting up fc6
I0501 17:31:00.733649 10529 net.cpp:120] Top shape: 50 4096 (204800)
I0501 17:31:00.733716 10529 layer_factory.hpp:74] Creating layer relu6
I0501 17:31:00.733741 10529 net.cpp:84] Creating Layer relu6
I0501 17:31:00.733757 10529 net.cpp:380] relu6 <- fc6
I0501 17:31:00.733774 10529 net.cpp:327] relu6 -> fc6 (in-place)
I0501 17:31:00.733791 10529 net.cpp:113] Setting up relu6
I0501 17:31:00.733805 10529 net.cpp:120] Top shape: 50 4096 (204800)
I0501 17:31:00.733818 10529 layer_factory.hpp:74] Creating layer drop6
I0501 17:31:00.733834 10529 net.cpp:84] Creating Layer drop6
I0501 17:31:00.733845 10529 net.cpp:380] drop6 <- fc6
I0501 17:31:00.733858 10529 net.cpp:327] drop6 -> fc6 (in-place)
I0501 17:31:00.733871 10529 net.cpp:113] Setting up drop6
I0501 17:31:00.733887 10529 net.cpp:120] Top shape: 50 4096 (204800)
I0501 17:31:00.733908 10529 layer_factory.hpp:74] Creating layer fc7
I0501 17:31:00.733927 10529 net.cpp:84] Creating Layer fc7
I0501 17:31:00.733938 10529 net.cpp:380] fc7 <- fc6
I0501 17:31:00.733954 10529 net.cpp:338] fc7 -> fc7
I0501 17:31:00.733973 10529 net.cpp:113] Setting up fc7
I0501 17:31:01.378147 10529 net.cpp:120] Top shape: 50 4096 (204800)
I0501 17:31:01.378211 10529 layer_factory.hpp:74] Creating layer relu7
I0501 17:31:01.378235 10529 net.cpp:84] Creating Layer relu7
I0501 17:31:01.378250 10529 net.cpp:380] relu7 <- fc7
I0501 17:31:01.378268 10529 net.cpp:327] relu7 -> fc7 (in-place)
I0501 17:31:01.378288 10529 net.cpp:113] Setting up relu7
I0501 17:31:01.378301 10529 net.cpp:120] Top shape: 50 4096 (204800)
I0501 17:31:01.378316 10529 layer_factory.hpp:74] Creating layer drop7
I0501 17:31:01.378334 10529 net.cpp:84] Creating Layer drop7
I0501 17:31:01.378391 10529 net.cpp:380] drop7 <- fc7
I0501 17:31:01.378407 10529 net.cpp:327] drop7 -> fc7 (in-place)
I0501 17:31:01.378422 10529 net.cpp:113] Setting up drop7
I0501 17:31:01.378438 10529 net.cpp:120] Top shape: 50 4096 (204800)
I0501 17:31:01.378450 10529 layer_factory.hpp:74] Creating layer fc7_drop7_0_split
I0501 17:31:01.378466 10529 net.cpp:84] Creating Layer fc7_drop7_0_split
I0501 17:31:01.378476 10529 net.cpp:380] fc7_drop7_0_split <- fc7
I0501 17:31:01.378491 10529 net.cpp:338] fc7_drop7_0_split -> fc7_drop7_0_split_0
I0501 17:31:01.378509 10529 net.cpp:338] fc7_drop7_0_split -> fc7_drop7_0_split_1
I0501 17:31:01.378525 10529 net.cpp:338] fc7_drop7_0_split -> fc7_drop7_0_split_2
I0501 17:31:01.378540 10529 net.cpp:338] fc7_drop7_0_split -> fc7_drop7_0_split_3
I0501 17:31:01.378554 10529 net.cpp:338] fc7_drop7_0_split -> fc7_drop7_0_split_4
I0501 17:31:01.378569 10529 net.cpp:338] fc7_drop7_0_split -> fc7_drop7_0_split_5
I0501 17:31:01.378584 10529 net.cpp:338] fc7_drop7_0_split -> fc7_drop7_0_split_6
I0501 17:31:01.378598 10529 net.cpp:113] Setting up fc7_drop7_0_split
I0501 17:31:01.378618 10529 net.cpp:120] Top shape: 50 4096 (204800)
I0501 17:31:01.378638 10529 net.cpp:120] Top shape: 50 4096 (204800)
I0501 17:31:01.378651 10529 net.cpp:120] Top shape: 50 4096 (204800)
I0501 17:31:01.378662 10529 net.cpp:120] Top shape: 50 4096 (204800)
I0501 17:31:01.378674 10529 net.cpp:120] Top shape: 50 4096 (204800)
I0501 17:31:01.378686 10529 net.cpp:120] Top shape: 50 4096 (204800)
I0501 17:31:01.378701 10529 net.cpp:120] Top shape: 50 4096 (204800)
I0501 17:31:01.378712 10529 layer_factory.hpp:74] Creating layer fc8_category
I0501 17:31:01.378732 10529 net.cpp:84] Creating Layer fc8_category
I0501 17:31:01.378746 10529 net.cpp:380] fc8_category <- fc7_drop7_0_split_0
I0501 17:31:01.378762 10529 net.cpp:338] fc8_category -> fc8_category
I0501 17:31:01.378778 10529 net.cpp:113] Setting up fc8_category
I0501 17:31:01.383028 10529 net.cpp:120] Top shape: 50 26 (1300)
I0501 17:31:01.383057 10529 layer_factory.hpp:74] Creating layer fc8_category_fc8_category_0_split
I0501 17:31:01.383076 10529 net.cpp:84] Creating Layer fc8_category_fc8_category_0_split
I0501 17:31:01.383098 10529 net.cpp:380] fc8_category_fc8_category_0_split <- fc8_category
I0501 17:31:01.383122 10529 net.cpp:338] fc8_category_fc8_category_0_split -> fc8_category_fc8_category_0_split_0
I0501 17:31:01.383151 10529 net.cpp:338] fc8_category_fc8_category_0_split -> fc8_category_fc8_category_0_split_1
I0501 17:31:01.383167 10529 net.cpp:113] Setting up fc8_category_fc8_category_0_split
I0501 17:31:01.383183 10529 net.cpp:120] Top shape: 50 26 (1300)
I0501 17:31:01.383195 10529 net.cpp:120] Top shape: 50 26 (1300)
I0501 17:31:01.383206 10529 layer_factory.hpp:74] Creating layer loss_category
I0501 17:31:01.383226 10529 net.cpp:84] Creating Layer loss_category
I0501 17:31:01.383239 10529 net.cpp:380] loss_category <- fc8_category_fc8_category_0_split_0
I0501 17:31:01.383252 10529 net.cpp:380] loss_category <- label_category_data_1_split_0
I0501 17:31:01.383267 10529 net.cpp:338] loss_category -> (automatic)
…
