…
state {
  phase: TRAIN
}
layer {
  name: "data"
  type: "ImageDataMultLabel"
  top: "data"
  top: "label_category"
  top: "label_pattern"
  top: "label_neck"
  top: "label_sleeve"
  top: "label_fit"
  top: "label_ideal_for"
  top: "label_occasion"
  include {
    phase: TRAIN
  }
  transform_param {
    mirror: true
    crop_size: 224
    mean_file: "data/ilsvrc12/imagenet_mean.binaryproto"
  }
  image_data_mult_label_param {
    source: "/mnt/images/training/flipkart_yq2set/train.txt"
    batch_size: 64
    new_height: 256
    new_width: 256
  }
}
layer {
  name: "conv1"
  type: "Convolution"
  bottom: "data"
  top: "conv1"
  param {
    lr_mult: 1
    decay_mult: 1
  }
  param {
    lr_mult: 2
    decay_mult: 0
  }
  convolution_param {
    num_output: 96
    kernel_size: 11
    stride: 4
    weight_filler {
      type: "gaussian"
      mean: 0
      std: 0.01
    }
    bias_filler {
      type: "constant"
      value: 0
    }
  }
}
layer {
  name: "relu0"
  type: "ReLU"
  bottom: "conv1"
  top: "conv1"
}
layer {
  name: "cccp1"
  type: "Convolution"
  bottom: "conv1"
  top: "cccp1"
  param {
    lr_mult: 1
    decay_mult: 1
  }
  param {
    lr_mult: 2
    decay_mult: 0
  }
  convolution_param {
    num_output: 96
    kernel_size: 1
    stride: 1
    weight_filler {
      type: "gaussian"
      mean: 0
      std: 0.05
    }
    bias_filler {
      type: "constant"
      value: 0
    }
  }
}
layer {
  name: "relu1"
  type: "ReLU"
  bottom: "cccp1"
  top: "cccp1"
}
layer {
  name: "cccp2"
  type: "Convolution"
  bottom: "cccp1"
  top: "cccp2"
  param {
    lr_mult: 1
    decay_mult: 1
  }
  param {
    lr_mult: 2
    decay_mult: 0
  }
  convolution_param {
    num_output: 96
    kernel_size: 1
    stride: 1
    weight_filler {
      type: "gaussian"
      mean: 0
      std: 0.05
    }
    bias_filler {
      type: "constant"
      value: 0
    }
  }
}
layer {
  name: "relu2"
  type: "ReLU"
  bottom: "cccp2"
  top: "cccp2"
}
layer {
  name: "pool0"
  type: "Pooling"
  bottom: "cccp2"
  top: "pool0"
  pooling_param {
    pool: MAX
    kernel_size: 3
    stride: 2
  }
}
layer {
  name: "conv2"
  type: "Convolution"
  bottom: "pool0"
  top: "conv2"
  param {
    lr_mult: 1
    decay_mult: 1
  }
  param {
    lr_mult: 2
    decay_mult: 0
  }
  convolution_param {
    num_output: 256
    pad: 2
    kernel_size: 5
    stride: 1
    weight_filler {
      type: "gaussian"
      mean: 0
      std: 0.05
    }
    bias_filler {
      type: "constant"
      value: 0
    }
  }
}
layer {
  name: "relu3"
  type: "ReLU"
  bottom: "conv2"
  top: "conv2"
}
layer {
  name: "cccp3"
  type: "Convolution"
  bottom: "conv2"
  top: "cccp3"
  param {
    lr_mult: 1
    decay_mult: 1
  }
  param {
    lr_mult: 2
    decay_mult: 0
  }
  convolution_param {
    num_output: 256
    kernel_size: 1
    stride: 1
    weight_filler {
      type: "gaussian"
      mean: 0
      std: 0.05
    }
    bias_filler {
      type: "constant"
      value: 0
    }
  }
}
layer {
  name: "relu5"
  type: "ReLU"
  bottom: "cccp3"
  top: "cccp3"
}
layer {
  name: "cccp4"
  type: "Convolution"
  bottom: "cccp3"
  top: "cccp4"
  param {
    lr_mult: 1
    decay_mult: 1
  }
  param {
    lr_mult: 2
    decay_mult: 0
  }
  convolution_param {
    num_output: 256
    kernel_size: 1
    stride: 1
    weight_filler {
      type: "gaussian"
      mean: 0
      std: 0.05
    }
    bias_filler {
      type: "constant"
      value: 0
    }
  }
}
layer {
  name: "relu6"
  type: "ReLU"
  bottom: "cccp4"
  top: "cccp4"
}
layer {
  name: "pool2"
  type: "Pooling"
  bottom: "cccp4"
  top: "pool2"
  pooling_param {
    pool: MAX
    kernel_size: 3
    stride: 2
  }
}
layer {
  name: "conv3"
  type: "Convolution"
  bottom: "pool2"
  top: "conv3"
  param {
    lr_mult: 1
    decay_mult: 1
  }
  param {
    lr_mult: 2
    decay_mult: 0
  }
  convolution_param {
    num_output: 384
    pad: 1
    kernel_size: 3
    stride: 1
    weight_filler {
      type: "gaussian"
      mean: 0
      std: 0.01
    }
    bias_filler {
      type: "constant"
      value: 0
    }
  }
}
layer {
  name: "relu7"
  type: "ReLU"
  bottom: "conv3"
  top: "conv3"
}
layer {
  name: "cccp5"
  type: "Convolution"
  bottom: "conv3"
  top: "cccp5"
  param {
    lr_mult: 1
    decay_mult: 1
  }
  param {
    lr_mult: 2
    decay_mult: 0
  }
  convolution_param {
    num_output: 384
    kernel_size: 1
    stride: 1
    weight_filler {
      type: "gaussian"
      mean: 0
      std: 0.05
    }
    bias_filler {
      type: "constant"
      value: 0
    }
  }
}
layer {
  name: "relu8"
  type: "ReLU"
  bottom: "cccp5"
  top: "cccp5"
}
layer {
  name: "cccp6"
  type: "Convolution"
  bottom: "cccp5"
  top: "cccp6"
  param {
    lr_mult: 1
    decay_mult: 1
  }
  param {
    lr_mult: 2
    decay_mult: 0
  }
  convolution_param {
    num_output: 384
    kernel_size: 1
    stride: 1
    weight_filler {
      type: "gaussian"
      mean: 0
      std: 0.05
    }
    bias_filler {
      type: "constant"
      value: 0
    }
  }
}
layer {
  name: "relu9"
  type: "ReLU"
  bottom: "cccp6"
  top: "cccp6"
}
layer {
  name: "pool3"
  type: "Pooling"
  bottom: "cccp6"
  top: "pool3"
  pooling_param {
    pool: MAX
    kernel_size: 3
    stride: 2
  }
}
layer {
  name: "drop"
  type: "Dropout"
  bottom: "pool3"
  top: "pool3"
  dropout_param {
    dropout_ratio: 0.5
  }
}
layer {
  name: "conv4-1024"
  type: "Convolution"
  bottom: "pool3"
  top: "conv4"
  param {
    lr_mult: 1
    decay_mult: 1
  }
  param {
    lr_mult: 2
    decay_mult: 0
  }
  convolution_param {
    num_output: 1024
    pad: 1
    kernel_size: 3
    stride: 1
    weight_filler {
      type: "gaussian"
      mean: 0
      std: 0.05
    }
    bias_filler {
      type: "constant"
      value: 0
    }
  }
}
layer {
  name: "relu10"
  type: "ReLU"
  bottom: "conv4"
  top: "conv4"
}
layer {
  name: "cccp7-1024"
  type: "Convolution"
  bottom: "conv4"
  top: "cccp7"
  param {
    lr_mult: 1
    decay_mult: 1
  }
  param {
    lr_mult: 2
    decay_mult: 0
  }
  convolution_param {
    num_output: 1024
    kernel_size: 1
    stride: 1
    weight_filler {
      type: "gaussian"
      mean: 0
      std: 0.05
    }
    bias_filler {
      type: "constant"
      value: 0
    }
  }
}
layer {
  name: "relu11"
  type: "ReLU"
  bottom: "cccp7"
  top: "cccp7"
}
layer {
  name: "cccp8-1024"
  type: "Convolution"
  bottom: "cccp7"
  top: "cccp8"
  param {
    lr_mult: 1
    decay_mult: 1
  }
  param {
    lr_mult: 2
    decay_mult: 0
  }
  convolution_param {
    num_output: 1000
    kernel_size: 1
    stride: 1
    weight_filler {
      type: "gaussian"
      mean: 0
      std: 0.01
    }
    bias_filler {
      type: "constant"
      value: 0
    }
  }
}
layer {
  name: "relu12"
  type: "ReLU"
  bottom: "cccp8"
  top: "cccp8"
}
layer {
  name: "pool4"
  type: "Pooling"
  bottom: "cccp8"
  top: "pool4"
  pooling_param {
    pool: AVE
    kernel_size: 6
    stride: 1
  }
}
layer {
  name: "fc5_category"
  type: "InnerProduct"
  bottom: "pool4"
  top: "fc5_category"
  param {
    lr_mult: 10
    decay_mult: 1
  }
  param {
    lr_mult: 20
    decay_mult: 0
  }
  inner_product_param {
    num_output: 26
    weight_filler {
      type: "gaussian"
      std: 0.01
    }
    bias_filler {
      type: "constant"
      value: 0
    }
  }
}
layer {
  name: "loss_category"
  type: "SoftmaxWithLoss"
  bottom: "fc5_category"
  bottom: "label_category"
}
layer {
  name: "fc5_pattern"
  type: "InnerProduct"
  bottom: "pool3"
  top: "fc5_pattern"
  param {
    lr_mult: 10
    decay_mult: 1
  }
  param {
    lr_mult: 20
    decay_mult: 0
  }
  inner_product_param {
    num_output: 20
    weight_filler {
      type: "gaussian"
      std: 0.01
    }
    bias_filler {
      type: "constant"
      value: 0
    }
  }
}
layer {
  name: "loss_pattern"
  type: "SoftmaxWithLoss"
  bottom: "fc5_pattern"
  bottom: "label_pattern"
  loss_param {
    ignore_label: 0
  }
}
layer {
  name: "fc5_neck"
  type: "InnerProduct"
  bottom: "pool3"
  top: "fc5_neck"
  param {
    lr_mult: 10
    decay_mult: 1
  }
  param {
    lr_mult: 20
    decay_mult: 0
  }
  inner_product_param {
    num_output: 23
    weight_filler {
      type: "gaussian"
      std: 0.01
    }
    bias_filler {
      type: "constant"
      value: 0
    }
  }
}
layer {
  name: "loss_neck"
  type: "SoftmaxWithLoss"
  bottom: "fc5_neck"
  bottom: "label_neck"
  loss_param {
    ignore_label: 0
  }
}
layer {
  name: "fc5_sleeve"
  type: "InnerProduct"
  bottom: "pool3"
  top: "fc5_sleeve"
  param {
    lr_mult: 10
    decay_mult: 1
  }
  param {
    lr_mult: 20
    decay_mult: 0
  }
  inner_product_param {
    num_output: 9
    weight_filler {
      type: "gaussian"
      std: 0.01
    }
    bias_filler {
      type: "constant"
      value: 0
    }
  }
}
layer {
  name: "loss_sleeve"
  type: "SoftmaxWithLoss"
  bottom: "fc5_sleeve"
  bottom: "label_sleeve"
  loss_param {
    ignore_label: 0
  }
}
layer {
  name: "fc5_fit"
  type: "InnerProduct"
  bottom: "pool4"
  top: "fc5_fit"
  param {
    lr_mult: 10
    decay_mult: 1
  }
  param {
    lr_mult: 20
    decay_mult: 0
  }
  inner_product_param {
    num_output: 26
    weight_filler {
      type: "gaussian"
      std: 0.01
    }
    bias_filler {
      type: "constant"
      value: 0
    }
  }
}
layer {
  name: "loss_fit"
  type: "SoftmaxWithLoss"
  bottom: "fc5_fit"
  bottom: "label_fit"
  loss_param {
    ignore_label: 0
  }
}
layer {
  name: "fc5_ideal_for"
  type: "InnerProduct"
  bottom: "pool4"
  top: "fc5_ideal_for"
  param {
    lr_mult: 10
    decay_mult: 1
  }
  param {
    lr_mult: 20
    decay_mult: 0
  }
  inner_product_param {
    num_output: 7
    weight_filler {
      type: "gaussian"
      std: 0.01
    }
    bias_filler {
      type: "constant"
      value: 0
    }
  }
}
layer {
  name: "loss_ideal_for"
  type: "SoftmaxWithLoss"
  bottom: "fc5_ideal_for"
  bottom: "label_ideal_for"
  loss_param {
    ignore_label: 0
  }
}
layer {
  name: "fc5_occasion"
  type: "InnerProduct"
  bottom: "pool4"
  top: "fc5_occasion"
  param {
    lr_mult: 10
    decay_mult: 1
  }
  param {
    lr_mult: 20
    decay_mult: 0
  }
  inner_product_param {
    num_output: 38
    weight_filler {
      type: "gaussian"
      std: 0.01
    }
    bias_filler {
      type: "constant"
      value: 0
    }
  }
}
layer {
  name: "loss_occasion"
  type: "SoftmaxWithLoss"
  bottom: "fc5_occasion"
  bottom: "label_occasion"
  loss_param {
    ignore_label: 0
  }
}
I0502 17:36:59.644579 20985 layer_factory.hpp:74] Creating layer data
I0502 17:36:59.644655 20985 net.cpp:84] Creating Layer data
I0502 17:36:59.644709 20985 net.cpp:338] data -> data
I0502 17:36:59.644773 20985 net.cpp:338] data -> label_category
I0502 17:36:59.644808 20985 net.cpp:338] data -> label_pattern
I0502 17:36:59.644829 20985 net.cpp:338] data -> label_neck
…
I0502 17:36:59.926445 20985 image_data_multclass_layer.cpp:75] ##############################################
I0502 17:36:59.926455 20985 image_data_multclass_layer.cpp:76] ##############################################
I0502 17:36:59.926465 20985 image_data_multclass_layer.cpp:77] size of top: 8
I0502 17:36:59.933760 20985 image_data_multclass_layer.cpp:95] output data size: 64,3,224,224
I0502 17:36:59.933794 20985 image_data_multclass_layer.cpp:99] number of labels: 7
I0502 17:36:59.933852 20985 data_transformer.cpp:22] Loading mean file from: data/ilsvrc12/imagenet_mean.binaryproto
I0502 17:36:59.946914 20985 net.cpp:120] Top shape: 64 3 224 224 (9633792)
I0502 17:36:59.946969 20985 net.cpp:120] Top shape: 64 (64)
I0502 17:36:59.946984 20985 net.cpp:120] Top shape: 64 (64)
I0502 17:36:59.946995 20985 net.cpp:120] Top shape: 64 (64)
I0502 17:36:59.947007 20985 net.cpp:120] Top shape: 64 (64)
I0502 17:36:59.947020 20985 net.cpp:120] Top shape: 64 (64)
I0502 17:36:59.947031 20985 net.cpp:120] Top shape: 64 (64)
I0502 17:36:59.947042 20985 net.cpp:120] Top shape: 64 (64)
I0502 17:36:59.947059 20985 layer_factory.hpp:74] Creating layer conv1
I0502 17:36:59.947098 20985 net.cpp:84] Creating Layer conv1
I0502 17:36:59.947124 20985 net.cpp:380] conv1 <- data
I0502 17:36:59.947152 20985 net.cpp:338] conv1 -> conv1
I0502 17:36:59.947180 20985 net.cpp:113] Setting up conv1
I0502 17:36:59.948575 20985 net.cpp:120] Top shape: 64 96 54 54 (17915904)
I0502 17:36:59.948627 20985 layer_factory.hpp:74] Creating layer relu0
I0502 17:36:59.948654 20985 net.cpp:84] Creating Layer relu0
I0502 17:36:59.948668 20985 net.cpp:380] relu0 <- conv1
I0502 17:36:59.948681 20985 net.cpp:327] relu0 -> conv1 (in-place)
I0502 17:36:59.948696 20985 net.cpp:113] Setting up relu0
I0502 17:36:59.948714 20985 net.cpp:120] Top shape: 64 96 54 54 (17915904)
I0502 17:36:59.948735 20985 layer_factory.hpp:74] Creating layer cccp1
I0502 17:36:59.948752 20985 net.cpp:84] Creating Layer cccp1
I0502 17:36:59.948765 20985 net.cpp:380] cccp1 <- conv1
I0502 17:36:59.948781 20985 net.cpp:338] cccp1 -> cccp1
I0502 17:36:59.948798 20985 net.cpp:113] Setting up cccp1
I0502 17:36:59.949168 20985 net.cpp:120] Top shape: 64 96 54 54 (17915904)
I0502 17:36:59.949198 20985 layer_factory.hpp:74] Creating layer relu1
I0502 17:36:59.949225 20985 net.cpp:84] Creating Layer relu1
I0502 17:36:59.949246 20985 net.cpp:380] relu1 <- cccp1
I0502 17:36:59.949260 20985 net.cpp:327] relu1 -> cccp1 (in-place)
I0502 17:36:59.949275 20985 net.cpp:113] Setting up relu1
I0502 17:36:59.949288 20985 net.cpp:120] Top shape: 64 96 54 54 (17915904)
I0502 17:36:59.949300 20985 layer_factory.hpp:74] Creating layer cccp2
I0502 17:36:59.949358 20985 net.cpp:84] Creating Layer cccp2
I0502 17:36:59.949372 20985 net.cpp:380] cccp2 <- cccp1
I0502 17:36:59.949388 20985 net.cpp:338] cccp2 -> cccp2
I0502 17:36:59.949414 20985 net.cpp:113] Setting up cccp2
I0502 17:36:59.949794 20985 net.cpp:120] Top shape: 64 96 54 54 (17915904)
I0502 17:36:59.949823 20985 layer_factory.hpp:74] Creating layer relu2
I0502 17:36:59.949838 20985 net.cpp:84] Creating Layer relu2
I0502 17:36:59.949851 20985 net.cpp:380] relu2 <- cccp2
I0502 17:36:59.949864 20985 net.cpp:327] relu2 -> cccp2 (in-place)
I0502 17:36:59.949878 20985 net.cpp:113] Setting up relu2
I0502 17:36:59.949892 20985 net.cpp:120] Top shape: 64 96 54 54 (17915904)
I0502 17:36:59.949901 20985 layer_factory.hpp:74] Creating layer pool0
I0502 17:36:59.949918 20985 net.cpp:84] Creating Layer pool0
I0502 17:36:59.949929 20985 net.cpp:380] pool0 <- cccp2
I0502 17:36:59.949942 20985 net.cpp:338] pool0 -> pool0
I0502 17:36:59.949961 20985 net.cpp:113] Setting up pool0
I0502 17:36:59.950001 20985 net.cpp:120] Top shape: 64 96 27 27 (4478976)
I0502 17:36:59.950023 20985 layer_factory.hpp:74] Creating layer conv2
I0502 17:36:59.950042 20985 net.cpp:84] Creating Layer conv2
I0502 17:36:59.950054 20985 net.cpp:380] conv2 <- pool0
I0502 17:36:59.950070 20985 net.cpp:338] conv2 -> conv2
I0502 17:36:59.950094 20985 net.cpp:113] Setting up conv2
I0502 17:36:59.973311 20985 net.cpp:120] Top shape: 64 256 27 27 (11943936)
I0502 17:36:59.973352 20985 layer_factory.hpp:74] Creating layer relu3
I0502 17:36:59.973371 20985 net.cpp:84] Creating Layer relu3
I0502 17:36:59.973384 20985 net.cpp:380] relu3 <- conv2
I0502 17:36:59.973399 20985 net.cpp:327] relu3 -> conv2 (in-place)
I0502 17:36:59.973413 20985 net.cpp:113] Setting up relu3
I0502 17:36:59.973426 20985 net.cpp:120] Top shape: 64 256 27 27 (11943936)
I0502 17:36:59.973438 20985 layer_factory.hpp:74] Creating layer cccp3
I0502 17:36:59.973453 20985 net.cpp:84] Creating Layer cccp3
I0502 17:36:59.973465 20985 net.cpp:380] cccp3 <- conv2
I0502 17:36:59.973482 20985 net.cpp:338] cccp3 -> cccp3
I0502 17:36:59.973510 20985 net.cpp:113] Setting up cccp3
I0502 17:36:59.976095 20985 net.cpp:120] Top shape: 64 256 27 27 (11943936)
I0502 17:36:59.976132 20985 layer_factory.hpp:74] Creating layer relu5
I0502 17:36:59.976150 20985 net.cpp:84] Creating Layer relu5
I0502 17:36:59.976161 20985 net.cpp:380] relu5 <- cccp3
I0502 17:36:59.976176 20985 net.cpp:327] relu5 -> cccp3 (in-place)
I0502 17:36:59.976189 20985 net.cpp:113] Setting up relu5
I0502 17:36:59.976202 20985 net.cpp:120] Top shape: 64 256 27 27 (11943936)
I0502 17:36:59.976223 20985 layer_factory.hpp:74] Creating layer cccp4
I0502 17:36:59.976239 20985 net.cpp:84] Creating Layer cccp4
I0502 17:36:59.976250 20985 net.cpp:380] cccp4 <- cccp3
I0502 17:36:59.976265 20985 net.cpp:338] cccp4 -> cccp4
I0502 17:36:59.976282 20985 net.cpp:113] Setting up cccp4
I0502 17:36:59.978873 20985 net.cpp:120] Top shape: 64 256 27 27 (11943936)
I0502 17:36:59.978904 20985 layer_factory.hpp:74] Creating layer relu6
I0502 17:36:59.978921 20985 net.cpp:84] Creating Layer relu6
I0502 17:36:59.978932 20985 net.cpp:380] relu6 <- cccp4
I0502 17:36:59.978945 20985 net.cpp:327] relu6 -> cccp4 (in-place)
I0502 17:36:59.978961 20985 net.cpp:113] Setting up relu6
I0502 17:36:59.978977 20985 net.cpp:120] Top shape: 64 256 27 27 (11943936)
I0502 17:36:59.978988 20985 layer_factory.hpp:74] Creating layer pool2
I0502 17:36:59.979001 20985 net.cpp:84] Creating Layer pool2
I0502 17:36:59.979013 20985 net.cpp:380] pool2 <- cccp4
I0502 17:36:59.979027 20985 net.cpp:338] pool2 -> pool2
I0502 17:36:59.979043 20985 net.cpp:113] Setting up pool2
I0502 17:36:59.979063 20985 net.cpp:120] Top shape: 64 256 13 13 (2768896)
I0502 17:36:59.979074 20985 layer_factory.hpp:74] Creating layer conv3
I0502 17:36:59.979089 20985 net.cpp:84] Creating Layer conv3
I0502 17:36:59.979100 20985 net.cpp:380] conv3 <- pool2
I0502 17:36:59.979115 20985 net.cpp:338] conv3 -> conv3
I0502 17:36:59.979146 20985 net.cpp:113] Setting up conv3
I0502 17:37:00.013272 20985 net.cpp:120] Top shape: 64 384 13 13 (4153344)
I0502 17:37:00.013332 20985 layer_factory.hpp:74] Creating layer relu7
I0502 17:37:00.013360 20985 net.cpp:84] Creating Layer relu7
I0502 17:37:00.013380 20985 net.cpp:380] relu7 <- conv3
I0502 17:37:00.013396 20985 net.cpp:327] relu7 -> conv3 (in-place)
I0502 17:37:00.013413 20985 net.cpp:113] Setting up relu7
I0502 17:37:00.013435 20985 net.cpp:120] Top shape: 64 384 13 13 (4153344)
I0502 17:37:00.013447 20985 layer_factory.hpp:74] Creating layer cccp5
I0502 17:37:00.013464 20985 net.cpp:84] Creating Layer cccp5
I0502 17:37:00.013475 20985 net.cpp:380] cccp5 <- conv3
I0502 17:37:00.013492 20985 net.cpp:338] cccp5 -> cccp5
I0502 17:37:00.013509 20985 net.cpp:113] Setting up cccp5
I0502 17:37:00.019309 20985 net.cpp:120] Top shape: 64 384 13 13 (4153344)
I0502 17:37:00.019342 20985 layer_factory.hpp:74] Creating layer relu8
I0502 17:37:00.019359 20985 net.cpp:84] Creating Layer relu8
I0502 17:37:00.019371 20985 net.cpp:380] relu8 <- cccp5
I0502 17:37:00.019386 20985 net.cpp:327] relu8 -> cccp5 (in-place)
I0502 17:37:00.019399 20985 net.cpp:113] Setting up relu8
I0502 17:37:00.019412 20985 net.cpp:120] Top shape: 64 384 13 13 (4153344)
I0502 17:37:00.019423 20985 layer_factory.hpp:74] Creating layer cccp6
I0502 17:37:00.019439 20985 net.cpp:84] Creating Layer cccp6
I0502 17:37:00.019450 20985 net.cpp:380] cccp6 <- cccp5
I0502 17:37:00.019466 20985 net.cpp:338] cccp6 -> cccp6
I0502 17:37:00.019492 20985 net.cpp:113] Setting up cccp6
I0502 17:37:00.025207 20985 net.cpp:120] Top shape: 64 384 13 13 (4153344)
I0502 17:37:00.025250 20985 layer_factory.hpp:74] Creating layer relu9
I0502 17:37:00.025274 20985 net.cpp:84] Creating Layer relu9
I0502 17:37:00.025295 20985 net.cpp:380] relu9 <- cccp6
I0502 17:37:00.025310 20985 net.cpp:327] relu9 -> cccp6 (in-place)
I0502 17:37:00.025326 20985 net.cpp:113] Setting up relu9
I0502 17:37:00.025339 20985 net.cpp:120] Top shape: 64 384 13 13 (4153344)
I0502 17:37:00.025352 20985 layer_factory.hpp:74] Creating layer pool3
I0502 17:37:00.025367 20985 net.cpp:84] Creating Layer pool3
I0502 17:37:00.025385 20985 net.cpp:380] pool3 <- cccp6
I0502 17:37:00.025408 20985 net.cpp:338] pool3 -> pool3
I0502 17:37:00.025427 20985 net.cpp:113] Setting up pool3
I0502 17:37:00.025447 20985 net.cpp:120] Top shape: 64 384 6 6 (884736)
I0502 17:37:00.025468 20985 layer_factory.hpp:74] Creating layer drop
I0502 17:37:00.025490 20985 net.cpp:84] Creating Layer drop
I0502 17:37:00.025501 20985 net.cpp:380] drop <- pool3
I0502 17:37:00.025517 20985 net.cpp:327] drop -> pool3 (in-place)
I0502 17:37:00.025538 20985 net.cpp:113] Setting up drop
I0502 17:37:00.025569 20985 net.cpp:120] Top shape: 64 384 6 6 (884736)
I0502 17:37:00.025583 20985 layer_factory.hpp:74] Creating layer pool3_drop_0_split
I0502 17:37:00.025600 20985 net.cpp:84] Creating Layer pool3_drop_0_split
I0502 17:37:00.025620 20985 net.cpp:380] pool3_drop_0_split <- pool3
I0502 17:37:00.025635 20985 net.cpp:338] pool3_drop_0_split -> pool3_drop_0_split_0
I0502 17:37:00.025653 20985 net.cpp:338] pool3_drop_0_split -> pool3_drop_0_split_1
I0502 17:37:00.025671 20985 net.cpp:338] pool3_drop_0_split -> pool3_drop_0_split_2
I0502 17:37:00.025687 20985 net.cpp:338] pool3_drop_0_split -> pool3_drop_0_split_3
I0502 17:37:00.025712 20985 net.cpp:113] Setting up pool3_drop_0_split
I0502 17:37:00.025732 20985 net.cpp:120] Top shape: 64 384 6 6 (884736)
I0502 17:37:00.025754 20985 net.cpp:120] Top shape: 64 384 6 6 (884736)
I0502 17:37:00.025768 20985 net.cpp:120] Top shape: 64 384 6 6 (884736)
I0502 17:37:00.025779 20985 net.cpp:120] Top shape: 64 384 6 6 (884736)
I0502 17:37:00.025791 20985 layer_factory.hpp:74] Creating layer conv4-1024
I0502 17:37:00.025809 20985 net.cpp:84] Creating Layer conv4-1024
I0502 17:37:00.025820 20985 net.cpp:380] conv4-1024 <- pool3_drop_0_split_0
I0502 17:37:00.025835 20985 net.cpp:338] conv4-1024 -> conv4
I0502 17:37:00.025861 20985 net.cpp:113] Setting up conv4-1024
I0502 17:37:00.160444 20985 net.cpp:120] Top shape: 64 1024 6 6 (2359296)
I0502 17:37:00.160537 20985 layer_factory.hpp:74] Creating layer relu10
I0502 17:37:00.160565 20985 net.cpp:84] Creating Layer relu10
I0502 17:37:00.160588 20985 net.cpp:380] relu10 <- conv4
I0502 17:37:00.160605 20985 net.cpp:327] relu10 -> conv4 (in-place)
I0502 17:37:00.160622 20985 net.cpp:113] Setting up relu10
I0502 17:37:00.160646 20985 net.cpp:120] Top shape: 64 1024 6 6 (2359296)
I0502 17:37:00.160658 20985 layer_factory.hpp:74] Creating layer cccp7-1024
I0502 17:37:00.160681 20985 net.cpp:84] Creating Layer cccp7-1024
I0502 17:37:00.160692 20985 net.cpp:380] cccp7-1024 <- conv4
I0502 17:37:00.160713 20985 net.cpp:338] cccp7-1024 -> cccp7
I0502 17:37:00.160732 20985 net.cpp:113] Setting up cccp7-1024
I0502 17:37:00.200814 20985 net.cpp:120] Top shape: 64 1024 6 6 (2359296)
I0502 17:37:00.200851 20985 layer_factory.hpp:74] Creating layer relu11
I0502 17:37:00.200868 20985 net.cpp:84] Creating Layer relu11
I0502 17:37:00.200880 20985 net.cpp:380] relu11 <- cccp7
I0502 17:37:00.200893 20985 net.cpp:327] relu11 -> cccp7 (in-place)
I0502 17:37:00.200907 20985 net.cpp:113] Setting up relu11
I0502 17:37:00.200920 20985 net.cpp:120] Top shape: 64 1024 6 6 (2359296)
I0502 17:37:00.200932 20985 layer_factory.hpp:74] Creating layer cccp8-1024
I0502 17:37:00.200950 20985 net.cpp:84] Creating Layer cccp8-1024
I0502 17:37:00.200970 20985 net.cpp:380] cccp8-1024 <- cccp7
I0502 17:37:00.200989 20985 net.cpp:338] cccp8-1024 -> cccp8
I0502 17:37:00.201005 20985 net.cpp:113] Setting up cccp8-1024
I0502 17:37:00.240201 20985 net.cpp:120] Top shape: 64 1000 6 6 (2304000)
I0502 17:37:00.240243 20985 layer_factory.hpp:74] Creating layer relu12
I0502 17:37:00.240262 20985 net.cpp:84] Creating Layer relu12
I0502 17:37:00.240274 20985 net.cpp:380] relu12 <- cccp8
I0502 17:37:00.240288 20985 net.cpp:327] relu12 -> cccp8 (in-place)
I0502 17:37:00.240303 20985 net.cpp:113] Setting up relu12
I0502 17:37:00.240315 20985 net.cpp:120] Top shape: 64 1000 6 6 (2304000)
I0502 17:37:00.240326 20985 layer_factory.hpp:74] Creating layer pool4
I0502 17:37:00.240341 20985 net.cpp:84] Creating Layer pool4
I0502 17:37:00.240360 20985 net.cpp:380] pool4 <- cccp8
I0502 17:37:00.240377 20985 net.cpp:338] pool4 -> pool4
I0502 17:37:00.240393 20985 net.cpp:113] Setting up pool4
I0502 17:37:00.240411 20985 net.cpp:120] Top shape: 64 1000 1 1 (64000)
I0502 17:37:00.240422 20985 layer_factory.hpp:74] Creating layer pool4_pool4_0_split
I0502 17:37:00.240437 20985 net.cpp:84] Creating Layer pool4_pool4_0_split
I0502 17:37:00.240447 20985 net.cpp:380] pool4_pool4_0_split <- pool4
I0502 17:37:00.240463 20985 net.cpp:338] pool4_pool4_0_split -> pool4_pool4_0_split_0
I0502 17:37:00.240483 20985 net.cpp:338] pool4_pool4_0_split -> pool4_pool4_0_split_1
I0502 17:37:00.240501 20985 net.cpp:338] pool4_pool4_0_split -> pool4_pool4_0_split_2
I0502 17:37:00.240527 20985 net.cpp:338] pool4_pool4_0_split -> pool4_pool4_0_split_3
I0502 17:37:00.240543 20985 net.cpp:113] Setting up pool4_pool4_0_split
I0502 17:37:00.240561 20985 net.cpp:120] Top shape: 64 1000 1 1 (64000)
I0502 17:37:00.240573 20985 net.cpp:120] Top shape: 64 1000 1 1 (64000)
I0502 17:37:00.240586 20985 net.cpp:120] Top shape: 64 1000 1 1 (64000)
I0502 17:37:00.240597 20985 net.cpp:120] Top shape: 64 1000 1 1 (64000)
I0502 17:37:00.240607 20985 layer_factory.hpp:74] Creating layer fc5_category
I0502 17:37:00.240631 20985 net.cpp:84] Creating Layer fc5_category
I0502 17:37:00.240658 20985 net.cpp:380] fc5_category <- pool4_pool4_0_split_0
I0502 17:37:00.240682 20985 net.cpp:338] fc5_category -> fc5_category
I0502 17:37:00.240711 20985 net.cpp:113] Setting up fc5_category
I0502 17:37:00.241757 20985 net.cpp:120] Top shape: 64 26 (1664)
I0502 17:37:00.241787 20985 layer_factory.hpp:74] Creating layer loss_category
I0502 17:37:00.241807 20985 net.cpp:84] Creating Layer loss_category
I0502 17:37:00.241819 20985 net.cpp:380] loss_category <- fc5_category
I0502 17:37:00.241833 20985 net.cpp:380] loss_category <- label_category
I0502 17:37:00.241850 20985 net.cpp:338] loss_category -> (automatic)
I0502 17:37:00.241873 20985 net.cpp:113] Setting up loss_category
I0502 17:37:00.241925 20985 layer_factory.hpp:74] Creating layer loss_category
I0502 17:37:00.241977 20985 net.cpp:120] Top shape: (1)
I0502 17:37:00.241998 20985 net.cpp:122]     with loss weight 1
I0502 17:37:00.242043 20985 layer_factory.hpp:74] Creating layer fc5_pattern
I0502 17:37:00.242060 20985 net.cpp:84] Creating Layer fc5_pattern
I0502 17:37:00.242072 20985 net.cpp:380] fc5_pattern <- pool3_drop_0_split_1
I0502 17:37:00.242089 20985 net.cpp:338] fc5_pattern -> fc5_pattern
I0502 17:37:00.242105 20985 net.cpp:113] Setting up fc5_pattern
I0502 17:37:00.252818 20985 net.cpp:120] Top shape: 64 20 (1280)
I0502 17:37:00.252854 20985 layer_factory.hpp:74] Creating layer loss_pattern
I0502 17:37:00.252874 20985 net.cpp:84] Creating Layer loss_pattern
I0502 17:37:00.252887 20985 net.cpp:380] loss_pattern <- fc5_pattern
I0502 17:37:00.252902 20985 net.cpp:380] loss_pattern <- label_pattern
I0502 17:37:00.252917 20985 net.cpp:338] loss_pattern -> (automatic)
I0502 17:37:00.252933 20985 net.cpp:113] Setting up loss_pattern
I0502 17:37:00.252946 20985 layer_factory.hpp:74] Creating layer loss_pattern
I0502 17:37:00.252971 20985 softmax_loss_layer.cpp:29] loss has ignore_label: 0
I0502 17:37:00.252998 20985 net.cpp:120] Top shape: (1)
I0502 17:37:00.253011 20985 net.cpp:122]     with loss weight 1
I0502 17:37:00.253027 20985 layer_factory.hpp:74] Creating layer fc5_neck
I0502 17:37:00.253046 20985 net.cpp:84] Creating Layer fc5_neck
I0502 17:37:00.253060 20985 net.cpp:380] fc5_neck <- pool3_drop_0_split_2
I0502 17:37:00.253089 20985 net.cpp:338] fc5_neck -> fc5_neck
I0502 17:37:00.253125 20985 net.cpp:113] Setting up fc5_neck
I0502 17:37:00.265331 20985 net.cpp:120] Top shape: 64 23 (1472)
I0502 17:37:00.265364 20985 layer_factory.hpp:74] Creating layer loss_neck
I0502 17:37:00.265382 20985 net.cpp:84] Creating Layer loss_neck
I0502 17:37:00.265393 20985 net.cpp:380] loss_neck <- fc5_neck
I0502 17:37:00.265405 20985 net.cpp:380] loss_neck <- label_neck
I0502 17:37:00.265419 20985 net.cpp:338] loss_neck -> (automatic)
I0502 17:37:00.265432 20985 net.cpp:113] Setting up loss_neck
I0502 17:37:00.265446 20985 layer_factory.hpp:74] Creating layer loss_neck
I0502 17:37:00.265472 20985 softmax_loss_layer.cpp:29] loss has ignore_label: 0
I0502 17:37:00.265499 20985 net.cpp:120] Top shape: (1)
I0502 17:37:00.265512 20985 net.cpp:122]     with loss weight 1
I0502 17:37:00.265528 20985 layer_factory.hpp:74] Creating layer fc5_sleeve
I0502 17:37:00.265547 20985 net.cpp:84] Creating Layer fc5_sleeve
I0502 17:37:00.265558 20985 net.cpp:380] fc5_sleeve <- pool3_drop_0_split_3
I0502 17:37:00.265576 20985 net.cpp:338] fc5_sleeve -> fc5_sleeve
I0502 17:37:00.265594 20985 net.cpp:113] Setting up fc5_sleeve
I0502 17:37:00.270386 20985 net.cpp:120] Top shape: 64 9 (576)
I0502 17:37:00.270419 20985 layer_factory.hpp:74] Creating layer loss_sleeve
I0502 17:37:00.270437 20985 net.cpp:84] Creating Layer loss_sleeve
I0502 17:37:00.270447 20985 net.cpp:380] loss_sleeve <- fc5_sleeve
I0502 17:37:00.270460 20985 net.cpp:380] loss_sleeve <- label_sleeve
I0502 17:37:00.270483 20985 net.cpp:338] loss_sleeve -> (automatic)
I0502 17:37:00.270519 20985 net.cpp:113] Setting up loss_sleeve
I0502 17:37:00.270534 20985 layer_factory.hpp:74] Creating layer loss_sleeve
I0502 17:37:00.270556 20985 softmax_loss_layer.cpp:29] loss has ignore_label: 0
I0502 17:37:00.270586 20985 net.cpp:120] Top shape: (1)
I0502 17:37:00.270612 20985 net.cpp:122]     with loss weight 1
I0502 17:37:00.270637 20985 layer_factory.hpp:74] Creating layer fc5_fit
I0502 17:37:00.270654 20985 net.cpp:84] Creating Layer fc5_fit
I0502 17:37:00.270668 20985 net.cpp:380] fc5_fit <- pool4_pool4_0_split_1
I0502 17:37:00.270687 20985 net.cpp:338] fc5_fit -> fc5_fit
I0502 17:37:00.270715 20985 net.cpp:113] Setting up fc5_fit
I0502 17:37:00.271827 20985 net.cpp:120] Top shape: 64 26 (1664)
I0502 17:37:00.271886 20985 layer_factory.hpp:74] Creating layer loss_fit
I0502 17:37:00.271915 20985 net.cpp:84] Creating Layer loss_fit
I0502 17:37:00.271929 20985 net.cpp:380] loss_fit <- fc5_fit
I0502 17:37:00.271970 20985 net.cpp:380] loss_fit <- label_fit
I0502 17:37:00.271986 20985 net.cpp:338] loss_fit -> (automatic)
I0502 17:37:00.271999 20985 net.cpp:113] Setting up loss_fit
I0502 17:37:00.272013 20985 layer_factory.hpp:74] Creating layer loss_fit
I0502 17:37:00.272040 20985 softmax_loss_layer.cpp:29] loss has ignore_label: 0
I0502 17:37:00.272068 20985 net.cpp:120] Top shape: (1)
I0502 17:37:00.272079 20985 net.cpp:122]     with loss weight 1
I0502 17:37:00.272095 20985 layer_factory.hpp:74] Creating layer fc5_ideal_for
I0502 17:37:00.272112 20985 net.cpp:84] Creating Layer fc5_ideal_for
I0502 17:37:00.272125 20985 net.cpp:380] fc5_ideal_for <- pool4_pool4_0_split_2
I0502 17:37:00.272141 20985 net.cpp:338] fc5_ideal_for -> fc5_ideal_for
I0502 17:37:00.272158 20985 net.cpp:113] Setting up fc5_ideal_for
I0502 17:37:00.272495 20985 net.cpp:120] Top shape: 64 7 (448)
I0502 17:37:00.272528 20985 layer_factory.hpp:74] Creating layer loss_ideal_for
I0502 17:37:00.272546 20985 net.cpp:84] Creating Layer loss_ideal_for
I0502 17:37:00.272557 20985 net.cpp:380] loss_ideal_for <- fc5_ideal_for
I0502 17:37:00.272570 20985 net.cpp:380] loss_ideal_for <- label_ideal_for
I0502 17:37:00.272598 20985 net.cpp:338] loss_ideal_for -> (automatic)
I0502 17:37:00.272634 20985 net.cpp:113] Setting up loss_ideal_for
I0502 17:37:00.272650 20985 layer_factory.hpp:74] Creating layer loss_ideal_for
I0502 17:37:00.272670 20985 softmax_loss_layer.cpp:29] loss has ignore_label: 0
I0502 17:37:00.272694 20985 net.cpp:120] Top shape: (1)
I0502 17:37:00.272723 20985 net.cpp:122]     with loss weight 1
I0502 17:37:00.272743 20985 layer_factory.hpp:74] Creating layer fc5_occasion
I0502 17:37:00.272765 20985 net.cpp:84] Creating Layer fc5_occasion
I0502 17:37:00.272786 20985 net.cpp:380] fc5_occasion <- pool4_pool4_0_split_3
I0502 17:37:00.272804 20985 net.cpp:338] fc5_occasion -> fc5_occasion
I0502 17:37:00.272820 20985 net.cpp:113] Setting up fc5_occasion
I0502 17:37:00.274317 20985 net.cpp:120] Top shape: 64 38 (2432)
I0502 17:37:00.274349 20985 layer_factory.hpp:74] Creating layer loss_occasion
I0502 17:37:00.274365 20985 net.cpp:84] Creating Layer loss_occasion
I0502 17:37:00.274377 20985 net.cpp:380] loss_occasion <- fc5_occasion
I0502 17:37:00.274390 20985 net.cpp:380] loss_occasion <- label_occasion
I0502 17:37:00.274406 20985 net.cpp:338] loss_occasion -> (automatic)
I0502 17:37:00.274420 20985 net.cpp:113] Setting up loss_occasion
…
name: "nin_imagenet"
state {
  phase: TEST
}
layer {
  name: "data"
  type: "ImageDataMultLabel"
  top: "data"
  top: "label_category"
  top: "label_pattern"
  top: "label_neck"
  top: "label_sleeve"
  top: "label_fit"
  top: "label_ideal_for"
  top: "label_occasion"
  include {
    phase: TEST
  }
  transform_param {
    mirror: false
    crop_size: 224
    mean_file: "data/ilsvrc12/imagenet_mean.binaryproto"
  }
  image_data_mult_label_param {
    source: "/mnt/images/training/flipkart_yq2set/test.txt"
    batch_size: 64
    new_height: 256
    new_width: 256
  }
}
layer {
  name: "conv1"
  type: "Convolution"
  bottom: "data"
  top: "conv1"
  param {
    lr_mult: 1
    decay_mult: 1
  }
  param {
    lr_mult: 2
    decay_mult: 0
  }
  convolution_param {
    num_output: 96
    kernel_size: 11
    stride: 4
    weight_filler {
      type: "gaussian"
      mean: 0
      std: 0.01
    }
    bias_filler {
      type: "constant"
      value: 0
    }
  }
}
layer {
  name: "relu0"
  type: "ReLU"
  bottom: "conv1"
  top: "conv1"
}
layer {
  name: "cccp1"
  type: "Convolution"
  bottom: "conv1"
  top: "cccp1"
  param {
    lr_mult: 1
    decay_mult: 1
  }
  param {
    lr_mult: 2
    decay_mult: 0
  }
  convolution_param {
    num_output: 96
    kernel_size: 1
    stride: 1
    weight_filler {
      type: "gaussian"
      mean: 0
      std: 0.05
    }
    bias_filler {
      type: "constant"
      value: 0
    }
  }
}
layer {
  name: "relu1"
  type: "ReLU"
  bottom: "cccp1"
  top: "cccp1"
}
layer {
  name: "cccp2"
  type: "Convolution"
  bottom: "cccp1"
  top: "cccp2"
  param {
    lr_mult: 1
    decay_mult: 1
  }
  param {
    lr_mult: 2
    decay_mult: 0
  }
  convolution_param {
    num_output: 96
    kernel_size: 1
    stride: 1
    weight_filler {
      type: "gaussian"
      mean: 0
      std: 0.05
    }
    bias_filler {
      type: "constant"
      value: 0
    }
  }
}
layer {
  name: "relu2"
  type: "ReLU"
  bottom: "cccp2"
  top: "cccp2"
}
layer {
  name: "pool0"
  type: "Pooling"
  bottom: "cccp2"
  top: "pool0"
  pooling_param {
    pool: MAX
    kernel_size: 3
    stride: 2
  }
}
layer {
  name: "conv2"
  type: "Convolution"
  bottom: "pool0"
  top: "conv2"
  param {
    lr_mult: 1
    decay_mult: 1
  }
  param {
    lr_mult: 2
    decay_mult: 0
  }
  convolution_param {
    num_output: 256
    pad: 2
    kernel_size: 5
    stride: 1
    weight_filler {
      type: "gaussian"
      mean: 0
      std: 0.05
    }
    bias_filler {
      type: "constant"
      value: 0
    }
  }
}
layer {
  name: "relu3"
  type: "ReLU"
  bottom: "conv2"
  top: "conv2"
}
layer {
  name: "cccp3"
  type: "Convolution"
  bottom: "conv2"
  top: "cccp3"
  param {
    lr_mult: 1
    decay_mult: 1
  }
  param {
    lr_mult: 2
    decay_mult: 0
  }
  convolution_param {
    num_output: 256
    kernel_size: 1
    stride: 1
    weight_filler {
      type: "gaussian"
      mean: 0
      std: 0.05
    }
    bias_filler {
      type: "constant"
      value: 0
    }
  }
}
layer {
  name: "relu5"
  type: "ReLU"
  bottom: "cccp3"
  top: "cccp3"
}
layer {
  name: "cccp4"
  type: "Convolution"
  bottom: "cccp3"
  top: "cccp4"
  param {
    lr_mult: 1
    decay_mult: 1
  }
  param {
    lr_mult: 2
    decay_mult: 0
  }
  convolution_param {
    num_output: 256
    kernel_size: 1
    stride: 1
    weight_filler {
      type: "gaussian"
      mean: 0
      std: 0.05
    }
    bias_filler {
      type: "constant"
      value: 0
    }
  }
}
layer {
  name: "relu6"
  type: "ReLU"
  bottom: "cccp4"
  top: "cccp4"
}
layer {
  name: "pool2"
  type: "Pooling"
  bottom: "cccp4"
  top: "pool2"
  pooling_param {
    pool: MAX
    kernel_size: 3
    stride: 2
  }
}
layer {
  name: "conv3"
  type: "Convolution"
  bottom: "pool2"
  top: "conv3"
  param {
    lr_mult: 1
    decay_mult: 1
  }
  param {
    lr_mult: 2
    decay_mult: 0
  }
  convolution_param {
    num_output: 384
    pad: 1
    kernel_size: 3
    stride: 1
    weight_filler {
      type: "gaussian"
      mean: 0
      std: 0.01
    }
    bias_filler {
      type: "constant"
      value: 0
    }
  }
}
layer {
  name: "relu7"
  type: "ReLU"
  bottom: "conv3"
  top: "conv3"
}
layer {
  name: "cccp5"
  type: "Convolution"
  bottom: "conv3"
  top: "cccp5"
  param {
    lr_mult: 1
    decay_mult: 1
  }
  param {
    lr_mult: 2
    decay_mult: 0
  }
  convolution_param {
    num_output: 384
    kernel_size: 1
    stride: 1
    weight_filler {
      type: "gaussian"
      mean: 0
      std: 0.05
    }
    bias_filler {
      type: "constant"
      value: 0
    }
  }
}
layer {
  name: "relu8"
  type: "ReLU"
  bottom: "cccp5"
  top: "cccp5"
}
layer {
  name: "cccp6"
  type: "Convolution"
  bottom: "cccp5"
  top: "cccp6"
  param {
    lr_mult: 1
    decay_mult: 1
  }
  param {
    lr_mult: 2
    decay_mult: 0
  }
  convolution_param {
    num_output: 384
    kernel_size: 1
    stride: 1
    weight_filler {
      type: "gaussian"
      mean: 0
      std: 0.05
    }
    bias_filler {
      type: "constant"
      value: 0
    }
  }
}
layer {
  name: "relu9"
  type: "ReLU"
  bottom: "cccp6"
  top: "cccp6"
}
layer {
  name: "pool3"
  type: "Pooling"
  bottom: "cccp6"
  top: "pool3"
  pooling_param {
    pool: MAX
    kernel_size: 3
    stride: 2
  }
}
layer {
  name: "drop"
  type: "Dropout"
  bottom: "pool3"
  top: "pool3"
  dropout_param {
    dropout_ratio: 0.5
  }
}
layer {
  name: "conv4-1024"
  type: "Convolution"
  bottom: "pool3"
  top: "conv4"
  param {
    lr_mult: 1
    decay_mult: 1
  }
  param {
    lr_mult: 2
    decay_mult: 0
  }
  convolution_param {
    num_output: 1024
    pad: 1
    kernel_size: 3
    stride: 1
    weight_filler {
      type: "gaussian"
      mean: 0
      std: 0.05
    }
    bias_filler {
      type: "constant"
      value: 0
    }
  }
}
layer {
  name: "relu10"
  type: "ReLU"
  bottom: "conv4"
  top: "conv4"
}
layer {
  name: "cccp7-1024"
  type: "Convolution"
  bottom: "conv4"
  top: "cccp7"
  param {
    lr_mult: 1
    decay_mult: 1
  }
  param {
    lr_mult: 2
    decay_mult: 0
  }
  convolution_param {
    num_output: 1024
    kernel_size: 1
    stride: 1
    weight_filler {
      type: "gaussian"
      mean: 0
      std: 0.05
    }
    bias_filler {
      type: "constant"
      value: 0
    }
  }
}
layer {
  name: "relu11"
  type: "ReLU"
  bottom: "cccp7"
  top: "cccp7"
}
layer {
  name: "cccp8-1024"
  type: "Convolution"
  bottom: "cccp7"
  top: "cccp8"
  param {
    lr_mult: 1
    decay_mult: 1
  }
  param {
    lr_mult: 2
    decay_mult: 0
  }
  convolution_param {
    num_output: 1000
    kernel_size: 1
    stride: 1
    weight_filler {
      type: "gaussian"
      mean: 0
      std: 0.01
    }
    bias_filler {
      type: "constant"
      value: 0
    }
  }
}
layer {
  name: "relu12"
  type: "ReLU"
  bottom: "cccp8"
  top: "cccp8"
}
layer {
  name: "pool4"
  type: "Pooling"
  bottom: "cccp8"
  top: "pool4"
  pooling_param {
    pool: AVE
    kernel_size: 6
    stride: 1
  }
}
layer {
  name: "fc5_category"
  type: "InnerProduct"
  bottom: "pool4"
  top: "fc5_category"
  param {
    lr_mult: 10
    decay_mult: 1
  }
  param {
    lr_mult: 20
    decay_mult: 0
  }
  inner_product_param {
    num_output: 26
    weight_filler {
      type: "gaussian"
      std: 0.01
    }
    bias_filler {
      type: "constant"
      value: 0
    }
  }
}
layer {
  name: "loss_category"
  type: "SoftmaxWithLoss"
  bottom: "fc5_category"
  bottom: "label_category"
}
layer {
  name: "accuracy_category"
  type: "Accuracy"
  bottom: "fc5_category"
  bottom: "label_category"
  top: "accuracy_category"
  include {
    phase: TEST
  }
}
layer {
  name: "fc5_pattern"
  type: "InnerProduct"
  bottom: "pool3"
  top: "fc5_pattern"
  param {
    lr_mult: 10
    decay_mult: 1
  }
  param {
    lr_mult: 20
    decay_mult: 0
  }
  inner_product_param {
    num_output: 20
    weight_filler {
      type: "gaussian"
      std: 0.01
    }
    bias_filler {
      type: "constant"
      value: 0
    }
  }
}
layer {
  name: "loss_pattern"
  type: "SoftmaxWithLoss"
  bottom: "fc5_pattern"
  bottom: "label_pattern"
  loss_param {
    ignore_label: 0
  }
}
layer {
  name: "accuracy_pattern"
  type: "Accuracy"
  bottom: "fc5_pattern"
  bottom: "label_pattern"
  top: "accuracy_pattern"
  include {
    phase: TEST
  }
  accuracy_param {
    ignore_label: 0
  }
}
layer {
  name: "fc5_neck"
  type: "InnerProduct"
  bottom: "pool3"
  top: "fc5_neck"
  param {
    lr_mult: 10
    decay_mult: 1
  }
  param {
    lr_mult: 20
    decay_mult: 0
  }
  inner_product_param {
    num_output: 23
    weight_filler {
      type: "gaussian"
      std: 0.01
    }
    bias_filler {
      type: "constant"
      value: 0
    }
  }
}
layer {
  name: "loss_neck"
  type: "SoftmaxWithLoss"
  bottom: "fc5_neck"
  bottom: "label_neck"
  loss_param {
    ignore_label: 0
  }
}
layer {
  name: "accuracy_neck"
  type: "Accuracy"
  bottom: "fc5_neck"
  bottom: "label_neck"
  top: "accuracy_neck"
  include {
    phase: TEST
  }
  accuracy_param {
    ignore_label: 0
  }
}
layer {
  name: "fc5_sleeve"
  type: "InnerProduct"
  bottom: "pool3"
  top: "fc5_sleeve"
  param {
    lr_mult: 10
    decay_mult: 1
  }
  param {
    lr_mult: 20
    decay_mult: 0
  }
  inner_product_param {
    num_output: 9
    weight_filler {
      type: "gaussian"
      std: 0.01
    }
    bias_filler {
      type: "constant"
      value: 0
    }
  }
}
layer {
  name: "loss_sleeve"
  type: "SoftmaxWithLoss"
  bottom: "fc5_sleeve"
  bottom: "label_sleeve"
  loss_param {
    ignore_label: 0
  }
}
layer {
  name: "accuracy_sleeve"
  type: "Accuracy"
  bottom: "fc5_sleeve"
  bottom: "label_sleeve"
  top: "accuracy_sleeve"
  include {
    phase: TEST
  }
  accuracy_param {
    ignore_label: 0
  }
}
layer {
  name: "fc5_fit"
  type: "InnerProduct"
  bottom: "pool4"
  top: "fc5_fit"
  param {
    lr_mult: 10
    decay_mult: 1
  }
  param {
    lr_mult: 20
    decay_mult: 0
  }
  inner_product_param {
    num_output: 26
    weight_filler {
      type: "gaussian"
      std: 0.01
    }
    bias_filler {
      type: "constant"
      value: 0
    }
  }
}
layer {
  name: "loss_fit"
  type: "SoftmaxWithLoss"
  bottom: "fc5_fit"
  bottom: "label_fit"
  loss_param {
    ignore_label: 0
  }
}
layer {
  name: "accuracy_fit"
  type: "Accuracy"
  bottom: "fc5_fit"
  bottom: "label_fit"
  top: "accuracy_fit"
  include {
    phase: TEST
  }
  accuracy_param {
    ignore_label: 0
  }
}
layer {
  name: "fc5_ideal_for"
  type: "InnerProduct"
  bottom: "pool4"
  top: "fc5_ideal_for"
  param {
    lr_mult: 10
    decay_mult: 1
  }
  param {
    lr_mult: 20
    decay_mult: 0
  }
  inner_product_param {
    num_output: 7
    weight_filler {
      type: "gaussian"
      std: 0.01
    }
    bias_filler {
      type: "constant"
      value: 0
    }
  }
}
layer {
  name: "loss_ideal_for"
  type: "SoftmaxWithLoss"
  bottom: "fc5_ideal_for"
  bottom: "label_ideal_for"
  loss_param {
    ignore_label: 0
  }
}
layer {
  name: "accuracy_ideal_for"
  type: "Accuracy"
  bottom: "fc5_ideal_for"
  bottom: "label_ideal_for"
  top: "accuracy_ideal_for"
  include {
    phase: TEST
  }
  accuracy_param {
    ignore_label: 0
  }
}
layer {
  name: "fc5_occasion"
  type: "InnerProduct"
  bottom: "pool4"
  top: "fc5_occasion"
  param {
    lr_mult: 10
    decay_mult: 1
  }
  param {
    lr_mult: 20
    decay_mult: 0
  }
  inner_product_param {
    num_output: 38
    weight_filler {
      type: "gaussian"
      std: 0.01
    }
    bias_filler {
      type: "constant"
      value: 0
    }
  }
}
layer {
  name: "loss_occasion"
  type: "SoftmaxWithLoss"
  bottom: "fc5_occasion"
  bottom: "label_occasion"
  loss_param {
    ignore_label: 0
  }
}
layer {
  name: "accuracy_occasion"
  type: "Accuracy"
  bottom: "fc5_occasion"
  bottom: "label_occasion"
  top: "accuracy_occasion"
  include {
    phase: TEST
  }
  accuracy_param {
    ignore_label: 0
  }
}
I0502 17:37:00.280843 20985 layer_factory.hpp:74] Creating layer data
I0502 17:37:00.280881 20985 net.cpp:84] Creating Layer data
I0502 17:37:00.280900 20985 net.cpp:338] data -> data
I0502 17:37:00.280948 20985 net.cpp:338] data -> label_category
I0502 17:37:00.280987 20985 net.cpp:338] data -> label_pattern
…
I0502 17:37:00.314112 20985 image_data_multclass_layer.cpp:75] ##############################################
I0502 17:37:00.314122 20985 image_data_multclass_layer.cpp:76] ##############################################
I0502 17:37:00.314164 20985 image_data_multclass_layer.cpp:77] size of top: 8
I0502 17:37:00.316655 20985 image_data_multclass_layer.cpp:95] output data size: 64,3,224,224
I0502 17:37:00.316685 20985 image_data_multclass_layer.cpp:99] number of labels: 7
I0502 17:37:00.316715 20985 data_transformer.cpp:22] Loading mean file from: data/ilsvrc12/imagenet_mean.binaryproto
I0502 17:37:00.329989 20985 net.cpp:120] Top shape: 64 3 224 224 (9633792)
I0502 17:37:00.330046 20985 net.cpp:120] Top shape: 64 (64)
I0502 17:37:00.330060 20985 net.cpp:120] Top shape: 64 (64)
I0502 17:37:00.330073 20985 net.cpp:120] Top shape: 64 (64)
I0502 17:37:00.330090 20985 net.cpp:120] Top shape: 64 (64)
I0502 17:37:00.330107 20985 net.cpp:120] Top shape: 64 (64)
I0502 17:37:00.330119 20985 net.cpp:120] Top shape: 64 (64)
I0502 17:37:00.330132 20985 net.cpp:120] Top shape: 64 (64)
I0502 17:37:00.330159 20985 layer_factory.hpp:74] Creating layer label_category_data_1_split
I0502 17:37:00.330193 20985 net.cpp:84] Creating Layer label_category_data_1_split
I0502 17:37:00.330209 20985 net.cpp:380] label_category_data_1_split <- label_category
I0502 17:37:00.330226 20985 net.cpp:338] label_category_data_1_split -> label_category_data_1_split_0
I0502 17:37:00.330251 20985 net.cpp:338] label_category_data_1_split -> label_category_data_1_split_1
I0502 17:37:00.330267 20985 net.cpp:113] Setting up label_category_data_1_split
I0502 17:37:00.330287 20985 net.cpp:120] Top shape: 64 (64)
I0502 17:37:00.330299 20985 net.cpp:120] Top shape: 64 (64)
I0502 17:37:00.330310 20985 layer_factory.hpp:74] Creating layer label_pattern_data_2_split
I0502 17:37:00.330325 20985 net.cpp:84] Creating Layer label_pattern_data_2_split
I0502 17:37:00.330337 20985 net.cpp:380] label_pattern_data_2_split <- label_pattern
I0502 17:37:00.330350 20985 net.cpp:338] label_pattern_data_2_split -> label_pattern_data_2_split_0
I0502 17:37:00.330366 20985 net.cpp:338] label_pattern_data_2_split -> label_pattern_data_2_split_1
I0502 17:37:00.330380 20985 net.cpp:113] Setting up label_pattern_data_2_split
I0502 17:37:00.330395 20985 net.cpp:120] Top shape: 64 (64)
I0502 17:37:00.330406 20985 net.cpp:120] Top shape: 64 (64)
I0502 17:37:00.330417 20985 layer_factory.hpp:74] Creating layer label_neck_data_3_split
I0502 17:37:00.330430 20985 net.cpp:84] Creating Layer label_neck_data_3_split
I0502 17:37:00.330440 20985 net.cpp:380] label_neck_data_3_split <- label_neck
I0502 17:37:00.330454 20985 net.cpp:338] label_neck_data_3_split -> label_neck_data_3_split_0
I0502 17:37:00.330469 20985 net.cpp:338] label_neck_data_3_split -> label_neck_data_3_split_1
I0502 17:37:00.330485 20985 net.cpp:113] Setting up label_neck_data_3_split
I0502 17:37:00.330499 20985 net.cpp:120] Top shape: 64 (64)
I0502 17:37:00.330512 20985 net.cpp:120] Top shape: 64 (64)
I0502 17:37:00.330523 20985 layer_factory.hpp:74] Creating layer label_sleeve_data_4_split
I0502 17:37:00.330538 20985 net.cpp:84] Creating Layer label_sleeve_data_4_split
I0502 17:37:00.330549 20985 net.cpp:380] label_sleeve_data_4_split <- label_sleeve
I0502 17:37:00.330561 20985 net.cpp:338] label_sleeve_data_4_split -> label_sleeve_data_4_split_0
I0502 17:37:00.330577 20985 net.cpp:338] label_sleeve_data_4_split -> label_sleeve_data_4_split_1
I0502 17:37:00.330591 20985 net.cpp:113] Setting up label_sleeve_data_4_split
I0502 17:37:00.330606 20985 net.cpp:120] Top shape: 64 (64)
I0502 17:37:00.330618 20985 net.cpp:120] Top shape: 64 (64)
I0502 17:37:00.330631 20985 layer_factory.hpp:74] Creating layer label_fit_data_5_split
I0502 17:37:00.330644 20985 net.cpp:84] Creating Layer label_fit_data_5_split
I0502 17:37:00.330656 20985 net.cpp:380] label_fit_data_5_split <- label_fit
I0502 17:37:00.330669 20985 net.cpp:338] label_fit_data_5_split -> label_fit_data_5_split_0
I0502 17:37:00.330687 20985 net.cpp:338] label_fit_data_5_split -> label_fit_data_5_split_1
I0502 17:37:00.330714 20985 net.cpp:113] Setting up label_fit_data_5_split
I0502 17:37:00.330747 20985 net.cpp:120] Top shape: 64 (64)
I0502 17:37:00.330826 20985 net.cpp:120] Top shape: 64 (64)
I0502 17:37:00.330842 20985 layer_factory.hpp:74] Creating layer label_ideal_for_data_6_split
I0502 17:37:00.330858 20985 net.cpp:84] Creating Layer label_ideal_for_data_6_split
I0502 17:37:00.330870 20985 net.cpp:380] label_ideal_for_data_6_split <- label_ideal_for
I0502 17:37:00.330885 20985 net.cpp:338] label_ideal_for_data_6_split -> label_ideal_for_data_6_split_0
I0502 17:37:00.330904 20985 net.cpp:338] label_ideal_for_data_6_split -> label_ideal_for_data_6_split_1
I0502 17:37:00.330917 20985 net.cpp:113] Setting up label_ideal_for_data_6_split
I0502 17:37:00.330940 20985 net.cpp:120] Top shape: 64 (64)
I0502 17:37:00.330962 20985 net.cpp:120] Top shape: 64 (64)
I0502 17:37:00.330981 20985 layer_factory.hpp:74] Creating layer label_occasion_data_7_split
I0502 17:37:00.330998 20985 net.cpp:84] Creating Layer label_occasion_data_7_split
I0502 17:37:00.331009 20985 net.cpp:380] label_occasion_data_7_split <- label_occasion
I0502 17:37:00.331029 20985 net.cpp:338] label_occasion_data_7_split -> label_occasion_data_7_split_0
I0502 17:37:00.331045 20985 net.cpp:338] label_occasion_data_7_split -> label_occasion_data_7_split_1
I0502 17:37:00.331063 20985 net.cpp:113] Setting up label_occasion_data_7_split
I0502 17:37:00.331078 20985 net.cpp:120] Top shape: 64 (64)
I0502 17:37:00.331089 20985 net.cpp:120] Top shape: 64 (64)
I0502 17:37:00.331099 20985 layer_factory.hpp:74] Creating layer conv1
I0502 17:37:00.331121 20985 net.cpp:84] Creating Layer conv1
I0502 17:37:00.331142 20985 net.cpp:380] conv1 <- data
I0502 17:37:00.331161 20985 net.cpp:338] conv1 -> conv1
I0502 17:37:00.331176 20985 net.cpp:113] Setting up conv1
I0502 17:37:00.332528 20985 net.cpp:120] Top shape: 64 96 54 54 (17915904)
I0502 17:37:00.332567 20985 layer_factory.hpp:74] Creating layer relu0
I0502 17:37:00.332586 20985 net.cpp:84] Creating Layer relu0
I0502 17:37:00.332597 20985 net.cpp:380] relu0 <- conv1
I0502 17:37:00.332610 20985 net.cpp:327] relu0 -> conv1 (in-place)
I0502 17:37:00.332625 20985 net.cpp:113] Setting up relu0
I0502 17:37:00.332640 20985 net.cpp:120] Top shape: 64 96 54 54 (17915904)
I0502 17:37:00.332662 20985 layer_factory.hpp:74] Creating layer cccp1
I0502 17:37:00.332679 20985 net.cpp:84] Creating Layer cccp1
I0502 17:37:00.332690 20985 net.cpp:380] cccp1 <- conv1
I0502 17:37:00.332706 20985 net.cpp:338] cccp1 -> cccp1
I0502 17:37:00.332721 20985 net.cpp:113] Setting up cccp1
I0502 17:37:00.333153 20985 net.cpp:120] Top shape: 64 96 54 54 (17915904)
I0502 17:37:00.333202 20985 layer_factory.hpp:74] Creating layer relu1
I0502 17:37:00.333243 20985 net.cpp:84] Creating Layer relu1
I0502 17:37:00.333274 20985 net.cpp:380] relu1 <- cccp1
I0502 17:37:00.333295 20985 net.cpp:327] relu1 -> cccp1 (in-place)
I0502 17:37:00.333312 20985 net.cpp:113] Setting up relu1
I0502 17:37:00.333330 20985 net.cpp:120] Top shape: 64 96 54 54 (17915904)
I0502 17:37:00.333356 20985 layer_factory.hpp:74] Creating layer cccp2
I0502 17:37:00.333382 20985 net.cpp:84] Creating Layer cccp2
I0502 17:37:00.333397 20985 net.cpp:380] cccp2 <- cccp1
I0502 17:37:00.333413 20985 net.cpp:338] cccp2 -> cccp2
I0502 17:37:00.333439 20985 net.cpp:113] Setting up cccp2
I0502 17:37:00.333824 20985 net.cpp:120] Top shape: 64 96 54 54 (17915904)
I0502 17:37:00.333863 20985 layer_factory.hpp:74] Creating layer relu2
I0502 17:37:00.333895 20985 net.cpp:84] Creating Layer relu2
I0502 17:37:00.333915 20985 net.cpp:380] relu2 <- cccp2
I0502 17:37:00.333931 20985 net.cpp:327] relu2 -> cccp2 (in-place)
I0502 17:37:00.333946 20985 net.cpp:113] Setting up relu2
I0502 17:37:00.333969 20985 net.cpp:120] Top shape: 64 96 54 54 (17915904)
I0502 17:37:00.333984 20985 layer_factory.hpp:74] Creating layer pool0
I0502 17:37:00.334014 20985 net.cpp:84] Creating Layer pool0
I0502 17:37:00.334033 20985 net.cpp:380] pool0 <- cccp2
I0502 17:37:00.334048 20985 net.cpp:338] pool0 -> pool0
I0502 17:37:00.334064 20985 net.cpp:113] Setting up pool0
I0502 17:37:00.334084 20985 net.cpp:120] Top shape: 64 96 27 27 (4478976)
I0502 17:37:00.334136 20985 layer_factory.hpp:74] Creating layer conv2
I0502 17:37:00.334159 20985 net.cpp:84] Creating Layer conv2
I0502 17:37:00.334174 20985 net.cpp:380] conv2 <- pool0
I0502 17:37:00.334192 20985 net.cpp:338] conv2 -> conv2
I0502 17:37:00.334209 20985 net.cpp:113] Setting up conv2
I0502 17:37:00.357908 20985 net.cpp:120] Top shape: 64 256 27 27 (11943936)
I0502 17:37:00.357946 20985 layer_factory.hpp:74] Creating layer relu3
I0502 17:37:00.357972 20985 net.cpp:84] Creating Layer relu3
I0502 17:37:00.357985 20985 net.cpp:380] relu3 <- conv2
I0502 17:37:00.358001 20985 net.cpp:327] relu3 -> conv2 (in-place)
I0502 17:37:00.358033 20985 net.cpp:113] Setting up relu3
I0502 17:37:00.358052 20985 net.cpp:120] Top shape: 64 256 27 27 (11943936)
I0502 17:37:00.358062 20985 layer_factory.hpp:74] Creating layer cccp3
I0502 17:37:00.358079 20985 net.cpp:84] Creating Layer cccp3
I0502 17:37:00.358090 20985 net.cpp:380] cccp3 <- conv2
I0502 17:37:00.358106 20985 net.cpp:338] cccp3 -> cccp3
I0502 17:37:00.358122 20985 net.cpp:113] Setting up cccp3
I0502 17:37:00.360712 20985 net.cpp:120] Top shape: 64 256 27 27 (11943936)
I0502 17:37:00.360746 20985 layer_factory.hpp:74] Creating layer relu5
I0502 17:37:00.360764 20985 net.cpp:84] Creating Layer relu5
I0502 17:37:00.360776 20985 net.cpp:380] relu5 <- cccp3
I0502 17:37:00.360791 20985 net.cpp:327] relu5 -> cccp3 (in-place)
I0502 17:37:00.360815 20985 net.cpp:113] Setting up relu5
I0502 17:37:00.360831 20985 net.cpp:120] Top shape: 64 256 27 27 (11943936)
I0502 17:37:00.360841 20985 layer_factory.hpp:74] Creating layer cccp4
I0502 17:37:00.360857 20985 net.cpp:84] Creating Layer cccp4
I0502 17:37:00.360867 20985 net.cpp:380] cccp4 <- cccp3
I0502 17:37:00.360882 20985 net.cpp:338] cccp4 -> cccp4
I0502 17:37:00.360898 20985 net.cpp:113] Setting up cccp4
I0502 17:37:00.363507 20985 net.cpp:120] Top shape: 64 256 27 27 (11943936)
I0502 17:37:00.363540 20985 layer_factory.hpp:74] Creating layer relu6
I0502 17:37:00.363559 20985 net.cpp:84] Creating Layer relu6
I0502 17:37:00.363571 20985 net.cpp:380] relu6 <- cccp4
I0502 17:37:00.363586 20985 net.cpp:327] relu6 -> cccp4 (in-place)
I0502 17:37:00.363612 20985 net.cpp:113] Setting up relu6
I0502 17:37:00.363627 20985 net.cpp:120] Top shape: 64 256 27 27 (11943936)
I0502 17:37:00.363641 20985 layer_factory.hpp:74] Creating layer pool2
I0502 17:37:00.363656 20985 net.cpp:84] Creating Layer pool2
I0502 17:37:00.363667 20985 net.cpp:380] pool2 <- cccp4
I0502 17:37:00.363682 20985 net.cpp:338] pool2 -> pool2
I0502 17:37:00.363698 20985 net.cpp:113] Setting up pool2
I0502 17:37:00.363714 20985 net.cpp:120] Top shape: 64 256 13 13 (2768896)
I0502 17:37:00.363735 20985 layer_factory.hpp:74] Creating layer conv3
I0502 17:37:00.363752 20985 net.cpp:84] Creating Layer conv3
I0502 17:37:00.363764 20985 net.cpp:380] conv3 <- pool2
I0502 17:37:00.363780 20985 net.cpp:338] conv3 -> conv3
I0502 17:37:00.363795 20985 net.cpp:113] Setting up conv3
I0502 17:37:00.397519 20985 net.cpp:120] Top shape: 64 384 13 13 (4153344)
I0502 17:37:00.397565 20985 layer_factory.hpp:74] Creating layer relu7
I0502 17:37:00.397585 20985 net.cpp:84] Creating Layer relu7
I0502 17:37:00.397604 20985 net.cpp:380] relu7 <- conv3
I0502 17:37:00.397622 20985 net.cpp:327] relu7 -> conv3 (in-place)
I0502 17:37:00.397639 20985 net.cpp:113] Setting up relu7
I0502 17:37:00.397662 20985 net.cpp:120] Top shape: 64 384 13 13 (4153344)
I0502 17:37:00.397675 20985 layer_factory.hpp:74] Creating layer cccp5
I0502 17:37:00.397691 20985 net.cpp:84] Creating Layer cccp5
I0502 17:37:00.397703 20985 net.cpp:380] cccp5 <- conv3
I0502 17:37:00.397719 20985 net.cpp:338] cccp5 -> cccp5
I0502 17:37:00.397737 20985 net.cpp:113] Setting up cccp5
I0502 17:37:00.403575 20985 net.cpp:120] Top shape: 64 384 13 13 (4153344)
I0502 17:37:00.403609 20985 layer_factory.hpp:74] Creating layer relu8
I0502 17:37:00.403627 20985 net.cpp:84] Creating Layer relu8
I0502 17:37:00.403640 20985 net.cpp:380] relu8 <- cccp5
I0502 17:37:00.403653 20985 net.cpp:327] relu8 -> cccp5 (in-place)
I0502 17:37:00.403710 20985 net.cpp:113] Setting up relu8
I0502 17:37:00.403725 20985 net.cpp:120] Top shape: 64 384 13 13 (4153344)
I0502 17:37:00.403736 20985 layer_factory.hpp:74] Creating layer cccp6
I0502 17:37:00.403753 20985 net.cpp:84] Creating Layer cccp6
I0502 17:37:00.403764 20985 net.cpp:380] cccp6 <- cccp5
I0502 17:37:00.403779 20985 net.cpp:338] cccp6 -> cccp6
I0502 17:37:00.403810 20985 net.cpp:113] Setting up cccp6
I0502 17:37:00.409539 20985 net.cpp:120] Top shape: 64 384 13 13 (4153344)
I0502 17:37:00.409577 20985 layer_factory.hpp:74] Creating layer relu9
I0502 17:37:00.409595 20985 net.cpp:84] Creating Layer relu9
I0502 17:37:00.409607 20985 net.cpp:380] relu9 <- cccp6
I0502 17:37:00.409621 20985 net.cpp:327] relu9 -> cccp6 (in-place)
I0502 17:37:00.409636 20985 net.cpp:113] Setting up relu9
I0502 17:37:00.409649 20985 net.cpp:120] Top shape: 64 384 13 13 (4153344)
I0502 17:37:00.409660 20985 layer_factory.hpp:74] Creating layer pool3
I0502 17:37:00.409677 20985 net.cpp:84] Creating Layer pool3
I0502 17:37:00.409688 20985 net.cpp:380] pool3 <- cccp6
I0502 17:37:00.409703 20985 net.cpp:338] pool3 -> pool3
I0502 17:37:00.409729 20985 net.cpp:113] Setting up pool3
I0502 17:37:00.409747 20985 net.cpp:120] Top shape: 64 384 6 6 (884736)
I0502 17:37:00.409760 20985 layer_factory.hpp:74] Creating layer drop
I0502 17:37:00.409775 20985 net.cpp:84] Creating Layer drop
I0502 17:37:00.409786 20985 net.cpp:380] drop <- pool3
I0502 17:37:00.409801 20985 net.cpp:327] drop -> pool3 (in-place)
I0502 17:37:00.409816 20985 net.cpp:113] Setting up drop
I0502 17:37:00.409839 20985 net.cpp:120] Top shape: 64 384 6 6 (884736)
I0502 17:37:00.409857 20985 layer_factory.hpp:74] Creating layer pool3_drop_0_split
I0502 17:37:00.409873 20985 net.cpp:84] Creating Layer pool3_drop_0_split
I0502 17:37:00.409884 20985 net.cpp:380] pool3_drop_0_split <- pool3
I0502 17:37:00.409901 20985 net.cpp:338] pool3_drop_0_split -> pool3_drop_0_split_0
I0502 17:37:00.409917 20985 net.cpp:338] pool3_drop_0_split -> pool3_drop_0_split_1
I0502 17:37:00.409934 20985 net.cpp:338] pool3_drop_0_split -> pool3_drop_0_split_2
I0502 17:37:00.409950 20985 net.cpp:338] pool3_drop_0_split -> pool3_drop_0_split_3
I0502 17:37:00.409963 20985 net.cpp:113] Setting up pool3_drop_0_split
I0502 17:37:00.409981 20985 net.cpp:120] Top shape: 64 384 6 6 (884736)
I0502 17:37:00.409993 20985 net.cpp:120] Top shape: 64 384 6 6 (884736)
I0502 17:37:00.410006 20985 net.cpp:120] Top shape: 64 384 6 6 (884736)
I0502 17:37:00.410017 20985 net.cpp:120] Top shape: 64 384 6 6 (884736)
I0502 17:37:00.410029 20985 layer_factory.hpp:74] Creating layer conv4-1024
I0502 17:37:00.410045 20985 net.cpp:84] Creating Layer conv4-1024
I0502 17:37:00.410058 20985 net.cpp:380] conv4-1024 <- pool3_drop_0_split_0
I0502 17:37:00.410074 20985 net.cpp:338] conv4-1024 -> conv4
I0502 17:37:00.410090 20985 net.cpp:113] Setting up conv4-1024
I0502 17:37:00.543579 20985 net.cpp:120] Top shape: 64 1024 6 6 (2359296)
I0502 17:37:00.543637 20985 layer_factory.hpp:74] Creating layer relu10
I0502 17:37:00.543669 20985 net.cpp:84] Creating Layer relu10
I0502 17:37:00.543684 20985 net.cpp:380] relu10 <- conv4
I0502 17:37:00.543702 20985 net.cpp:327] relu10 -> conv4 (in-place)
I0502 17:37:00.543720 20985 net.cpp:113] Setting up relu10
I0502 17:37:00.543735 20985 net.cpp:120] Top shape: 64 1024 6 6 (2359296)
I0502 17:37:00.543756 20985 layer_factory.hpp:74] Creating layer cccp7-1024
I0502 17:37:00.543776 20985 net.cpp:84] Creating Layer cccp7-1024
I0502 17:37:00.543787 20985 net.cpp:380] cccp7-1024 <- conv4
I0502 17:37:00.543802 20985 net.cpp:338] cccp7-1024 -> cccp7
I0502 17:37:00.543819 20985 net.cpp:113] Setting up cccp7-1024
I0502 17:37:00.583392 20985 net.cpp:120] Top shape: 64 1024 6 6 (2359296)
I0502 17:37:00.583425 20985 layer_factory.hpp:74] Creating layer relu11
I0502 17:37:00.583442 20985 net.cpp:84] Creating Layer relu11
I0502 17:37:00.583454 20985 net.cpp:380] relu11 <- cccp7
I0502 17:37:00.583469 20985 net.cpp:327] relu11 -> cccp7 (in-place)
I0502 17:37:00.583483 20985 net.cpp:113] Setting up relu11
I0502 17:37:00.583537 20985 net.cpp:120] Top shape: 64 1024 6 6 (2359296)
I0502 17:37:00.583550 20985 layer_factory.hpp:74] Creating layer cccp8-1024
I0502 17:37:00.583566 20985 net.cpp:84] Creating Layer cccp8-1024
I0502 17:37:00.583577 20985 net.cpp:380] cccp8-1024 <- cccp7
I0502 17:37:00.583592 20985 net.cpp:338] cccp8-1024 -> cccp8
I0502 17:37:00.583608 20985 net.cpp:113] Setting up cccp8-1024
I0502 17:37:00.622220 20985 net.cpp:120] Top shape: 64 1000 6 6 (2304000)
I0502 17:37:00.622252 20985 layer_factory.hpp:74] Creating layer relu12
I0502 17:37:00.622270 20985 net.cpp:84] Creating Layer relu12
I0502 17:37:00.622282 20985 net.cpp:380] relu12 <- cccp8
I0502 17:37:00.622298 20985 net.cpp:327] relu12 -> cccp8 (in-place)
I0502 17:37:00.622311 20985 net.cpp:113] Setting up relu12
I0502 17:37:00.622324 20985 net.cpp:120] Top shape: 64 1000 6 6 (2304000)
I0502 17:37:00.622335 20985 layer_factory.hpp:74] Creating layer pool4
I0502 17:37:00.622350 20985 net.cpp:84] Creating Layer pool4
I0502 17:37:00.622362 20985 net.cpp:380] pool4 <- cccp8
I0502 17:37:00.622378 20985 net.cpp:338] pool4 -> pool4
I0502 17:37:00.622403 20985 net.cpp:113] Setting up pool4
I0502 17:37:00.622421 20985 net.cpp:120] Top shape: 64 1000 1 1 (64000)
I0502 17:37:00.622433 20985 layer_factory.hpp:74] Creating layer pool4_pool4_0_split
I0502 17:37:00.622447 20985 net.cpp:84] Creating Layer pool4_pool4_0_split
I0502 17:37:00.622458 20985 net.cpp:380] pool4_pool4_0_split <- pool4
I0502 17:37:00.622473 20985 net.cpp:338] pool4_pool4_0_split -> pool4_pool4_0_split_0
I0502 17:37:00.622489 20985 net.cpp:338] pool4_pool4_0_split -> pool4_pool4_0_split_1
I0502 17:37:00.622505 20985 net.cpp:338] pool4_pool4_0_split -> pool4_pool4_0_split_2
I0502 17:37:00.622520 20985 net.cpp:338] pool4_pool4_0_split -> pool4_pool4_0_split_3
I0502 17:37:00.622534 20985 net.cpp:113] Setting up pool4_pool4_0_split
I0502 17:37:00.622551 20985 net.cpp:120] Top shape: 64 1000 1 1 (64000)
I0502 17:37:00.622563 20985 net.cpp:120] Top shape: 64 1000 1 1 (64000)
I0502 17:37:00.622575 20985 net.cpp:120] Top shape: 64 1000 1 1 (64000)
I0502 17:37:00.622586 20985 net.cpp:120] Top shape: 64 1000 1 1 (64000)
I0502 17:37:00.622597 20985 layer_factory.hpp:74] Creating layer fc5_category
I0502 17:37:00.622614 20985 net.cpp:84] Creating Layer fc5_category
I0502 17:37:00.622625 20985 net.cpp:380] fc5_category <- pool4_pool4_0_split_0
I0502 17:37:00.622642 20985 net.cpp:338] fc5_category -> fc5_category
I0502 17:37:00.622658 20985 net.cpp:113] Setting up fc5_category
I0502 17:37:00.623668 20985 net.cpp:120] Top shape: 64 26 (1664)
I0502 17:37:00.623697 20985 layer_factory.hpp:74] Creating layer fc5_category_fc5_category_0_split
I0502 17:37:00.623713 20985 net.cpp:84] Creating Layer fc5_category_fc5_category_0_split
I0502 17:37:00.623724 20985 net.cpp:380] fc5_category_fc5_category_0_split <- fc5_category
I0502 17:37:00.623739 20985 net.cpp:338] fc5_category_fc5_category_0_split -> fc5_category_fc5_category_0_split_0
I0502 17:37:00.623755 20985 net.cpp:338] fc5_category_fc5_category_0_split -> fc5_category_fc5_category_0_split_1
I0502 17:37:00.623775 20985 net.cpp:113] Setting up fc5_category_fc5_category_0_split
I0502 17:37:00.623791 20985 net.cpp:120] Top shape: 64 26 (1664)
I0502 17:37:00.623803 20985 net.cpp:120] Top shape: 64 26 (1664)
I0502 17:37:00.623814 20985 layer_factory.hpp:74] Creating layer loss_category
I0502 17:37:00.623828 20985 net.cpp:84] Creating Layer loss_category
I0502 17:37:00.623839 20985 net.cpp:380] loss_category <- fc5_category_fc5_category_0_split_0
I0502 17:37:00.623852 20985 net.cpp:380] loss_category <- label_category_data_1_split_0
I0502 17:37:00.623867 20985 net.cpp:338] loss_category -> (automatic)
…
