…
I0521 07:07:57.561769 15680 net.cpp:257] The NetState phase (0) differed from the phase (1) specified by a rule in layer data
I0521 07:07:57.562036 15680 net.cpp:42] Initializing net from parameters: 
name: "yq_fk7"
state {
  phase: TRAIN
}
layer {
  name: "data"
  type: "ImageDataMultLabel"
  top: "data"
  top: "label_pid"
  top: "label_category"
  include {
    phase: TRAIN
  }
  transform_param {
    mirror: true
    crop_size: 227
    mean_value: 187
    mean_value: 176
    mean_value: 176
  }
  image_data_mult_label_param {
    source: "models/yq_fk7/train.txt"
    batch_size: 50
    shuffle: true
    new_height: 256
    new_width: 256
  }
}
layer {
  name: "conv1"
  type: "Convolution"
  bottom: "data"
  top: "conv1"
  param {
    lr_mult: 1
    decay_mult: 1
  }
  param {
    lr_mult: 2
    decay_mult: 0
  }
  convolution_param {
    num_output: 96
    kernel_size: 11
    stride: 4
    weight_filler {
      type: "gaussian"
      std: 0.01
    }
    bias_filler {
      type: "constant"
      value: 0
    }
  }
}
layer {
  name: "relu1"
  type: "ReLU"
  bottom: "conv1"
  top: "conv1"
}
layer {
  name: "pool1"
  type: "Pooling"
  bottom: "conv1"
  top: "pool1"
  pooling_param {
    pool: MAX
    kernel_size: 3
    stride: 2
  }
}
layer {
  name: "norm1"
  type: "LRN"
  bottom: "pool1"
  top: "norm1"
  lrn_param {
    local_size: 5
    alpha: 0.0001
    beta: 0.75
  }
}
layer {
  name: "conv2"
  type: "Convolution"
  bottom: "norm1"
  top: "conv2"
  param {
    lr_mult: 1
    decay_mult: 1
  }
  param {
    lr_mult: 2
    decay_mult: 0
  }
  convolution_param {
    num_output: 256
    pad: 2
    kernel_size: 5
    group: 2
    weight_filler {
      type: "gaussian"
      std: 0.01
    }
    bias_filler {
      type: "constant"
      value: 1
    }
  }
}
layer {
  name: "relu2"
  type: "ReLU"
  bottom: "conv2"
  top: "conv2"
}
layer {
  name: "pool2"
  type: "Pooling"
  bottom: "conv2"
  top: "pool2"
  pooling_param {
    pool: MAX
    kernel_size: 3
    stride: 2
  }
}
layer {
  name: "norm2"
  type: "LRN"
  bottom: "pool2"
  top: "norm2"
  lrn_param {
    local_size: 5
    alpha: 0.0001
    beta: 0.75
  }
}
layer {
  name: "conv3"
  type: "Convolution"
  bottom: "norm2"
  top: "conv3"
  param {
    lr_mult: 1
    decay_mult: 1
  }
  param {
    lr_mult: 2
    decay_mult: 0
  }
  convolution_param {
    num_output: 384
    pad: 1
    kernel_size: 3
    weight_filler {
      type: "gaussian"
      std: 0.01
    }
    bias_filler {
      type: "constant"
      value: 0
    }
  }
}
layer {
  name: "relu3"
  type: "ReLU"
  bottom: "conv3"
  top: "conv3"
}
layer {
  name: "conv4"
  type: "Convolution"
  bottom: "conv3"
  top: "conv4"
  param {
    lr_mult: 1
    decay_mult: 1
  }
  param {
    lr_mult: 2
    decay_mult: 0
  }
  convolution_param {
    num_output: 384
    pad: 1
    kernel_size: 3
    group: 2
    weight_filler {
      type: "gaussian"
      std: 0.01
    }
    bias_filler {
      type: "constant"
      value: 1
    }
  }
}
layer {
  name: "relu4"
  type: "ReLU"
  bottom: "conv4"
  top: "conv4"
}
layer {
  name: "conv5"
  type: "Convolution"
  bottom: "conv4"
  top: "conv5"
  param {
    lr_mult: 1
    decay_mult: 1
  }
  param {
    lr_mult: 2
    decay_mult: 0
  }
  convolution_param {
    num_output: 256
    pad: 1
    kernel_size: 3
    group: 2
    weight_filler {
      type: "gaussian"
      std: 0.01
    }
    bias_filler {
      type: "constant"
      value: 1
    }
  }
}
layer {
  name: "relu5"
  type: "ReLU"
  bottom: "conv5"
  top: "conv5"
}
layer {
  name: "pool5"
  type: "Pooling"
  bottom: "conv5"
  top: "pool5"
  pooling_param {
    pool: MAX
    kernel_size: 3
    stride: 2
  }
}
layer {
  name: "fc6"
  type: "InnerProduct"
  bottom: "pool5"
  top: "fc6"
  param {
    lr_mult: 1
    decay_mult: 1
  }
  param {
    lr_mult: 2
    decay_mult: 0
  }
  inner_product_param {
    num_output: 4096
    weight_filler {
      type: "gaussian"
      std: 0.005
    }
    bias_filler {
      type: "constant"
      value: 1
    }
  }
}
layer {
  name: "relu6"
  type: "ReLU"
  bottom: "fc6"
  top: "fc6"
}
layer {
  name: "drop6"
  type: "Dropout"
  bottom: "fc6"
  top: "fc6"
  dropout_param {
    dropout_ratio: 0.5
  }
}
layer {
  name: "fc7"
  type: "InnerProduct"
  bottom: "fc6"
  top: "fc7"
  param {
    lr_mult: 1
    decay_mult: 1
  }
  param {
    lr_mult: 2
    decay_mult: 0
  }
  inner_product_param {
    num_output: 4096
    weight_filler {
      type: "gaussian"
      std: 0.005
    }
    bias_filler {
      type: "constant"
      value: 1
    }
  }
}
layer {
  name: "relu7"
  type: "ReLU"
  bottom: "fc7"
  top: "fc7"
}
layer {
  name: "drop7"
  type: "Dropout"
  bottom: "fc7"
  top: "fc7"
  dropout_param {
    dropout_ratio: 0.7
  }
}
layer {
  name: "fc8_category"
  type: "InnerProduct"
  bottom: "fc7"
  top: "fc8_category"
  param {
    lr_mult: 1
    decay_mult: 1
  }
  param {
    lr_mult: 2
    decay_mult: 0
  }
  inner_product_param {
    num_output: 28
    weight_filler {
      type: "gaussian"
      std: 0.01
    }
    bias_filler {
      type: "constant"
      value: 0
    }
  }
}
layer {
  name: "loss_category"
  type: "SoftmaxWithPerClassLoss"
  bottom: "fc8_category"
  bottom: "label_category"
  top: "loss_category"
  top: "prob_category"
  loss_weight: 1
  loss_weight: 0
  loss_param {
    ignore_label: 0
    normalize: true
    classifier_info_file: "models/yq_fk7/info_category.txt"
    class_specific_lr: false
  }
}
layer {
  name: "accuracy_category"
  type: "PerClassAccuracy"
  bottom: "prob_category"
  bottom: "label_category"
  bottom: "label_pid"
  per_class_accuracy_param {
    ignore_label: 0
    classifier_info_file: "models/yq_fk7/info_category.txt"
    confusion_matrix_file: "models/yq_fk7/conf_category"
    confusion_id_file: "models/yq_fk7/conf_id_category"
    use_hierarchy: true
    num_grades: 20
  }
}
I0521 07:07:57.563321 15680 layer_factory.hpp:74] Creating layer data
I0521 07:07:57.563361 15680 net.cpp:84] Creating Layer data
…
I0521 07:07:57.718333 15680 image_data_multclass_layer.cpp:66] Label: 73412
I0521 07:07:57.718341 15680 image_data_multclass_layer.cpp:66] Label: 16
I0521 07:07:57.718349 15680 image_data_multclass_layer.cpp:78] ##############################################
I0521 07:07:57.718358 15680 image_data_multclass_layer.cpp:79] ##############################################
I0521 07:07:57.718368 15680 image_data_multclass_layer.cpp:80] size of top: 3
I0521 07:07:57.724385 15680 image_data_multclass_layer.cpp:98] output data size: 50,3,227,227
I0521 07:07:57.724413 15680 image_data_multclass_layer.cpp:102] number of labels: 2
I0521 07:07:57.732089 15680 net.cpp:120] Top shape: 50 3 227 227 (7729350)
I0521 07:07:57.732138 15680 net.cpp:120] Top shape: 50 (50)
I0521 07:07:57.732151 15680 net.cpp:120] Top shape: 50 (50)
I0521 07:07:57.732166 15680 layer_factory.hpp:74] Creating layer label_category_data_2_split
I0521 07:07:57.732189 15680 net.cpp:84] Creating Layer label_category_data_2_split
I0521 07:07:57.732244 15680 net.cpp:380] label_category_data_2_split <- label_category
I0521 07:07:57.732266 15680 net.cpp:338] label_category_data_2_split -> label_category_data_2_split_0
I0521 07:07:57.732286 15680 net.cpp:338] label_category_data_2_split -> label_category_data_2_split_1
I0521 07:07:57.732300 15680 net.cpp:113] Setting up label_category_data_2_split
I0521 07:07:57.732317 15680 net.cpp:120] Top shape: 50 (50)
I0521 07:07:57.732328 15680 net.cpp:120] Top shape: 50 (50)
I0521 07:07:57.732337 15680 layer_factory.hpp:74] Creating layer conv1
I0521 07:07:57.732357 15680 net.cpp:84] Creating Layer conv1
I0521 07:07:57.732373 15680 net.cpp:380] conv1 <- data
I0521 07:07:57.732388 15680 net.cpp:338] conv1 -> conv1
I0521 07:07:57.732405 15680 net.cpp:113] Setting up conv1
I0521 07:07:57.733592 15680 net.cpp:120] Top shape: 50 96 55 55 (14520000)
I0521 07:07:57.733633 15680 layer_factory.hpp:74] Creating layer relu1
I0521 07:07:57.733655 15680 net.cpp:84] Creating Layer relu1
I0521 07:07:57.733666 15680 net.cpp:380] relu1 <- conv1
I0521 07:07:57.733677 15680 net.cpp:327] relu1 -> conv1 (in-place)
I0521 07:07:57.733690 15680 net.cpp:113] Setting up relu1
I0521 07:07:57.733703 15680 net.cpp:120] Top shape: 50 96 55 55 (14520000)
I0521 07:07:57.733713 15680 layer_factory.hpp:74] Creating layer pool1
I0521 07:07:57.733727 15680 net.cpp:84] Creating Layer pool1
I0521 07:07:57.733736 15680 net.cpp:380] pool1 <- conv1
I0521 07:07:57.733748 15680 net.cpp:338] pool1 -> pool1
I0521 07:07:57.733768 15680 net.cpp:113] Setting up pool1
I0521 07:07:57.733827 15680 net.cpp:120] Top shape: 50 96 27 27 (3499200)
I0521 07:07:57.733846 15680 layer_factory.hpp:74] Creating layer norm1
I0521 07:07:57.733862 15680 net.cpp:84] Creating Layer norm1
I0521 07:07:57.733872 15680 net.cpp:380] norm1 <- pool1
I0521 07:07:57.733885 15680 net.cpp:338] norm1 -> norm1
I0521 07:07:57.733906 15680 net.cpp:113] Setting up norm1
I0521 07:07:57.733922 15680 net.cpp:120] Top shape: 50 96 27 27 (3499200)
I0521 07:07:57.733932 15680 layer_factory.hpp:74] Creating layer conv2
I0521 07:07:57.733945 15680 net.cpp:84] Creating Layer conv2
I0521 07:07:57.733954 15680 net.cpp:380] conv2 <- norm1
I0521 07:07:57.733968 15680 net.cpp:338] conv2 -> conv2
I0521 07:07:57.733980 15680 net.cpp:113] Setting up conv2
I0521 07:07:57.743791 15680 net.cpp:120] Top shape: 50 256 27 27 (9331200)
I0521 07:07:57.743820 15680 layer_factory.hpp:74] Creating layer relu2
I0521 07:07:57.743834 15680 net.cpp:84] Creating Layer relu2
I0521 07:07:57.743844 15680 net.cpp:380] relu2 <- conv2
I0521 07:07:57.743856 15680 net.cpp:327] relu2 -> conv2 (in-place)
I0521 07:07:57.743868 15680 net.cpp:113] Setting up relu2
I0521 07:07:57.743880 15680 net.cpp:120] Top shape: 50 256 27 27 (9331200)
I0521 07:07:57.743896 15680 layer_factory.hpp:74] Creating layer pool2
I0521 07:07:57.743918 15680 net.cpp:84] Creating Layer pool2
I0521 07:07:57.743932 15680 net.cpp:380] pool2 <- conv2
I0521 07:07:57.743945 15680 net.cpp:338] pool2 -> pool2
I0521 07:07:57.743957 15680 net.cpp:113] Setting up pool2
I0521 07:07:57.743971 15680 net.cpp:120] Top shape: 50 256 13 13 (2163200)
I0521 07:07:57.743988 15680 layer_factory.hpp:74] Creating layer norm2
I0521 07:07:57.744001 15680 net.cpp:84] Creating Layer norm2
I0521 07:07:57.744011 15680 net.cpp:380] norm2 <- pool2
I0521 07:07:57.744024 15680 net.cpp:338] norm2 -> norm2
I0521 07:07:57.744035 15680 net.cpp:113] Setting up norm2
I0521 07:07:57.744047 15680 net.cpp:120] Top shape: 50 256 13 13 (2163200)
I0521 07:07:57.744056 15680 layer_factory.hpp:74] Creating layer conv3
I0521 07:07:57.744070 15680 net.cpp:84] Creating Layer conv3
I0521 07:07:57.744079 15680 net.cpp:380] conv3 <- norm2
I0521 07:07:57.744091 15680 net.cpp:338] conv3 -> conv3
I0521 07:07:57.744103 15680 net.cpp:113] Setting up conv3
I0521 07:07:57.772984 15680 net.cpp:120] Top shape: 50 384 13 13 (3244800)
I0521 07:07:57.773020 15680 layer_factory.hpp:74] Creating layer relu3
I0521 07:07:57.773037 15680 net.cpp:84] Creating Layer relu3
I0521 07:07:57.773072 15680 net.cpp:380] relu3 <- conv3
I0521 07:07:57.773087 15680 net.cpp:327] relu3 -> conv3 (in-place)
I0521 07:07:57.773102 15680 net.cpp:113] Setting up relu3
I0521 07:07:57.773114 15680 net.cpp:120] Top shape: 50 384 13 13 (3244800)
I0521 07:07:57.773124 15680 layer_factory.hpp:74] Creating layer conv4
I0521 07:07:57.773140 15680 net.cpp:84] Creating Layer conv4
I0521 07:07:57.773149 15680 net.cpp:380] conv4 <- conv3
I0521 07:07:57.773164 15680 net.cpp:338] conv4 -> conv4
I0521 07:07:57.773177 15680 net.cpp:113] Setting up conv4
I0521 07:07:57.795166 15680 net.cpp:120] Top shape: 50 384 13 13 (3244800)
I0521 07:07:57.795197 15680 layer_factory.hpp:74] Creating layer relu4
I0521 07:07:57.795210 15680 net.cpp:84] Creating Layer relu4
I0521 07:07:57.795222 15680 net.cpp:380] relu4 <- conv4
I0521 07:07:57.795235 15680 net.cpp:327] relu4 -> conv4 (in-place)
I0521 07:07:57.795248 15680 net.cpp:113] Setting up relu4
I0521 07:07:57.795258 15680 net.cpp:120] Top shape: 50 384 13 13 (3244800)
I0521 07:07:57.795267 15680 layer_factory.hpp:74] Creating layer conv5
I0521 07:07:57.795280 15680 net.cpp:84] Creating Layer conv5
I0521 07:07:57.795290 15680 net.cpp:380] conv5 <- conv4
I0521 07:07:57.795305 15680 net.cpp:338] conv5 -> conv5
I0521 07:07:57.795336 15680 net.cpp:113] Setting up conv5
I0521 07:07:57.810017 15680 net.cpp:120] Top shape: 50 256 13 13 (2163200)
I0521 07:07:57.810047 15680 layer_factory.hpp:74] Creating layer relu5
I0521 07:07:57.810060 15680 net.cpp:84] Creating Layer relu5
I0521 07:07:57.810071 15680 net.cpp:380] relu5 <- conv5
I0521 07:07:57.810086 15680 net.cpp:327] relu5 -> conv5 (in-place)
I0521 07:07:57.810098 15680 net.cpp:113] Setting up relu5
I0521 07:07:57.810109 15680 net.cpp:120] Top shape: 50 256 13 13 (2163200)
I0521 07:07:57.810119 15680 layer_factory.hpp:74] Creating layer pool5
I0521 07:07:57.810134 15680 net.cpp:84] Creating Layer pool5
I0521 07:07:57.810153 15680 net.cpp:380] pool5 <- conv5
I0521 07:07:57.810168 15680 net.cpp:338] pool5 -> pool5
I0521 07:07:57.810181 15680 net.cpp:113] Setting up pool5
I0521 07:07:57.810196 15680 net.cpp:120] Top shape: 50 256 6 6 (460800)
I0521 07:07:57.810206 15680 layer_factory.hpp:74] Creating layer fc6
I0521 07:07:57.810220 15680 net.cpp:84] Creating Layer fc6
I0521 07:07:57.810228 15680 net.cpp:380] fc6 <- pool5
I0521 07:07:57.810242 15680 net.cpp:338] fc6 -> fc6
I0521 07:07:57.810261 15680 net.cpp:113] Setting up fc6
I0521 07:07:59.029288 15680 net.cpp:120] Top shape: 50 4096 (204800)
I0521 07:07:59.029348 15680 layer_factory.hpp:74] Creating layer relu6
I0521 07:07:59.029371 15680 net.cpp:84] Creating Layer relu6
I0521 07:07:59.029381 15680 net.cpp:380] relu6 <- fc6
I0521 07:07:59.029397 15680 net.cpp:327] relu6 -> fc6 (in-place)
I0521 07:07:59.029412 15680 net.cpp:113] Setting up relu6
I0521 07:07:59.029424 15680 net.cpp:120] Top shape: 50 4096 (204800)
I0521 07:07:59.029433 15680 layer_factory.hpp:74] Creating layer drop6
I0521 07:07:59.029453 15680 net.cpp:84] Creating Layer drop6
I0521 07:07:59.029463 15680 net.cpp:380] drop6 <- fc6
I0521 07:07:59.029472 15680 net.cpp:327] drop6 -> fc6 (in-place)
I0521 07:07:59.029489 15680 net.cpp:113] Setting up drop6
I0521 07:07:59.029505 15680 net.cpp:120] Top shape: 50 4096 (204800)
I0521 07:07:59.029515 15680 layer_factory.hpp:74] Creating layer fc7
I0521 07:07:59.029532 15680 net.cpp:84] Creating Layer fc7
I0521 07:07:59.029542 15680 net.cpp:380] fc7 <- fc6
I0521 07:07:59.029554 15680 net.cpp:338] fc7 -> fc7
I0521 07:07:59.029572 15680 net.cpp:113] Setting up fc7
I0521 07:07:59.571066 15680 net.cpp:120] Top shape: 50 4096 (204800)
I0521 07:07:59.571125 15680 layer_factory.hpp:74] Creating layer relu7
I0521 07:07:59.571146 15680 net.cpp:84] Creating Layer relu7
I0521 07:07:59.571157 15680 net.cpp:380] relu7 <- fc7
I0521 07:07:59.571174 15680 net.cpp:327] relu7 -> fc7 (in-place)
I0521 07:07:59.571192 15680 net.cpp:113] Setting up relu7
I0521 07:07:59.571203 15680 net.cpp:120] Top shape: 50 4096 (204800)
I0521 07:07:59.571213 15680 layer_factory.hpp:74] Creating layer drop7
I0521 07:07:59.571226 15680 net.cpp:84] Creating Layer drop7
I0521 07:07:59.571275 15680 net.cpp:380] drop7 <- fc7
I0521 07:07:59.571288 15680 net.cpp:327] drop7 -> fc7 (in-place)
I0521 07:07:59.571300 15680 net.cpp:113] Setting up drop7
I0521 07:07:59.571313 15680 net.cpp:120] Top shape: 50 4096 (204800)
I0521 07:07:59.571323 15680 layer_factory.hpp:74] Creating layer fc8_category
I0521 07:07:59.571341 15680 net.cpp:84] Creating Layer fc8_category
I0521 07:07:59.571351 15680 net.cpp:380] fc8_category <- fc7
I0521 07:07:59.571363 15680 net.cpp:338] fc8_category -> fc8_category
I0521 07:07:59.571378 15680 net.cpp:113] Setting up fc8_category
I0521 07:07:59.575194 15680 net.cpp:120] Top shape: 50 28 (1400)
I0521 07:07:59.575222 15680 layer_factory.hpp:74] Creating layer loss_category
I0521 07:07:59.575243 15680 net.cpp:84] Creating Layer loss_category
I0521 07:07:59.575256 15680 net.cpp:380] loss_category <- fc8_category
I0521 07:07:59.575268 15680 net.cpp:380] loss_category <- label_category_data_2_split_0
I0521 07:07:59.575280 15680 net.cpp:338] loss_category -> loss_category
I0521 07:07:59.575299 15680 net.cpp:338] loss_category -> prob_category
I0521 07:07:59.575320 15680 net.cpp:113] Setting up loss_category
I0521 07:07:59.575340 15680 layer_factory.hpp:74] Creating layer loss_category
I0521 07:07:59.575366 15680 softmax_perclass_loss.cpp:36] loss has ignore_label: 0
I0521 07:07:59.575384 15680 softmax_perclass_loss.cpp:46] Opening file models/yq_fk7/info_category.txt
I0521 07:07:59.575531 15680 net.cpp:120] Top shape: (1)
I0521 07:07:59.575551 15680 net.cpp:122]     with loss weight 1
I0521 07:07:59.575595 15680 net.cpp:120] Top shape: 50 28 (1400)
I0521 07:07:59.575605 15680 layer_factory.hpp:74] Creating layer accuracy_category
I0521 07:07:59.575623 15680 net.cpp:84] Creating Layer accuracy_category
I0521 07:07:59.575634 15680 net.cpp:380] accuracy_category <- prob_category
I0521 07:07:59.575645 15680 net.cpp:380] accuracy_category <- label_category_data_2_split_1
I0521 07:07:59.575659 15680 net.cpp:380] accuracy_category <- label_pid
…
