…
state {
  phase: TRAIN
}
layer {
  name: "data"
  type: "ImageDataMultLabel"
  top: "data"
  top: "label_category"
  top: "label_pattern"
  top: "label_neck"
  top: "label_sleeve"
  top: "label_fit"
  top: "label_ideal_for"
  top: "label_occasion"
  include {
    phase: TRAIN
  }
  transform_param {
    mirror: true
    crop_size: 227
    mean_file: "data/ilsvrc12/imagenet_mean.binaryproto"
  }
  image_data_mult_label_param {
    source: "/mnt/images/training/flipkart_yq2set/train.txt"
    batch_size: 50
    new_height: 256
    new_width: 256
  }
}
layer {
  name: "conv1"
  type: "Convolution"
  bottom: "data"
  top: "conv1"
  param {
    lr_mult: 1
    decay_mult: 1
  }
  param {
    lr_mult: 2
    decay_mult: 0
  }
  convolution_param {
    num_output: 96
    kernel_size: 11
    stride: 4
    weight_filler {
      type: "gaussian"
      std: 0.01
    }
    bias_filler {
      type: "constant"
      value: 0
    }
  }
}
layer {
  name: "relu1"
  type: "ReLU"
  bottom: "conv1"
  top: "conv1"
}
layer {
  name: "pool1"
  type: "Pooling"
  bottom: "conv1"
  top: "pool1"
  pooling_param {
    pool: MAX
    kernel_size: 3
    stride: 2
  }
}
layer {
  name: "norm1"
  type: "LRN"
  bottom: "pool1"
  top: "norm1"
  lrn_param {
    local_size: 5
    alpha: 0.0001
    beta: 0.75
  }
}
layer {
  name: "conv2"
  type: "Convolution"
  bottom: "norm1"
  top: "conv2"
  param {
    lr_mult: 1
    decay_mult: 1
  }
  param {
    lr_mult: 2
    decay_mult: 0
  }
  convolution_param {
    num_output: 256
    pad: 2
    kernel_size: 5
    group: 2
    weight_filler {
      type: "gaussian"
      std: 0.01
    }
    bias_filler {
      type: "constant"
      value: 1
    }
  }
}
layer {
  name: "relu2"
  type: "ReLU"
  bottom: "conv2"
  top: "conv2"
}
layer {
  name: "pool2"
  type: "Pooling"
  bottom: "conv2"
  top: "pool2"
  pooling_param {
    pool: MAX
    kernel_size: 3
    stride: 2
  }
}
layer {
  name: "norm2"
  type: "LRN"
  bottom: "pool2"
  top: "norm2"
  lrn_param {
    local_size: 5
    alpha: 0.0001
    beta: 0.75
  }
}
layer {
  name: "conv3"
  type: "Convolution"
  bottom: "norm2"
  top: "conv3"
  param {
    lr_mult: 1
    decay_mult: 1
  }
  param {
    lr_mult: 2
    decay_mult: 0
  }
  convolution_param {
    num_output: 384
    pad: 1
    kernel_size: 3
    weight_filler {
      type: "gaussian"
      std: 0.01
    }
    bias_filler {
      type: "constant"
      value: 0
    }
  }
}
layer {
  name: "relu3"
  type: "ReLU"
  bottom: "conv3"
  top: "conv3"
}
layer {
  name: "conv4"
  type: "Convolution"
  bottom: "conv3"
  top: "conv4"
  param {
    lr_mult: 1
    decay_mult: 1
  }
  param {
    lr_mult: 2
    decay_mult: 0
  }
  convolution_param {
    num_output: 384
    pad: 1
    kernel_size: 3
    group: 2
    weight_filler {
      type: "gaussian"
      std: 0.01
    }
    bias_filler {
      type: "constant"
      value: 1
    }
  }
}
layer {
  name: "relu4"
  type: "ReLU"
  bottom: "conv4"
  top: "conv4"
}
layer {
  name: "conv5"
  type: "Convolution"
  bottom: "conv4"
  top: "conv5"
  param {
    lr_mult: 1
    decay_mult: 1
  }
  param {
    lr_mult: 2
    decay_mult: 0
  }
  convolution_param {
    num_output: 256
    pad: 1
    kernel_size: 3
    group: 2
    weight_filler {
      type: "gaussian"
      std: 0.01
    }
    bias_filler {
      type: "constant"
      value: 1
    }
  }
}
layer {
  name: "relu5"
  type: "ReLU"
  bottom: "conv5"
  top: "conv5"
}
layer {
  name: "pool5"
  type: "Pooling"
  bottom: "conv5"
  top: "pool5"
  pooling_param {
    pool: MAX
    kernel_size: 3
    stride: 2
  }
}
layer {
  name: "fc6"
  type: "InnerProduct"
  bottom: "pool5"
  top: "fc6"
  param {
    lr_mult: 1
    decay_mult: 1
  }
  param {
    lr_mult: 2
    decay_mult: 0
  }
  inner_product_param {
    num_output: 4096
    weight_filler {
      type: "gaussian"
      std: 0.005
    }
    bias_filler {
      type: "constant"
      value: 1
    }
  }
}
layer {
  name: "relu6"
  type: "ReLU"
  bottom: "fc6"
  top: "fc6"
}
layer {
  name: "drop6"
  type: "Dropout"
  bottom: "fc6"
  top: "fc6"
  dropout_param {
    dropout_ratio: 0.5
  }
}
layer {
  name: "fc7"
  type: "InnerProduct"
  bottom: "fc6"
  top: "fc7"
  param {
    lr_mult: 4
    decay_mult: 1
  }
  param {
    lr_mult: 8
    decay_mult: 0
  }
  inner_product_param {
    num_output: 4096
    weight_filler {
      type: "gaussian"
      std: 0.005
    }
    bias_filler {
      type: "constant"
      value: 1
    }
  }
}
layer {
  name: "relu7"
  type: "ReLU"
  bottom: "fc7"
  top: "fc7"
}
layer {
  name: "drop7"
  type: "Dropout"
  bottom: "fc7"
  top: "fc7"
  dropout_param {
    dropout_ratio: 0.5
  }
}
layer {
  name: "fc8_category"
  type: "InnerProduct"
  bottom: "fc7"
  top: "fc8_category"
  param {
    lr_mult: 10
    decay_mult: 1
  }
  param {
    lr_mult: 20
    decay_mult: 0
  }
  inner_product_param {
    num_output: 26
    weight_filler {
      type: "gaussian"
      std: 0.01
    }
    bias_filler {
      type: "constant"
      value: 0
    }
  }
}
layer {
  name: "loss_category"
  type: "SoftmaxWithLoss"
  bottom: "fc8_category"
  bottom: "label_category"
}
layer {
  name: "fc8_pattern"
  type: "InnerProduct"
  bottom: "fc7"
  top: "fc8_pattern"
  param {
    lr_mult: 10
    decay_mult: 1
  }
  param {
    lr_mult: 20
    decay_mult: 0
  }
  inner_product_param {
    num_output: 20
    weight_filler {
      type: "gaussian"
      std: 0.01
    }
    bias_filler {
      type: "constant"
      value: 0
    }
  }
}
layer {
  name: "loss_pattern"
  type: "SoftmaxWithLoss"
  bottom: "fc8_pattern"
  bottom: "label_pattern"
  loss_param {
    ignore_label: 0
  }
}
layer {
  name: "fc8_neck"
  type: "InnerProduct"
  bottom: "fc7"
  top: "fc8_neck"
  param {
    lr_mult: 10
    decay_mult: 1
  }
  param {
    lr_mult: 20
    decay_mult: 0
  }
  inner_product_param {
    num_output: 23
    weight_filler {
      type: "gaussian"
      std: 0.01
    }
    bias_filler {
      type: "constant"
      value: 0
    }
  }
}
layer {
  name: "loss_neck"
  type: "SoftmaxWithLoss"
  bottom: "fc8_neck"
  bottom: "label_neck"
  loss_param {
    ignore_label: 0
  }
}
layer {
  name: "fc8_sleeve"
  type: "InnerProduct"
  bottom: "fc7"
  top: "fc8_sleeve"
  param {
    lr_mult: 10
    decay_mult: 1
  }
  param {
    lr_mult: 20
    decay_mult: 0
  }
  inner_product_param {
    num_output: 9
    weight_filler {
      type: "gaussian"
      std: 0.01
    }
    bias_filler {
      type: "constant"
      value: 0
    }
  }
}
layer {
  name: "loss_sleeve"
  type: "SoftmaxWithLoss"
  bottom: "fc8_sleeve"
  bottom: "label_sleeve"
  loss_param {
    ignore_label: 0
  }
}
layer {
  name: "fc8_fit"
  type: "InnerProduct"
  bottom: "fc7"
  top: "fc8_fit"
  param {
    lr_mult: 10
    decay_mult: 1
  }
  param {
    lr_mult: 20
    decay_mult: 0
  }
  inner_product_param {
    num_output: 26
    weight_filler {
      type: "gaussian"
      std: 0.01
    }
    bias_filler {
      type: "constant"
      value: 0
    }
  }
}
layer {
  name: "loss_fit"
  type: "SoftmaxWithLoss"
  bottom: "fc8_fit"
  bottom: "label_fit"
  loss_param {
    ignore_label: 0
  }
}
layer {
  name: "fc8_ideal_for"
  type: "InnerProduct"
  bottom: "fc7"
  top: "fc8_ideal_for"
  param {
    lr_mult: 10
    decay_mult: 1
  }
  param {
    lr_mult: 20
    decay_mult: 0
  }
  inner_product_param {
    num_output: 7
    weight_filler {
      type: "gaussian"
      std: 0.01
    }
    bias_filler {
      type: "constant"
      value: 0
    }
  }
}
layer {
  name: "loss_ideal_for"
  type: "SoftmaxWithLoss"
  bottom: "fc8_ideal_for"
  bottom: "label_ideal_for"
  loss_param {
    ignore_label: 0
  }
}
layer {
  name: "fc8_occasion"
  type: "InnerProduct"
  bottom: "fc7"
  top: "fc8_occasion"
  param {
    lr_mult: 10
    decay_mult: 1
  }
  param {
    lr_mult: 20
    decay_mult: 0
  }
  inner_product_param {
    num_output: 38
    weight_filler {
      type: "gaussian"
      std: 0.01
    }
    bias_filler {
      type: "constant"
      value: 0
    }
  }
}
layer {
  name: "loss_occasion"
  type: "SoftmaxWithLoss"
  bottom: "fc8_occasion"
  bottom: "label_occasion"
  loss_param {
    ignore_label: 0
  }
}
I0502 00:40:49.394959 25168 layer_factory.hpp:74] Creating layer data
I0502 00:40:49.395014 25168 net.cpp:84] Creating Layer data
I0502 00:40:49.395042 25168 net.cpp:338] data -> data
I0502 00:40:49.395092 25168 net.cpp:338] data -> label_category
I0502 00:40:49.395124 25168 net.cpp:338] data -> label_pattern
I0502 00:40:49.395153 25168 net.cpp:338] data -> label_neck
…
I0502 00:40:49.675858 25168 image_data_multclass_layer.cpp:75] ##############################################
I0502 00:40:49.675868 25168 image_data_multclass_layer.cpp:76] ##############################################
I0502 00:40:49.675878 25168 image_data_multclass_layer.cpp:77] size of top: 8
I0502 00:40:49.682972 25168 image_data_multclass_layer.cpp:95] output data size: 50,3,227,227
I0502 00:40:49.683008 25168 image_data_multclass_layer.cpp:99] number of labels: 7
I0502 00:40:49.683061 25168 data_transformer.cpp:22] Loading mean file from: data/ilsvrc12/imagenet_mean.binaryproto
I0502 00:40:49.693927 25168 net.cpp:120] Top shape: 50 3 227 227 (7729350)
I0502 00:40:49.693979 25168 net.cpp:120] Top shape: 50 (50)
I0502 00:40:49.693994 25168 net.cpp:120] Top shape: 50 (50)
I0502 00:40:49.694006 25168 net.cpp:120] Top shape: 50 (50)
I0502 00:40:49.694018 25168 net.cpp:120] Top shape: 50 (50)
I0502 00:40:49.694067 25168 net.cpp:120] Top shape: 50 (50)
I0502 00:40:49.694079 25168 net.cpp:120] Top shape: 50 (50)
I0502 00:40:49.694092 25168 net.cpp:120] Top shape: 50 (50)
I0502 00:40:49.694108 25168 layer_factory.hpp:74] Creating layer conv1
I0502 00:40:49.694144 25168 net.cpp:84] Creating Layer conv1
I0502 00:40:49.694160 25168 net.cpp:380] conv1 <- data
I0502 00:40:49.694186 25168 net.cpp:338] conv1 -> conv1
I0502 00:40:49.694216 25168 net.cpp:113] Setting up conv1
I0502 00:40:49.695626 25168 net.cpp:120] Top shape: 50 96 55 55 (14520000)
I0502 00:40:49.695668 25168 layer_factory.hpp:74] Creating layer relu1
I0502 00:40:49.695688 25168 net.cpp:84] Creating Layer relu1
I0502 00:40:49.695699 25168 net.cpp:380] relu1 <- conv1
I0502 00:40:49.695713 25168 net.cpp:327] relu1 -> conv1 (in-place)
I0502 00:40:49.695727 25168 net.cpp:113] Setting up relu1
I0502 00:40:49.695755 25168 net.cpp:120] Top shape: 50 96 55 55 (14520000)
I0502 00:40:49.695766 25168 layer_factory.hpp:74] Creating layer pool1
I0502 00:40:49.695782 25168 net.cpp:84] Creating Layer pool1
I0502 00:40:49.695794 25168 net.cpp:380] pool1 <- conv1
I0502 00:40:49.695808 25168 net.cpp:338] pool1 -> pool1
I0502 00:40:49.695827 25168 net.cpp:113] Setting up pool1
I0502 00:40:49.695857 25168 net.cpp:120] Top shape: 50 96 27 27 (3499200)
I0502 00:40:49.695878 25168 layer_factory.hpp:74] Creating layer norm1
I0502 00:40:49.695902 25168 net.cpp:84] Creating Layer norm1
I0502 00:40:49.695915 25168 net.cpp:380] norm1 <- pool1
I0502 00:40:49.695929 25168 net.cpp:338] norm1 -> norm1
I0502 00:40:49.695950 25168 net.cpp:113] Setting up norm1
I0502 00:40:49.695971 25168 net.cpp:120] Top shape: 50 96 27 27 (3499200)
I0502 00:40:49.695991 25168 layer_factory.hpp:74] Creating layer conv2
I0502 00:40:49.696007 25168 net.cpp:84] Creating Layer conv2
I0502 00:40:49.696023 25168 net.cpp:380] conv2 <- norm1
I0502 00:40:49.696043 25168 net.cpp:338] conv2 -> conv2
I0502 00:40:49.696058 25168 net.cpp:113] Setting up conv2
I0502 00:40:49.707516 25168 net.cpp:120] Top shape: 50 256 27 27 (9331200)
I0502 00:40:49.707569 25168 layer_factory.hpp:74] Creating layer relu2
I0502 00:40:49.707590 25168 net.cpp:84] Creating Layer relu2
I0502 00:40:49.707604 25168 net.cpp:380] relu2 <- conv2
I0502 00:40:49.707622 25168 net.cpp:327] relu2 -> conv2 (in-place)
I0502 00:40:49.707638 25168 net.cpp:113] Setting up relu2
I0502 00:40:49.707653 25168 net.cpp:120] Top shape: 50 256 27 27 (9331200)
I0502 00:40:49.707675 25168 layer_factory.hpp:74] Creating layer pool2
I0502 00:40:49.707692 25168 net.cpp:84] Creating Layer pool2
I0502 00:40:49.707703 25168 net.cpp:380] pool2 <- conv2
I0502 00:40:49.707717 25168 net.cpp:338] pool2 -> pool2
I0502 00:40:49.707733 25168 net.cpp:113] Setting up pool2
I0502 00:40:49.707751 25168 net.cpp:120] Top shape: 50 256 13 13 (2163200)
I0502 00:40:49.707762 25168 layer_factory.hpp:74] Creating layer norm2
I0502 00:40:49.707782 25168 net.cpp:84] Creating Layer norm2
I0502 00:40:49.707803 25168 net.cpp:380] norm2 <- pool2
I0502 00:40:49.707818 25168 net.cpp:338] norm2 -> norm2
I0502 00:40:49.707833 25168 net.cpp:113] Setting up norm2
I0502 00:40:49.707849 25168 net.cpp:120] Top shape: 50 256 13 13 (2163200)
I0502 00:40:49.707860 25168 layer_factory.hpp:74] Creating layer conv3
I0502 00:40:49.707877 25168 net.cpp:84] Creating Layer conv3
I0502 00:40:49.707888 25168 net.cpp:380] conv3 <- norm2
I0502 00:40:49.707903 25168 net.cpp:338] conv3 -> conv3
I0502 00:40:49.707919 25168 net.cpp:113] Setting up conv3
I0502 00:40:49.741672 25168 net.cpp:120] Top shape: 50 384 13 13 (3244800)
I0502 00:40:49.741729 25168 layer_factory.hpp:74] Creating layer relu3
I0502 00:40:49.741752 25168 net.cpp:84] Creating Layer relu3
I0502 00:40:49.741765 25168 net.cpp:380] relu3 <- conv3
I0502 00:40:49.741782 25168 net.cpp:327] relu3 -> conv3 (in-place)
I0502 00:40:49.741798 25168 net.cpp:113] Setting up relu3
I0502 00:40:49.741812 25168 net.cpp:120] Top shape: 50 384 13 13 (3244800)
I0502 00:40:49.741823 25168 layer_factory.hpp:74] Creating layer conv4
I0502 00:40:49.741840 25168 net.cpp:84] Creating Layer conv4
I0502 00:40:49.741893 25168 net.cpp:380] conv4 <- conv3
I0502 00:40:49.741911 25168 net.cpp:338] conv4 -> conv4
I0502 00:40:49.741930 25168 net.cpp:113] Setting up conv4
I0502 00:40:49.767464 25168 net.cpp:120] Top shape: 50 384 13 13 (3244800)
I0502 00:40:49.767509 25168 layer_factory.hpp:74] Creating layer relu4
I0502 00:40:49.767529 25168 net.cpp:84] Creating Layer relu4
I0502 00:40:49.767544 25168 net.cpp:380] relu4 <- conv4
I0502 00:40:49.767560 25168 net.cpp:327] relu4 -> conv4 (in-place)
I0502 00:40:49.767575 25168 net.cpp:113] Setting up relu4
I0502 00:40:49.767590 25168 net.cpp:120] Top shape: 50 384 13 13 (3244800)
I0502 00:40:49.767601 25168 layer_factory.hpp:74] Creating layer conv5
I0502 00:40:49.767617 25168 net.cpp:84] Creating Layer conv5
I0502 00:40:49.767627 25168 net.cpp:380] conv5 <- conv4
I0502 00:40:49.767644 25168 net.cpp:338] conv5 -> conv5
I0502 00:40:49.767673 25168 net.cpp:113] Setting up conv5
I0502 00:40:49.784708 25168 net.cpp:120] Top shape: 50 256 13 13 (2163200)
I0502 00:40:49.784767 25168 layer_factory.hpp:74] Creating layer relu5
I0502 00:40:49.784791 25168 net.cpp:84] Creating Layer relu5
I0502 00:40:49.784804 25168 net.cpp:380] relu5 <- conv5
I0502 00:40:49.784821 25168 net.cpp:327] relu5 -> conv5 (in-place)
I0502 00:40:49.784838 25168 net.cpp:113] Setting up relu5
I0502 00:40:49.784853 25168 net.cpp:120] Top shape: 50 256 13 13 (2163200)
I0502 00:40:49.784865 25168 layer_factory.hpp:74] Creating layer pool5
I0502 00:40:49.784880 25168 net.cpp:84] Creating Layer pool5
I0502 00:40:49.784891 25168 net.cpp:380] pool5 <- conv5
I0502 00:40:49.784909 25168 net.cpp:338] pool5 -> pool5
I0502 00:40:49.784934 25168 net.cpp:113] Setting up pool5
I0502 00:40:49.784952 25168 net.cpp:120] Top shape: 50 256 6 6 (460800)
I0502 00:40:49.784963 25168 layer_factory.hpp:74] Creating layer fc6
I0502 00:40:49.784983 25168 net.cpp:84] Creating Layer fc6
I0502 00:40:49.784994 25168 net.cpp:380] fc6 <- pool5
I0502 00:40:49.785009 25168 net.cpp:338] fc6 -> fc6
I0502 00:40:49.785032 25168 net.cpp:113] Setting up fc6
I0502 00:40:51.202776 25168 net.cpp:120] Top shape: 50 4096 (204800)
I0502 00:40:51.202860 25168 layer_factory.hpp:74] Creating layer relu6
I0502 00:40:51.202883 25168 net.cpp:84] Creating Layer relu6
I0502 00:40:51.202896 25168 net.cpp:380] relu6 <- fc6
I0502 00:40:51.202914 25168 net.cpp:327] relu6 -> fc6 (in-place)
I0502 00:40:51.202931 25168 net.cpp:113] Setting up relu6
I0502 00:40:51.202946 25168 net.cpp:120] Top shape: 50 4096 (204800)
I0502 00:40:51.202957 25168 layer_factory.hpp:74] Creating layer drop6
I0502 00:40:51.202986 25168 net.cpp:84] Creating Layer drop6
I0502 00:40:51.203006 25168 net.cpp:380] drop6 <- fc6
I0502 00:40:51.203022 25168 net.cpp:327] drop6 -> fc6 (in-place)
I0502 00:40:51.203040 25168 net.cpp:113] Setting up drop6
I0502 00:40:51.203063 25168 net.cpp:120] Top shape: 50 4096 (204800)
I0502 00:40:51.203075 25168 layer_factory.hpp:74] Creating layer fc7
I0502 00:40:51.203093 25168 net.cpp:84] Creating Layer fc7
I0502 00:40:51.203104 25168 net.cpp:380] fc7 <- fc6
I0502 00:40:51.203119 25168 net.cpp:338] fc7 -> fc7
I0502 00:40:51.203135 25168 net.cpp:113] Setting up fc7
I0502 00:40:51.831451 25168 net.cpp:120] Top shape: 50 4096 (204800)
I0502 00:40:51.831514 25168 layer_factory.hpp:74] Creating layer relu7
I0502 00:40:51.831538 25168 net.cpp:84] Creating Layer relu7
I0502 00:40:51.831552 25168 net.cpp:380] relu7 <- fc7
I0502 00:40:51.831569 25168 net.cpp:327] relu7 -> fc7 (in-place)
I0502 00:40:51.831586 25168 net.cpp:113] Setting up relu7
I0502 00:40:51.831600 25168 net.cpp:120] Top shape: 50 4096 (204800)
I0502 00:40:51.831611 25168 layer_factory.hpp:74] Creating layer drop7
I0502 00:40:51.831627 25168 net.cpp:84] Creating Layer drop7
I0502 00:40:51.831637 25168 net.cpp:380] drop7 <- fc7
I0502 00:40:51.831651 25168 net.cpp:327] drop7 -> fc7 (in-place)
I0502 00:40:51.831665 25168 net.cpp:113] Setting up drop7
I0502 00:40:51.831691 25168 net.cpp:120] Top shape: 50 4096 (204800)
I0502 00:40:51.831704 25168 layer_factory.hpp:74] Creating layer fc7_drop7_0_split
I0502 00:40:51.831770 25168 net.cpp:84] Creating Layer fc7_drop7_0_split
I0502 00:40:51.831794 25168 net.cpp:380] fc7_drop7_0_split <- fc7
I0502 00:40:51.831809 25168 net.cpp:338] fc7_drop7_0_split -> fc7_drop7_0_split_0
I0502 00:40:51.831827 25168 net.cpp:338] fc7_drop7_0_split -> fc7_drop7_0_split_1
I0502 00:40:51.831845 25168 net.cpp:338] fc7_drop7_0_split -> fc7_drop7_0_split_2
I0502 00:40:51.831861 25168 net.cpp:338] fc7_drop7_0_split -> fc7_drop7_0_split_3
I0502 00:40:51.831876 25168 net.cpp:338] fc7_drop7_0_split -> fc7_drop7_0_split_4
I0502 00:40:51.831892 25168 net.cpp:338] fc7_drop7_0_split -> fc7_drop7_0_split_5
I0502 00:40:51.831905 25168 net.cpp:338] fc7_drop7_0_split -> fc7_drop7_0_split_6
I0502 00:40:51.831919 25168 net.cpp:113] Setting up fc7_drop7_0_split
I0502 00:40:51.831940 25168 net.cpp:120] Top shape: 50 4096 (204800)
I0502 00:40:51.831954 25168 net.cpp:120] Top shape: 50 4096 (204800)
I0502 00:40:51.831966 25168 net.cpp:120] Top shape: 50 4096 (204800)
I0502 00:40:51.831977 25168 net.cpp:120] Top shape: 50 4096 (204800)
I0502 00:40:51.831990 25168 net.cpp:120] Top shape: 50 4096 (204800)
I0502 00:40:51.832001 25168 net.cpp:120] Top shape: 50 4096 (204800)
I0502 00:40:51.832012 25168 net.cpp:120] Top shape: 50 4096 (204800)
I0502 00:40:51.832023 25168 layer_factory.hpp:74] Creating layer fc8_category
I0502 00:40:51.832041 25168 net.cpp:84] Creating Layer fc8_category
I0502 00:40:51.832059 25168 net.cpp:380] fc8_category <- fc7_drop7_0_split_0
I0502 00:40:51.832077 25168 net.cpp:338] fc8_category -> fc8_category
I0502 00:40:51.832094 25168 net.cpp:113] Setting up fc8_category
I0502 00:40:51.836236 25168 net.cpp:120] Top shape: 50 26 (1300)
I0502 00:40:51.836267 25168 layer_factory.hpp:74] Creating layer loss_category
I0502 00:40:51.836287 25168 net.cpp:84] Creating Layer loss_category
I0502 00:40:51.836298 25168 net.cpp:380] loss_category <- fc8_category
I0502 00:40:51.836311 25168 net.cpp:380] loss_category <- label_category
I0502 00:40:51.836328 25168 net.cpp:338] loss_category -> (automatic)
I0502 00:40:51.836341 25168 net.cpp:113] Setting up loss_category
I0502 00:40:51.836364 25168 layer_factory.hpp:74] Creating layer loss_category
I0502 00:40:51.836415 25168 net.cpp:120] Top shape: (1)
I0502 00:40:51.836428 25168 net.cpp:122]     with loss weight 1
I0502 00:40:51.836472 25168 layer_factory.hpp:74] Creating layer fc8_pattern
I0502 00:40:51.836491 25168 net.cpp:84] Creating Layer fc8_pattern
I0502 00:40:51.836503 25168 net.cpp:380] fc8_pattern <- fc7_drop7_0_split_1
I0502 00:40:51.836519 25168 net.cpp:338] fc8_pattern -> fc8_pattern
I0502 00:40:51.836536 25168 net.cpp:113] Setting up fc8_pattern
I0502 00:40:51.839717 25168 net.cpp:120] Top shape: 50 20 (1000)
I0502 00:40:51.839753 25168 layer_factory.hpp:74] Creating layer loss_pattern
I0502 00:40:51.839771 25168 net.cpp:84] Creating Layer loss_pattern
I0502 00:40:51.839782 25168 net.cpp:380] loss_pattern <- fc8_pattern
I0502 00:40:51.839795 25168 net.cpp:380] loss_pattern <- label_pattern
I0502 00:40:51.839817 25168 net.cpp:338] loss_pattern -> (automatic)
I0502 00:40:51.839843 25168 net.cpp:113] Setting up loss_pattern
I0502 00:40:51.839856 25168 layer_factory.hpp:74] Creating layer loss_pattern
I0502 00:40:51.839877 25168 softmax_loss_layer.cpp:29] loss has ignore_label: 0
I0502 00:40:51.839895 25168 net.cpp:120] Top shape: (1)
I0502 00:40:51.839905 25168 net.cpp:122]     with loss weight 1
I0502 00:40:51.839921 25168 layer_factory.hpp:74] Creating layer fc8_neck
I0502 00:40:51.839937 25168 net.cpp:84] Creating Layer fc8_neck
I0502 00:40:51.839948 25168 net.cpp:380] fc8_neck <- fc7_drop7_0_split_2
I0502 00:40:51.839964 25168 net.cpp:338] fc8_neck -> fc8_neck
I0502 00:40:51.839982 25168 net.cpp:113] Setting up fc8_neck
I0502 00:40:51.843608 25168 net.cpp:120] Top shape: 50 23 (1150)
I0502 00:40:51.843639 25168 layer_factory.hpp:74] Creating layer loss_neck
I0502 00:40:51.843654 25168 net.cpp:84] Creating Layer loss_neck
I0502 00:40:51.843667 25168 net.cpp:380] loss_neck <- fc8_neck
I0502 00:40:51.843679 25168 net.cpp:380] loss_neck <- label_neck
I0502 00:40:51.843710 25168 net.cpp:338] loss_neck -> (automatic)
I0502 00:40:51.843730 25168 net.cpp:113] Setting up loss_neck
I0502 00:40:51.843744 25168 layer_factory.hpp:74] Creating layer loss_neck
I0502 00:40:51.843765 25168 softmax_loss_layer.cpp:29] loss has ignore_label: 0
I0502 00:40:51.843781 25168 net.cpp:120] Top shape: (1)
I0502 00:40:51.843793 25168 net.cpp:122]     with loss weight 1
I0502 00:40:51.843809 25168 layer_factory.hpp:74] Creating layer fc8_sleeve
I0502 00:40:51.843824 25168 net.cpp:84] Creating Layer fc8_sleeve
I0502 00:40:51.843835 25168 net.cpp:380] fc8_sleeve <- fc7_drop7_0_split_3
I0502 00:40:51.843852 25168 net.cpp:338] fc8_sleeve -> fc8_sleeve
I0502 00:40:51.843868 25168 net.cpp:113] Setting up fc8_sleeve
I0502 00:40:51.845327 25168 net.cpp:120] Top shape: 50 9 (450)
I0502 00:40:51.845358 25168 layer_factory.hpp:74] Creating layer loss_sleeve
I0502 00:40:51.845376 25168 net.cpp:84] Creating Layer loss_sleeve
I0502 00:40:51.845389 25168 net.cpp:380] loss_sleeve <- fc8_sleeve
I0502 00:40:51.845403 25168 net.cpp:380] loss_sleeve <- label_sleeve
I0502 00:40:51.845418 25168 net.cpp:338] loss_sleeve -> (automatic)
I0502 00:40:51.845432 25168 net.cpp:113] Setting up loss_sleeve
I0502 00:40:51.845445 25168 layer_factory.hpp:74] Creating layer loss_sleeve
I0502 00:40:51.845464 25168 softmax_loss_layer.cpp:29] loss has ignore_label: 0
I0502 00:40:51.845490 25168 net.cpp:120] Top shape: (1)
I0502 00:40:51.845504 25168 net.cpp:122]     with loss weight 1
I0502 00:40:51.845520 25168 layer_factory.hpp:74] Creating layer fc8_fit
I0502 00:40:51.845535 25168 net.cpp:84] Creating Layer fc8_fit
I0502 00:40:51.845548 25168 net.cpp:380] fc8_fit <- fc7_drop7_0_split_4
I0502 00:40:51.845564 25168 net.cpp:338] fc8_fit -> fc8_fit
I0502 00:40:51.845580 25168 net.cpp:113] Setting up fc8_fit
I0502 00:40:51.849668 25168 net.cpp:120] Top shape: 50 26 (1300)
I0502 00:40:51.849699 25168 layer_factory.hpp:74] Creating layer loss_fit
I0502 00:40:51.849720 25168 net.cpp:84] Creating Layer loss_fit
I0502 00:40:51.849731 25168 net.cpp:380] loss_fit <- fc8_fit
I0502 00:40:51.849745 25168 net.cpp:380] loss_fit <- label_fit
I0502 00:40:51.849761 25168 net.cpp:338] loss_fit -> (automatic)
I0502 00:40:51.849774 25168 net.cpp:113] Setting up loss_fit
I0502 00:40:51.849788 25168 layer_factory.hpp:74] Creating layer loss_fit
I0502 00:40:51.849812 25168 softmax_loss_layer.cpp:29] loss has ignore_label: 0
I0502 00:40:51.849838 25168 net.cpp:120] Top shape: (1)
I0502 00:40:51.849850 25168 net.cpp:122]     with loss weight 1
I0502 00:40:51.849865 25168 layer_factory.hpp:74] Creating layer fc8_ideal_for
I0502 00:40:51.849882 25168 net.cpp:84] Creating Layer fc8_ideal_for
I0502 00:40:51.849895 25168 net.cpp:380] fc8_ideal_for <- fc7_drop7_0_split_5
I0502 00:40:51.849910 25168 net.cpp:338] fc8_ideal_for -> fc8_ideal_for
I0502 00:40:51.849927 25168 net.cpp:113] Setting up fc8_ideal_for
I0502 00:40:51.851063 25168 net.cpp:120] Top shape: 50 7 (350)
I0502 00:40:51.851093 25168 layer_factory.hpp:74] Creating layer loss_ideal_for
I0502 00:40:51.851107 25168 net.cpp:84] Creating Layer loss_ideal_for
I0502 00:40:51.851119 25168 net.cpp:380] loss_ideal_for <- fc8_ideal_for
I0502 00:40:51.851131 25168 net.cpp:380] loss_ideal_for <- label_ideal_for
I0502 00:40:51.851145 25168 net.cpp:338] loss_ideal_for -> (automatic)
I0502 00:40:51.851158 25168 net.cpp:113] Setting up loss_ideal_for
I0502 00:40:51.851172 25168 layer_factory.hpp:74] Creating layer loss_ideal_for
I0502 00:40:51.851191 25168 softmax_loss_layer.cpp:29] loss has ignore_label: 0
I0502 00:40:51.851217 25168 net.cpp:120] Top shape: (1)
I0502 00:40:51.851228 25168 net.cpp:122]     with loss weight 1
I0502 00:40:51.851244 25168 layer_factory.hpp:74] Creating layer fc8_occasion
I0502 00:40:51.851258 25168 net.cpp:84] Creating Layer fc8_occasion
I0502 00:40:51.851270 25168 net.cpp:380] fc8_occasion <- fc7_drop7_0_split_6
I0502 00:40:51.851285 25168 net.cpp:338] fc8_occasion -> fc8_occasion
I0502 00:40:51.851301 25168 net.cpp:113] Setting up fc8_occasion
I0502 00:40:51.857270 25168 net.cpp:120] Top shape: 50 38 (1900)
I0502 00:40:51.857301 25168 layer_factory.hpp:74] Creating layer loss_occasion
I0502 00:40:51.857317 25168 net.cpp:84] Creating Layer loss_occasion
I0502 00:40:51.857328 25168 net.cpp:380] loss_occasion <- fc8_occasion
I0502 00:40:51.857342 25168 net.cpp:380] loss_occasion <- label_occasion
I0502 00:40:51.857357 25168 net.cpp:338] loss_occasion -> (automatic)
I0502 00:40:51.857380 25168 net.cpp:113] Setting up loss_occasion
…
name: "yq_fk1"
state {
  phase: TEST
}
layer {
  name: "data"
  type: "ImageDataMultLabel"
  top: "data"
  top: "label_category"
  top: "label_pattern"
  top: "label_neck"
  top: "label_sleeve"
  top: "label_fit"
  top: "label_ideal_for"
  top: "label_occasion"
  include {
    phase: TEST
  }
  transform_param {
    mirror: false
    crop_size: 227
    mean_file: "data/ilsvrc12/imagenet_mean.binaryproto"
  }
  image_data_mult_label_param {
    source: "/mnt/images/training/flipkart_yq2set/test.txt"
    batch_size: 50
    new_height: 256
    new_width: 256
  }
}
layer {
  name: "conv1"
  type: "Convolution"
  bottom: "data"
  top: "conv1"
  param {
    lr_mult: 1
    decay_mult: 1
  }
  param {
    lr_mult: 2
    decay_mult: 0
  }
  convolution_param {
    num_output: 96
    kernel_size: 11
    stride: 4
    weight_filler {
      type: "gaussian"
      std: 0.01
    }
    bias_filler {
      type: "constant"
      value: 0
    }
  }
}
layer {
  name: "relu1"
  type: "ReLU"
  bottom: "conv1"
  top: "conv1"
}
layer {
  name: "pool1"
  type: "Pooling"
  bottom: "conv1"
  top: "pool1"
  pooling_param {
    pool: MAX
    kernel_size: 3
    stride: 2
  }
}
layer {
  name: "norm1"
  type: "LRN"
  bottom: "pool1"
  top: "norm1"
  lrn_param {
    local_size: 5
    alpha: 0.0001
    beta: 0.75
  }
}
layer {
  name: "conv2"
  type: "Convolution"
  bottom: "norm1"
  top: "conv2"
  param {
    lr_mult: 1
    decay_mult: 1
  }
  param {
    lr_mult: 2
    decay_mult: 0
  }
  convolution_param {
    num_output: 256
    pad: 2
    kernel_size: 5
    group: 2
    weight_filler {
      type: "gaussian"
      std: 0.01
    }
    bias_filler {
      type: "constant"
      value: 1
    }
  }
}
layer {
  name: "relu2"
  type: "ReLU"
  bottom: "conv2"
  top: "conv2"
}
layer {
  name: "pool2"
  type: "Pooling"
  bottom: "conv2"
  top: "pool2"
  pooling_param {
    pool: MAX
    kernel_size: 3
    stride: 2
  }
}
layer {
  name: "norm2"
  type: "LRN"
  bottom: "pool2"
  top: "norm2"
  lrn_param {
    local_size: 5
    alpha: 0.0001
    beta: 0.75
  }
}
layer {
  name: "conv3"
  type: "Convolution"
  bottom: "norm2"
  top: "conv3"
  param {
    lr_mult: 1
    decay_mult: 1
  }
  param {
    lr_mult: 2
    decay_mult: 0
  }
  convolution_param {
    num_output: 384
    pad: 1
    kernel_size: 3
    weight_filler {
      type: "gaussian"
      std: 0.01
    }
    bias_filler {
      type: "constant"
      value: 0
    }
  }
}
layer {
  name: "relu3"
  type: "ReLU"
  bottom: "conv3"
  top: "conv3"
}
layer {
  name: "conv4"
  type: "Convolution"
  bottom: "conv3"
  top: "conv4"
  param {
    lr_mult: 1
    decay_mult: 1
  }
  param {
    lr_mult: 2
    decay_mult: 0
  }
  convolution_param {
    num_output: 384
    pad: 1
    kernel_size: 3
    group: 2
    weight_filler {
      type: "gaussian"
      std: 0.01
    }
    bias_filler {
      type: "constant"
      value: 1
    }
  }
}
layer {
  name: "relu4"
  type: "ReLU"
  bottom: "conv4"
  top: "conv4"
}
layer {
  name: "conv5"
  type: "Convolution"
  bottom: "conv4"
  top: "conv5"
  param {
    lr_mult: 1
    decay_mult: 1
  }
  param {
    lr_mult: 2
    decay_mult: 0
  }
  convolution_param {
    num_output: 256
    pad: 1
    kernel_size: 3
    group: 2
    weight_filler {
      type: "gaussian"
      std: 0.01
    }
    bias_filler {
      type: "constant"
      value: 1
    }
  }
}
layer {
  name: "relu5"
  type: "ReLU"
  bottom: "conv5"
  top: "conv5"
}
layer {
  name: "pool5"
  type: "Pooling"
  bottom: "conv5"
  top: "pool5"
  pooling_param {
    pool: MAX
    kernel_size: 3
    stride: 2
  }
}
layer {
  name: "fc6"
  type: "InnerProduct"
  bottom: "pool5"
  top: "fc6"
  param {
    lr_mult: 1
    decay_mult: 1
  }
  param {
    lr_mult: 2
    decay_mult: 0
  }
  inner_product_param {
    num_output: 4096
    weight_filler {
      type: "gaussian"
      std: 0.005
    }
    bias_filler {
      type: "constant"
      value: 1
    }
  }
}
layer {
  name: "relu6"
  type: "ReLU"
  bottom: "fc6"
  top: "fc6"
}
layer {
  name: "drop6"
  type: "Dropout"
  bottom: "fc6"
  top: "fc6"
  dropout_param {
    dropout_ratio: 0.5
  }
}
layer {
  name: "fc7"
  type: "InnerProduct"
  bottom: "fc6"
  top: "fc7"
  param {
    lr_mult: 4
    decay_mult: 1
  }
  param {
    lr_mult: 8
    decay_mult: 0
  }
  inner_product_param {
    num_output: 4096
    weight_filler {
      type: "gaussian"
      std: 0.005
    }
    bias_filler {
      type: "constant"
      value: 1
    }
  }
}
layer {
  name: "relu7"
  type: "ReLU"
  bottom: "fc7"
  top: "fc7"
}
layer {
  name: "drop7"
  type: "Dropout"
  bottom: "fc7"
  top: "fc7"
  dropout_param {
    dropout_ratio: 0.5
  }
}
layer {
  name: "fc8_category"
  type: "InnerProduct"
  bottom: "fc7"
  top: "fc8_category"
  param {
    lr_mult: 10
    decay_mult: 1
  }
  param {
    lr_mult: 20
    decay_mult: 0
  }
  inner_product_param {
    num_output: 26
    weight_filler {
      type: "gaussian"
      std: 0.01
    }
    bias_filler {
      type: "constant"
      value: 0
    }
  }
}
layer {
  name: "loss_category"
  type: "SoftmaxWithLoss"
  bottom: "fc8_category"
  bottom: "label_category"
}
layer {
  name: "accuracy_category"
  type: "Accuracy"
  bottom: "fc8_category"
  bottom: "label_category"
  top: "accuracy_category"
  include {
    phase: TEST
  }
}
layer {
  name: "fc8_pattern"
  type: "InnerProduct"
  bottom: "fc7"
  top: "fc8_pattern"
  param {
    lr_mult: 10
    decay_mult: 1
  }
  param {
    lr_mult: 20
    decay_mult: 0
  }
  inner_product_param {
    num_output: 20
    weight_filler {
      type: "gaussian"
      std: 0.01
    }
    bias_filler {
      type: "constant"
      value: 0
    }
  }
}
layer {
  name: "loss_pattern"
  type: "SoftmaxWithLoss"
  bottom: "fc8_pattern"
  bottom: "label_pattern"
  loss_param {
    ignore_label: 0
  }
}
layer {
  name: "accuracy_pattern"
  type: "Accuracy"
  bottom: "fc8_pattern"
  bottom: "label_pattern"
  top: "accuracy_pattern"
  include {
    phase: TEST
  }
  accuracy_param {
    ignore_label: 0
  }
}
layer {
  name: "fc8_neck"
  type: "InnerProduct"
  bottom: "fc7"
  top: "fc8_neck"
  param {
    lr_mult: 10
    decay_mult: 1
  }
  param {
    lr_mult: 20
    decay_mult: 0
  }
  inner_product_param {
    num_output: 23
    weight_filler {
      type: "gaussian"
      std: 0.01
    }
    bias_filler {
      type: "constant"
      value: 0
    }
  }
}
layer {
  name: "loss_neck"
  type: "SoftmaxWithLoss"
  bottom: "fc8_neck"
  bottom: "label_neck"
  loss_param {
    ignore_label: 0
  }
}
layer {
  name: "accuracy_neck"
  type: "Accuracy"
  bottom: "fc8_neck"
  bottom: "label_neck"
  top: "accuracy_neck"
  include {
    phase: TEST
  }
  accuracy_param {
    ignore_label: 0
  }
}
layer {
  name: "fc8_sleeve"
  type: "InnerProduct"
  bottom: "fc7"
  top: "fc8_sleeve"
  param {
    lr_mult: 10
    decay_mult: 1
  }
  param {
    lr_mult: 20
    decay_mult: 0
  }
  inner_product_param {
    num_output: 9
    weight_filler {
      type: "gaussian"
      std: 0.01
    }
    bias_filler {
      type: "constant"
      value: 0
    }
  }
}
layer {
  name: "loss_sleeve"
  type: "SoftmaxWithLoss"
  bottom: "fc8_sleeve"
  bottom: "label_sleeve"
  loss_param {
    ignore_label: 0
  }
}
layer {
  name: "accuracy_sleeve"
  type: "Accuracy"
  bottom: "fc8_sleeve"
  bottom: "label_sleeve"
  top: "accuracy_sleeve"
  include {
    phase: TEST
  }
  accuracy_param {
    ignore_label: 0
  }
}
layer {
  name: "fc8_fit"
  type: "InnerProduct"
  bottom: "fc7"
  top: "fc8_fit"
  param {
    lr_mult: 10
    decay_mult: 1
  }
  param {
    lr_mult: 20
    decay_mult: 0
  }
  inner_product_param {
    num_output: 26
    weight_filler {
      type: "gaussian"
      std: 0.01
    }
    bias_filler {
      type: "constant"
      value: 0
    }
  }
}
layer {
  name: "loss_fit"
  type: "SoftmaxWithLoss"
  bottom: "fc8_fit"
  bottom: "label_fit"
  loss_param {
    ignore_label: 0
  }
}
layer {
  name: "accuracy_fit"
  type: "Accuracy"
  bottom: "fc8_fit"
  bottom: "label_fit"
  top: "accuracy_fit"
  include {
    phase: TEST
  }
  accuracy_param {
    ignore_label: 0
  }
}
layer {
  name: "fc8_ideal_for"
  type: "InnerProduct"
  bottom: "fc7"
  top: "fc8_ideal_for"
  param {
    lr_mult: 10
    decay_mult: 1
  }
  param {
    lr_mult: 20
    decay_mult: 0
  }
  inner_product_param {
    num_output: 7
    weight_filler {
      type: "gaussian"
      std: 0.01
    }
    bias_filler {
      type: "constant"
      value: 0
    }
  }
}
layer {
  name: "loss_ideal_for"
  type: "SoftmaxWithLoss"
  bottom: "fc8_ideal_for"
  bottom: "label_ideal_for"
  loss_param {
    ignore_label: 0
  }
}
layer {
  name: "accuracy_ideal_for"
  type: "Accuracy"
  bottom: "fc8_ideal_for"
  bottom: "label_ideal_for"
  top: "accuracy_ideal_for"
  include {
    phase: TEST
  }
  accuracy_param {
    ignore_label: 0
  }
}
layer {
  name: "fc8_occasion"
  type: "InnerProduct"
  bottom: "fc7"
  top: "fc8_occasion"
  param {
    lr_mult: 10
    decay_mult: 1
  }
  param {
    lr_mult: 20
    decay_mult: 0
  }
  inner_product_param {
    num_output: 38
    weight_filler {
      type: "gaussian"
      std: 0.01
    }
    bias_filler {
      type: "constant"
      value: 0
    }
  }
}
layer {
  name: "loss_occasion"
  type: "SoftmaxWithLoss"
  bottom: "fc8_occasion"
  bottom: "label_occasion"
  loss_param {
    ignore_label: 0
  }
}
layer {
  name: "accuracy_occasion"
  type: "Accuracy"
  bottom: "fc8_occasion"
  bottom: "label_occasion"
  top: "accuracy_occasion"
  include {
    phase: TEST
  }
  accuracy_param {
    ignore_label: 0
  }
}
I0502 00:40:51.862623 25168 layer_factory.hpp:74] Creating layer data
I0502 00:40:51.862658 25168 net.cpp:84] Creating Layer data
I0502 00:40:51.862673 25168 net.cpp:338] data -> data
I0502 00:40:51.862692 25168 net.cpp:338] data -> label_category
I0502 00:40:51.862720 25168 net.cpp:338] data -> label_pattern
…
I0502 00:40:51.895117 25168 image_data_multclass_layer.cpp:75] ##############################################
I0502 00:40:51.895128 25168 image_data_multclass_layer.cpp:76] ##############################################
I0502 00:40:51.895138 25168 image_data_multclass_layer.cpp:77] size of top: 8
I0502 00:40:51.898565 25168 image_data_multclass_layer.cpp:95] output data size: 50,3,227,227
I0502 00:40:51.898597 25168 image_data_multclass_layer.cpp:99] number of labels: 7
I0502 00:40:51.898629 25168 data_transformer.cpp:22] Loading mean file from: data/ilsvrc12/imagenet_mean.binaryproto
I0502 00:40:51.909836 25168 net.cpp:120] Top shape: 50 3 227 227 (7729350)
I0502 00:40:51.909886 25168 net.cpp:120] Top shape: 50 (50)
I0502 00:40:51.909900 25168 net.cpp:120] Top shape: 50 (50)
I0502 00:40:51.909912 25168 net.cpp:120] Top shape: 50 (50)
I0502 00:40:51.909924 25168 net.cpp:120] Top shape: 50 (50)
I0502 00:40:51.909936 25168 net.cpp:120] Top shape: 50 (50)
I0502 00:40:51.909948 25168 net.cpp:120] Top shape: 50 (50)
I0502 00:40:51.909961 25168 net.cpp:120] Top shape: 50 (50)
I0502 00:40:51.910015 25168 layer_factory.hpp:74] Creating layer label_category_data_1_split
I0502 00:40:51.910042 25168 net.cpp:84] Creating Layer label_category_data_1_split
I0502 00:40:51.910054 25168 net.cpp:380] label_category_data_1_split <- label_category
I0502 00:40:51.910073 25168 net.cpp:338] label_category_data_1_split -> label_category_data_1_split_0
I0502 00:40:51.910095 25168 net.cpp:338] label_category_data_1_split -> label_category_data_1_split_1
I0502 00:40:51.910114 25168 net.cpp:113] Setting up label_category_data_1_split
I0502 00:40:51.910131 25168 net.cpp:120] Top shape: 50 (50)
I0502 00:40:51.910145 25168 net.cpp:120] Top shape: 50 (50)
I0502 00:40:51.910156 25168 layer_factory.hpp:74] Creating layer label_pattern_data_2_split
I0502 00:40:51.910169 25168 net.cpp:84] Creating Layer label_pattern_data_2_split
I0502 00:40:51.910181 25168 net.cpp:380] label_pattern_data_2_split <- label_pattern
I0502 00:40:51.910194 25168 net.cpp:338] label_pattern_data_2_split -> label_pattern_data_2_split_0
I0502 00:40:51.910210 25168 net.cpp:338] label_pattern_data_2_split -> label_pattern_data_2_split_1
I0502 00:40:51.910225 25168 net.cpp:113] Setting up label_pattern_data_2_split
I0502 00:40:51.910240 25168 net.cpp:120] Top shape: 50 (50)
I0502 00:40:51.910253 25168 net.cpp:120] Top shape: 50 (50)
I0502 00:40:51.910267 25168 layer_factory.hpp:74] Creating layer label_neck_data_3_split
I0502 00:40:51.910280 25168 net.cpp:84] Creating Layer label_neck_data_3_split
I0502 00:40:51.910291 25168 net.cpp:380] label_neck_data_3_split <- label_neck
I0502 00:40:51.910306 25168 net.cpp:338] label_neck_data_3_split -> label_neck_data_3_split_0
I0502 00:40:51.910321 25168 net.cpp:338] label_neck_data_3_split -> label_neck_data_3_split_1
I0502 00:40:51.910336 25168 net.cpp:113] Setting up label_neck_data_3_split
I0502 00:40:51.910349 25168 net.cpp:120] Top shape: 50 (50)
I0502 00:40:51.910362 25168 net.cpp:120] Top shape: 50 (50)
I0502 00:40:51.910372 25168 layer_factory.hpp:74] Creating layer label_sleeve_data_4_split
I0502 00:40:51.910387 25168 net.cpp:84] Creating Layer label_sleeve_data_4_split
I0502 00:40:51.910398 25168 net.cpp:380] label_sleeve_data_4_split <- label_sleeve
I0502 00:40:51.910411 25168 net.cpp:338] label_sleeve_data_4_split -> label_sleeve_data_4_split_0
I0502 00:40:51.910425 25168 net.cpp:338] label_sleeve_data_4_split -> label_sleeve_data_4_split_1
I0502 00:40:51.910439 25168 net.cpp:113] Setting up label_sleeve_data_4_split
I0502 00:40:51.910454 25168 net.cpp:120] Top shape: 50 (50)
I0502 00:40:51.910466 25168 net.cpp:120] Top shape: 50 (50)
I0502 00:40:51.910476 25168 layer_factory.hpp:74] Creating layer label_fit_data_5_split
I0502 00:40:51.910490 25168 net.cpp:84] Creating Layer label_fit_data_5_split
I0502 00:40:51.910501 25168 net.cpp:380] label_fit_data_5_split <- label_fit
I0502 00:40:51.910516 25168 net.cpp:338] label_fit_data_5_split -> label_fit_data_5_split_0
I0502 00:40:51.910534 25168 net.cpp:338] label_fit_data_5_split -> label_fit_data_5_split_1
I0502 00:40:51.910550 25168 net.cpp:113] Setting up label_fit_data_5_split
I0502 00:40:51.910567 25168 net.cpp:120] Top shape: 50 (50)
I0502 00:40:51.910578 25168 net.cpp:120] Top shape: 50 (50)
I0502 00:40:51.910588 25168 layer_factory.hpp:74] Creating layer label_ideal_for_data_6_split
I0502 00:40:51.910601 25168 net.cpp:84] Creating Layer label_ideal_for_data_6_split
I0502 00:40:51.910614 25168 net.cpp:380] label_ideal_for_data_6_split <- label_ideal_for
I0502 00:40:51.910627 25168 net.cpp:338] label_ideal_for_data_6_split -> label_ideal_for_data_6_split_0
I0502 00:40:51.910642 25168 net.cpp:338] label_ideal_for_data_6_split -> label_ideal_for_data_6_split_1
I0502 00:40:51.910656 25168 net.cpp:113] Setting up label_ideal_for_data_6_split
I0502 00:40:51.910671 25168 net.cpp:120] Top shape: 50 (50)
I0502 00:40:51.910684 25168 net.cpp:120] Top shape: 50 (50)
I0502 00:40:51.910694 25168 layer_factory.hpp:74] Creating layer label_occasion_data_7_split
I0502 00:40:51.910707 25168 net.cpp:84] Creating Layer label_occasion_data_7_split
I0502 00:40:51.910732 25168 net.cpp:380] label_occasion_data_7_split <- label_occasion
I0502 00:40:51.910747 25168 net.cpp:338] label_occasion_data_7_split -> label_occasion_data_7_split_0
I0502 00:40:51.910761 25168 net.cpp:338] label_occasion_data_7_split -> label_occasion_data_7_split_1
I0502 00:40:51.910775 25168 net.cpp:113] Setting up label_occasion_data_7_split
I0502 00:40:51.910790 25168 net.cpp:120] Top shape: 50 (50)
I0502 00:40:51.910802 25168 net.cpp:120] Top shape: 50 (50)
I0502 00:40:51.910850 25168 layer_factory.hpp:74] Creating layer conv1
I0502 00:40:51.910881 25168 net.cpp:84] Creating Layer conv1
I0502 00:40:51.910895 25168 net.cpp:380] conv1 <- data
I0502 00:40:51.910910 25168 net.cpp:338] conv1 -> conv1
I0502 00:40:51.910928 25168 net.cpp:113] Setting up conv1
I0502 00:40:51.912243 25168 net.cpp:120] Top shape: 50 96 55 55 (14520000)
I0502 00:40:51.912278 25168 layer_factory.hpp:74] Creating layer relu1
I0502 00:40:51.912297 25168 net.cpp:84] Creating Layer relu1
I0502 00:40:51.912307 25168 net.cpp:380] relu1 <- conv1
I0502 00:40:51.912322 25168 net.cpp:327] relu1 -> conv1 (in-place)
I0502 00:40:51.912335 25168 net.cpp:113] Setting up relu1
I0502 00:40:51.912349 25168 net.cpp:120] Top shape: 50 96 55 55 (14520000)
I0502 00:40:51.912364 25168 layer_factory.hpp:74] Creating layer pool1
I0502 00:40:51.912380 25168 net.cpp:84] Creating Layer pool1
I0502 00:40:51.912391 25168 net.cpp:380] pool1 <- conv1
I0502 00:40:51.912405 25168 net.cpp:338] pool1 -> pool1
I0502 00:40:51.912420 25168 net.cpp:113] Setting up pool1
I0502 00:40:51.912437 25168 net.cpp:120] Top shape: 50 96 27 27 (3499200)
I0502 00:40:51.912448 25168 layer_factory.hpp:74] Creating layer norm1
I0502 00:40:51.912466 25168 net.cpp:84] Creating Layer norm1
I0502 00:40:51.912477 25168 net.cpp:380] norm1 <- pool1
I0502 00:40:51.912490 25168 net.cpp:338] norm1 -> norm1
I0502 00:40:51.912505 25168 net.cpp:113] Setting up norm1
I0502 00:40:51.912521 25168 net.cpp:120] Top shape: 50 96 27 27 (3499200)
I0502 00:40:51.912533 25168 layer_factory.hpp:74] Creating layer conv2
I0502 00:40:51.912546 25168 net.cpp:84] Creating Layer conv2
I0502 00:40:51.912557 25168 net.cpp:380] conv2 <- norm1
I0502 00:40:51.912572 25168 net.cpp:338] conv2 -> conv2
I0502 00:40:51.912587 25168 net.cpp:113] Setting up conv2
I0502 00:40:51.924101 25168 net.cpp:120] Top shape: 50 256 27 27 (9331200)
I0502 00:40:51.924137 25168 layer_factory.hpp:74] Creating layer relu2
I0502 00:40:51.924154 25168 net.cpp:84] Creating Layer relu2
I0502 00:40:51.924165 25168 net.cpp:380] relu2 <- conv2
I0502 00:40:51.924180 25168 net.cpp:327] relu2 -> conv2 (in-place)
I0502 00:40:51.924193 25168 net.cpp:113] Setting up relu2
I0502 00:40:51.924208 25168 net.cpp:120] Top shape: 50 256 27 27 (9331200)
I0502 00:40:51.924219 25168 layer_factory.hpp:74] Creating layer pool2
I0502 00:40:51.924233 25168 net.cpp:84] Creating Layer pool2
I0502 00:40:51.924245 25168 net.cpp:380] pool2 <- conv2
I0502 00:40:51.924259 25168 net.cpp:338] pool2 -> pool2
I0502 00:40:51.924273 25168 net.cpp:113] Setting up pool2
I0502 00:40:51.924290 25168 net.cpp:120] Top shape: 50 256 13 13 (2163200)
I0502 00:40:51.924301 25168 layer_factory.hpp:74] Creating layer norm2
I0502 00:40:51.924315 25168 net.cpp:84] Creating Layer norm2
I0502 00:40:51.924326 25168 net.cpp:380] norm2 <- pool2
I0502 00:40:51.924340 25168 net.cpp:338] norm2 -> norm2
I0502 00:40:51.924353 25168 net.cpp:113] Setting up norm2
I0502 00:40:51.924368 25168 net.cpp:120] Top shape: 50 256 13 13 (2163200)
I0502 00:40:51.924379 25168 layer_factory.hpp:74] Creating layer conv3
I0502 00:40:51.924396 25168 net.cpp:84] Creating Layer conv3
I0502 00:40:51.924407 25168 net.cpp:380] conv3 <- norm2
I0502 00:40:51.924422 25168 net.cpp:338] conv3 -> conv3
I0502 00:40:51.924437 25168 net.cpp:113] Setting up conv3
I0502 00:40:51.958487 25168 net.cpp:120] Top shape: 50 384 13 13 (3244800)
I0502 00:40:51.958547 25168 layer_factory.hpp:74] Creating layer relu3
I0502 00:40:51.958569 25168 net.cpp:84] Creating Layer relu3
I0502 00:40:51.958587 25168 net.cpp:380] relu3 <- conv3
I0502 00:40:51.958637 25168 net.cpp:327] relu3 -> conv3 (in-place)
I0502 00:40:51.958654 25168 net.cpp:113] Setting up relu3
I0502 00:40:51.958668 25168 net.cpp:120] Top shape: 50 384 13 13 (3244800)
I0502 00:40:51.958679 25168 layer_factory.hpp:74] Creating layer conv4
I0502 00:40:51.958696 25168 net.cpp:84] Creating Layer conv4
I0502 00:40:51.958708 25168 net.cpp:380] conv4 <- conv3
I0502 00:40:51.958724 25168 net.cpp:338] conv4 -> conv4
I0502 00:40:51.958739 25168 net.cpp:113] Setting up conv4
I0502 00:40:51.983906 25168 net.cpp:120] Top shape: 50 384 13 13 (3244800)
I0502 00:40:51.983958 25168 layer_factory.hpp:74] Creating layer relu4
I0502 00:40:51.983980 25168 net.cpp:84] Creating Layer relu4
I0502 00:40:51.983994 25168 net.cpp:380] relu4 <- conv4
I0502 00:40:51.984012 25168 net.cpp:327] relu4 -> conv4 (in-place)
I0502 00:40:51.984030 25168 net.cpp:113] Setting up relu4
I0502 00:40:51.984045 25168 net.cpp:120] Top shape: 50 384 13 13 (3244800)
I0502 00:40:51.984060 25168 layer_factory.hpp:74] Creating layer conv5
I0502 00:40:51.984076 25168 net.cpp:84] Creating Layer conv5
I0502 00:40:51.984087 25168 net.cpp:380] conv5 <- conv4
I0502 00:40:51.984103 25168 net.cpp:338] conv5 -> conv5
I0502 00:40:51.984122 25168 net.cpp:113] Setting up conv5
I0502 00:40:52.001157 25168 net.cpp:120] Top shape: 50 256 13 13 (2163200)
I0502 00:40:52.001209 25168 layer_factory.hpp:74] Creating layer relu5
I0502 00:40:52.001230 25168 net.cpp:84] Creating Layer relu5
I0502 00:40:52.001245 25168 net.cpp:380] relu5 <- conv5
I0502 00:40:52.001260 25168 net.cpp:327] relu5 -> conv5 (in-place)
I0502 00:40:52.001277 25168 net.cpp:113] Setting up relu5
I0502 00:40:52.001291 25168 net.cpp:120] Top shape: 50 256 13 13 (2163200)
I0502 00:40:52.001302 25168 layer_factory.hpp:74] Creating layer pool5
I0502 00:40:52.001332 25168 net.cpp:84] Creating Layer pool5
I0502 00:40:52.001345 25168 net.cpp:380] pool5 <- conv5
I0502 00:40:52.001361 25168 net.cpp:338] pool5 -> pool5
I0502 00:40:52.001385 25168 net.cpp:113] Setting up pool5
I0502 00:40:52.001405 25168 net.cpp:120] Top shape: 50 256 6 6 (460800)
I0502 00:40:52.001417 25168 layer_factory.hpp:74] Creating layer fc6
I0502 00:40:52.001435 25168 net.cpp:84] Creating Layer fc6
I0502 00:40:52.001446 25168 net.cpp:380] fc6 <- pool5
I0502 00:40:52.001461 25168 net.cpp:338] fc6 -> fc6
I0502 00:40:52.001482 25168 net.cpp:113] Setting up fc6
I0502 00:40:53.412603 25168 net.cpp:120] Top shape: 50 4096 (204800)
I0502 00:40:53.412668 25168 layer_factory.hpp:74] Creating layer relu6
I0502 00:40:53.412693 25168 net.cpp:84] Creating Layer relu6
I0502 00:40:53.412706 25168 net.cpp:380] relu6 <- fc6
I0502 00:40:53.412726 25168 net.cpp:327] relu6 -> fc6 (in-place)
I0502 00:40:53.412742 25168 net.cpp:113] Setting up relu6
I0502 00:40:53.412757 25168 net.cpp:120] Top shape: 50 4096 (204800)
I0502 00:40:53.412768 25168 layer_factory.hpp:74] Creating layer drop6
I0502 00:40:53.412785 25168 net.cpp:84] Creating Layer drop6
I0502 00:40:53.412796 25168 net.cpp:380] drop6 <- fc6
I0502 00:40:53.412809 25168 net.cpp:327] drop6 -> fc6 (in-place)
I0502 00:40:53.412822 25168 net.cpp:113] Setting up drop6
I0502 00:40:53.412838 25168 net.cpp:120] Top shape: 50 4096 (204800)
I0502 00:40:53.412859 25168 layer_factory.hpp:74] Creating layer fc7
I0502 00:40:53.412880 25168 net.cpp:84] Creating Layer fc7
I0502 00:40:53.412892 25168 net.cpp:380] fc7 <- fc6
I0502 00:40:53.412909 25168 net.cpp:338] fc7 -> fc7
I0502 00:40:53.412926 25168 net.cpp:113] Setting up fc7
I0502 00:40:54.040529 25168 net.cpp:120] Top shape: 50 4096 (204800)
I0502 00:40:54.040592 25168 layer_factory.hpp:74] Creating layer relu7
I0502 00:40:54.040616 25168 net.cpp:84] Creating Layer relu7
I0502 00:40:54.040629 25168 net.cpp:380] relu7 <- fc7
I0502 00:40:54.040647 25168 net.cpp:327] relu7 -> fc7 (in-place)
I0502 00:40:54.040665 25168 net.cpp:113] Setting up relu7
I0502 00:40:54.040680 25168 net.cpp:120] Top shape: 50 4096 (204800)
I0502 00:40:54.040693 25168 layer_factory.hpp:74] Creating layer drop7
I0502 00:40:54.040707 25168 net.cpp:84] Creating Layer drop7
I0502 00:40:54.040761 25168 net.cpp:380] drop7 <- fc7
I0502 00:40:54.040777 25168 net.cpp:327] drop7 -> fc7 (in-place)
I0502 00:40:54.040792 25168 net.cpp:113] Setting up drop7
I0502 00:40:54.040808 25168 net.cpp:120] Top shape: 50 4096 (204800)
I0502 00:40:54.040819 25168 layer_factory.hpp:74] Creating layer fc7_drop7_0_split
I0502 00:40:54.040834 25168 net.cpp:84] Creating Layer fc7_drop7_0_split
I0502 00:40:54.040845 25168 net.cpp:380] fc7_drop7_0_split <- fc7
I0502 00:40:54.040859 25168 net.cpp:338] fc7_drop7_0_split -> fc7_drop7_0_split_0
I0502 00:40:54.040876 25168 net.cpp:338] fc7_drop7_0_split -> fc7_drop7_0_split_1
I0502 00:40:54.040902 25168 net.cpp:338] fc7_drop7_0_split -> fc7_drop7_0_split_2
I0502 00:40:54.040923 25168 net.cpp:338] fc7_drop7_0_split -> fc7_drop7_0_split_3
I0502 00:40:54.040940 25168 net.cpp:338] fc7_drop7_0_split -> fc7_drop7_0_split_4
I0502 00:40:54.040954 25168 net.cpp:338] fc7_drop7_0_split -> fc7_drop7_0_split_5
I0502 00:40:54.040969 25168 net.cpp:338] fc7_drop7_0_split -> fc7_drop7_0_split_6
I0502 00:40:54.040982 25168 net.cpp:113] Setting up fc7_drop7_0_split
I0502 00:40:54.041002 25168 net.cpp:120] Top shape: 50 4096 (204800)
I0502 00:40:54.041023 25168 net.cpp:120] Top shape: 50 4096 (204800)
I0502 00:40:54.041035 25168 net.cpp:120] Top shape: 50 4096 (204800)
I0502 00:40:54.041049 25168 net.cpp:120] Top shape: 50 4096 (204800)
I0502 00:40:54.041059 25168 net.cpp:120] Top shape: 50 4096 (204800)
I0502 00:40:54.041074 25168 net.cpp:120] Top shape: 50 4096 (204800)
I0502 00:40:54.041086 25168 net.cpp:120] Top shape: 50 4096 (204800)
I0502 00:40:54.041097 25168 layer_factory.hpp:74] Creating layer fc8_category
I0502 00:40:54.041115 25168 net.cpp:84] Creating Layer fc8_category
I0502 00:40:54.041126 25168 net.cpp:380] fc8_category <- fc7_drop7_0_split_0
I0502 00:40:54.041142 25168 net.cpp:338] fc8_category -> fc8_category
I0502 00:40:54.041158 25168 net.cpp:113] Setting up fc8_category
I0502 00:40:54.045260 25168 net.cpp:120] Top shape: 50 26 (1300)
I0502 00:40:54.045295 25168 layer_factory.hpp:74] Creating layer fc8_category_fc8_category_0_split
I0502 00:40:54.045310 25168 net.cpp:84] Creating Layer fc8_category_fc8_category_0_split
I0502 00:40:54.045322 25168 net.cpp:380] fc8_category_fc8_category_0_split <- fc8_category
I0502 00:40:54.045337 25168 net.cpp:338] fc8_category_fc8_category_0_split -> fc8_category_fc8_category_0_split_0
I0502 00:40:54.045353 25168 net.cpp:338] fc8_category_fc8_category_0_split -> fc8_category_fc8_category_0_split_1
I0502 00:40:54.045368 25168 net.cpp:113] Setting up fc8_category_fc8_category_0_split
I0502 00:40:54.045384 25168 net.cpp:120] Top shape: 50 26 (1300)
I0502 00:40:54.045397 25168 net.cpp:120] Top shape: 50 26 (1300)
I0502 00:40:54.045408 25168 layer_factory.hpp:74] Creating layer loss_category
I0502 00:40:54.045429 25168 net.cpp:84] Creating Layer loss_category
I0502 00:40:54.045441 25168 net.cpp:380] loss_category <- fc8_category_fc8_category_0_split_0
I0502 00:40:54.045455 25168 net.cpp:380] loss_category <- label_category_data_1_split_0
I0502 00:40:54.045471 25168 net.cpp:338] loss_category -> (automatic)
…
